src/CyberHero/Assets/Scenes/Prototype Alex/ENEMY AI/Enemy Agent.onnx (onnx, 81529 bytes, 7 tensors)

discrete_act_size_vector f4 [1, 2]
0	0x40000000	2.0
1	0x3f800000	1.0

network_body._body_endoder.seq_layers.0.weight f4 [128, 13]
0	0xbdae68cf	-0.085160844
1	0x3dc6cb80	0.09706783
2	0x3e59e561	0.21278907
3	0x3f1bfc87	0.609322
4	0x3efbbda7	0.4916813
5	0xbe2b836f	-0.16749357
6	0x3e84e850	0.2595849
7	0x3e9ace0e	0.30235332
8	0x3eb11b50	0.3459115
9	0x3ee0bcfb	0.4389418
10	0x3d8553ff	0.065101616
11	0xbd3b258e	-0.04569011
12	0xbec35f98	-0.3815887
13	0x3ecb3996	0.39692372
14	0xbe9bbbd0	-0.30416727
15	0x3f1786b1	0.591899
16	0xbd7ed37a	-0.0622134
17	0x3d2f7d09	0.042843852
18	0xbcb6b1a1	-0.022301497
19	0x3ec24abc	0.37947643
20	0xbf24f32e	-0.6443356
21	0xbe26d672	-0.16292742
22	0x3bda8190	0.006668277
23	0x3e6530b2	0.22381857
24	0x3dede287	0.11615472
25	0x3dc211ab	0.09476026
26	0x3ea68509	0.32523373
27	0xbeda7206	-0.42665118
28	0x3f463034	0.774173
29	0x3ea56219	0.32301405
30	0xbd95bbce	-0.073112115
31	0x3e5dff5f	0.21679448
32	0xbe472072	-0.1944597
33	0xbeb12e49	-0.34605625
34	0x3ea1c470	0.31595182
35	0xbef9af8b	-0.4876674
36	0xbeb09f30	-0.3449645
37	0x3f177165	0.591574
38	0x3ebda90c	0.37043035
39	0x3d417d1f	0.047238465
40	0xbe95f5dc	-0.29289138
41	0xbd83bc8e	-0.06432448
42	0x3e2b5a31	0.16733624
43	0xbe65cbe3	-0.22441058
44	0xbeb6470d	-0.35601082
45	0x3d91980c	0.07109079
46	0xbf759e21	-0.9594441
47	0xbd52bdbb	-0.051450472
48	0x3de55509	0.1119786
49	0xbdb6bea8	-0.089230835
50	0x3f00649b	0.5015351
51	0x3daee397	0.08539503
52	0xbcb3414f	-0.021881728
53	0x3e43cb1a	0.19120446
54	0x3e27d8fc	0.16391367
55	0xbf22c5d3	-0.63583106
56	0xbe271a0f	-0.16318534
57	0xbdabb9b8	-0.083850324
58	0x3e456a04	0.19278723
59	0xbd6e31bf	-0.05815291
60	0xbec1b5c5	-0.37833992
61	0xbe7a9388	-0.24470341
62	0xbe83341a	-0.25625688
63	0xbecd15f0	-0.400558
64	0x3ec09794	0.37615645
65	0xbdd7db3b	-0.10539862
66	0xbd962420	-0.07331109
67	0x3d9602b7	0.073247366
68	0x3eae80d1	0.34082654
69	0x3e828979	0.25495508
70	0xbef68e77	-0.48155567
71	0xbec44bf8	-0.3833921
72	0x3e95859f	0.29203507
73	0x3f1c8f75	0.611564
74	0x3e76a6af	0.24087022
75	0x3d7d8c80	0.06190157
76	0x3dea283f	0.114334576
77	0xbe99f863	-0.30072317
78	0x3ed82ddd	0.4222249
79	0xbd118079	-0.03552291
80	0x3e3a9ff7	0.18225084
81	0x3ed9c610	0.42533922
82	0xbdfa9239	-0.12234921
83	0x3d077317	0.033068743
84	0xbe92844b	-0.28616557
85	0xbcd72d3c	-0.026266687
86	0x3ed17f8d	0.40917626
87	0xbef6d8a4	-0.4821216
88	0xbe51d618	-0.20491827
89	0xbd61c992	-0.055123873
90	0xbf10ddfa	-0.5658871
91	0x3d3fd691	0.046835486
92	0xbd5f6a38	-0.054544657
93	0x3ec56a34	0.3855759
94	0x3e56a331	0.2096069
95	0xbc41b05c	-0.0118218325
96	0x3e997939	0.29975298
97	0xbd8d8676	-0.06910412
98	0x3e5cf850	0.21579099
99	0xbf1b330b	-0.6062476
100	0x3e14d790	0.14535356
101	0xbcb77fd2	-0.022399817
102	0xbce1c365	-0.027558992
103	0x3dab06d2	0.0835091
104	0xbea314fa	-0.3185194
105	0x3e2e487a	0.17019835
106	0xbd47dc56	-0.048794113
107	0x3e82b768	0.25530553
108	0xbd797361	-0.06090105
109	0xbd149b2b	-0.036280792
110	0xbccf1c77	-0.025282128
111	0xbd6131cb	-0.054979127
112	0x3bf5a0ca	0.007495974
113	0x3ccbd831	0.024883362
114	0x3d14a575	0.036290605
115	0x3d9e7fcd	0.0773922
116	0xbdf9b7b5	-0.121932425
117	0xbebe055f	-0.37113473
118	0x3e910bf0	0.2832942
119	0x3c8d7428	0.017267302
120	0xbed7677b	-0.42071137
121	0xbda5fb4b	-0.08104571
122	0x3e65019e	0.22363898
123	0x3f068203	0.5254213
124	0xbf04a345	-0.5181163
125	0xbe046e81	-0.12932779
126	0xbe342244	-0.17591196
127	0xbe889fa7	-0.26684305
128	0xbe39bd10	-0.18138528
129	0x3d1eb788	0.038749248
130	0x3dbc6133	0.09198227
131	0x3f07b105	0.53004485
132	0xbe91c3b1	-0.28469613
133	0x3ed3884f	0.41314933
134	0x3e06b3ef	0.13154577
135	0x3e0e7fb3	0.13915901
136	0xbe99ea74	-0.30061686
137	0x3e8a7fcc	0.27050626
138	0x3e13c32b	0.1442992
139	0xbd9db622	-0.07700755
140	0xbeaa0749	-0.33208683
141	0x3e8cae7f	0.2747688
142	0x3df46b8f	0.11934578
143	0x3ed44846	0.4146139
144	0x3c8eb80d	0.017421747
145	0x3ea0a31a	0.31374437
146	0x3f08ceb6	0.53440416
147	0xbea0ce54	-0.31407416
148	0x3e2eb816	0.1706241
149	0x3e40475d	0.18777223
150	0xbdcdd871	-0.100510485
151	0xbed74cae	-0.4205069
152	0x3e1fb289	0.1559545
153	0x3ea5da46	0.32393092
154	0x3e9f5c06	0.31124896
155	0x3ed3299f	0.41242692
156	0xbf165eef	-0.5873861
157	0xbf09ce5b	-0.538305
158	0x3e7532ec	0.23945206
159	0x3c384c4c	0.011248659
160	0x3e2117f7	0.15731798
161	0x3d9855c1	0.07438231
162	0x3edbe832	0.42950588
163	0xbdf0d450	-0.117592454
164	0x3ec1b248	0.3783133
165	0x3f1ea1db	0.6196572
166	0x3c96e9b8	0.018421993
167	0xbf063e9f	-0.524393
168	0xbd995c14	-0.07488266
169	0x3e7261e8	0.23670161
170	0x3e102c69	0.14079441
171	0x3e972ad5	0.29524866
172	0x3b2f4814	0.0026745843
173	0x3f048a3c	0.5177343
174	0x3ea8b4d4	0.3295046
175	0xbed8bb2e	-0.42330307
176	0xbc2b6a5b	-0.010462369
177	0x3db31d67	0.087458424
178	0xbc984f59	-0.018592523
179	0x3efddc06	0.49581927
180	0xbe08a445	-0.13343914
181	0xbf30a055	-0.6899465
182	0x3ed9db83	0.42550287
183	0x3d01a943	0.03165556
184	0x3d9354de	0.071939215
185	0x3dcbfd63	0.09960439
186	0x3f3a0b44	0.7267344
187	0xbedae0b6	-0.42749566
188	0x3e0be8b0	0.13662982
189	0xbdfad6f4	-0.1224803
190	0xbf195fca	-0.5991179
191	0x3e3f5b32	0.18687132
192	0xbdca2da6	-0.09871988
193	0x3de45a00	0.11149979
194	0x3e0e41ab	0.13892238
195	0xbf15a93a	-0.58461344
196	0xbe9806ab	-0.29692587
197	0x3d8e8154	0.06958261
198	0x3dd7d95b	0.10539504
199	0xbcdf5f7c	-0.02726721
200	0x3ee2786f	0.4423251
201	0xbe741900	-0.23837662
202	0x3dc55733	0.096357726
203	0x3e5e73d8	0.21723878
204	0xbd98f1d0	-0.07467997
205	0xbd894843	-0.06703236
206	0xbc49fa39	-0.012327724
207	0xbcf116b8	-0.029429778
208	0x3e7a0756	0.24416861
209	0x3dae52aa	0.08511861
210	0x3ea17782	0.3153649
211	0x3d15773f	0.036490675
212	0xbe3c051c	-0.18361324
213	0x3e324dfa	0.17412558
214	0x3caad2f9	0.020852553
215	0xbe4251e1	-0.18976547
216	0xbeaf6e96	-0.34264058
217	0x3e80336a	0.25039226
218	0x3ed87fff	0.42285153
219	0xbe98f5ff	-0.2987518
220	0xbea0d508	-0.3141253
221	0xbe1f0203	-0.15528111
222	0x3de9c156	0.11413829
223	0xbea76b80	-0.32699203
224	0xbe0d8e89	-0.13823904
225	0xbda58b36	-0.08083193
226	0x3ed6fe2f	0.41990802
227	0x3d23a1c2	0.039949186
228	0x3f0f576c	0.5599277
229	0x3e7f30fe	0.24921033
230	0x3eaf754e	0.34269184
231	0xbe6cf231	-0.23139264
232	0xbe099e12	-0.13439205
233	0xbeb69de2	-0.3566733
234	0xbdae9114	-0.08523765
235	0xbea9b7ed	-0.33148137
236	0x3e0cea6c	0.137613
237	0xbed704a7	-0.41995737
238	0x3e49f544	0.19722468
239	0x3e762507	0.24037562
240	0xbed588de	-0.41705984
241	0xbc9a6fbd	-0.01885211
242	0xbee765c6	-0.45194834
243	0xbece775d	-0.40325442
244	0x3f0ddf6c	0.5541904
245	0x3d4a266c	0.04935305
246	0xbdffb7d9	-0.12486238
247	0xbe47f122	-0.19525579
248	0x3da57bcc	0.08080253
249	0xbe6b111a	-0.22955742
250	0xbeab68b5	-0.33478323
251	0x3c6050d1	0.013691143
252	0x3e17c77f	0.14822195
253	0xbc51dd2f	-0.012809082
254	0xbdf17ba9	-0.117911644
255	0xbddf1f54	-0.10894647

network_body._body_endoder.seq_layers.0.bias f4 [128]
0	0x00000000	0.0
1	0x00000000	0.0
2	0x00000000	0.0
3	0x00000000	0.0
4	0x00000000	0.0
5	0x00000000	0.0
6	0x00000000	0.0
7	0x00000000	0.0
8	0x00000000	0.0
9	0x00000000	0.0
10	0x00000000	0.0
11	0x00000000	0.0
12	0x00000000	0.0
13	0x00000000	0.0
14	0x00000000	0.0
15	0x00000000	0.0
16	0x00000000	0.0
17	0x00000000	0.0
18	0x00000000	0.0
19	0x00000000	0.0
20	0x00000000	0.0
21	0x00000000	0.0
22	0x00000000	0.0
23	0x00000000	0.0
24	0x00000000	0.0
25	0x00000000	0.0
26	0x00000000	0.0
27	0x00000000	0.0
28	0x00000000	0.0
29	0x00000000	0.0
30	0x00000000	0.0
31	0x00000000	0.0
32	0x00000000	0.0
33	0x00000000	0.0
34	0x00000000	0.0
35	0x00000000	0.0
36	0x00000000	0.0
37	0x00000000	0.0
38	0x00000000	0.0
39	0x00000000	0.0
40	0x00000000	0.0
41	0x00000000	0.0
42	0x00000000	0.0
43	0x00000000	0.0
44	0x00000000	0.0
45	0x00000000	0.0
46	0x00000000	0.0
47	0x00000000	0.0
48	0x00000000	0.0
49	0x00000000	0.0
50	0x00000000	0.0
51	0x00000000	0.0
52	0x00000000	0.0
53	0x00000000	0.0
54	0x00000000	0.0
55	0x00000000	0.0
56	0x00000000	0.0
57	0x00000000	0.0
58	0x00000000	0.0
59	0x00000000	0.0
60	0x00000000	0.0
61	0x00000000	0.0
62	0x00000000	0.0
63	0x00000000	0.0
64	0x00000000	0.0
65	0x00000000	0.0
66	0x00000000	0.0
67	0x00000000	0.0
68	0x00000000	0.0
69	0x00000000	0.0
70	0x00000000	0.0
71	0x00000000	0.0
72	0x00000000	0.0
73	0x00000000	0.0
74	0x00000000	0.0
75	0x00000000	0.0
76	0x00000000	0.0
77	0x00000000	0.0
78	0x00000000	0.0
79	0x00000000	0.0
80	0x00000000	0.0
81	0x00000000	0.0
82	0x00000000	0.0
83	0x00000000	0.0
84	0x00000000	0.0
85	0x00000000	0.0
86	0x00000000	0.0
87	0x00000000	0.0
88	0x00000000	0.0
89	0x00000000	0.0
90	0x00000000	0.0
91	0x00000000	0.0
92	0x00000000	0.0
93	0x00000000	0.0
94	0x00000000	0.0
95	0x00000000	0.0
96	0x00000000	0.0
97	0x00000000	0.0
98	0x00000000	0.0
99	0x00000000	0.0
100	0x00000000	0.0
101	0x00000000	0.0
102	0x00000000	0.0
103	0x00000000	0.0
104	0x00000000	0.0
105	0x00000000	0.0
106	0x00000000	0.0
107	0x00000000	0.0
108	0x00000000	0.0
109	0x00000000	0.0
110	0x00000000	0.0
111	0x00000000	0.0
112	0x00000000	0.0
113	0x00000000	0.0
114	0x00000000	0.0
115	0x00000000	0.0
116	0x00000000	0.0
117	0x00000000	0.0
118	0x00000000	0.0
119	0x00000000	0.0
120	0x00000000	0.0
121	0x00000000	0.0
122	0x00000000	0.0
123	0x00000000	0.0
124	0x00000000	0.0
125	0x00000000	0.0
126	0x00000000	0.0
127	0x00000000	0.0

network_body._body_endoder.seq_layers.2.weight f4 [128, 128]
0	0x3d1e45e6	0.03864088
1	0x3d459da9	0.04824606
2	0xbd6e56b5	-0.05818816
3	0x3e2a5127	0.1663252
4	0xbdad47b7	-0.08460944
5	0xbdcd2599	-0.10016937
6	0x3d7376de	0.059439532
7	0xbde9c226	-0.11413984
8	0xbbe0e4bd	-0.006863205
9	0x3e82bc85	0.25534454
10	0x3debfa18	0.11522311
11	0x3dfb45a0	0.12269139
12	0x3d7c89d4	0.06165488
13	0x3e334170	0.17505431
14	0xbcd71cb2	-0.0262588
15	0xbd68ad2f	-0.056805786
16	0x3c02a620	0.007974178
17	0x3d7ad7e1	0.061241034
18	0x3d8d8ae6	0.069112584
19	0xbd52fab1	-0.05150861
20	0x3cbb578d	0.022868896
21	0x3e31db3b	0.17368786
22	0xbda09071	-0.0784005
23	0x3d64de75	0.055876214
24	0x3c354e10	0.011065975
25	0x3b4511aa	0.0030070343
26	0xbda700d2	-0.08154453
27	0xbe22345f	-0.1584029
28	0xbdc3bf37	-0.09557956
29	0xbd103bbd	-0.03521322
30	0xbe56fb64	-0.20994335
31	0x3d304316	0.043032728
32	0xbdb9d174	-0.09073153
33	0xbe927273	-0.28602943
34	0x3d873e34	0.06603661
35	0x3d877dee	0.06615816
36	0x3c5f24a0	0.013619572
37	0xbdf0aedc	-0.11752102
38	0xbc5638f2	-0.0130751
39	0xbe32f7e3	-0.17477374
40	0xbdaeaf13	-0.085294865
41	0x3d2e8927	0.042611267
42	0xbd76c73f	-0.06024861
43	0xbdb2a983	-0.08723738
44	0xbab931f8	-0.0014129272
45	0xbccf129b	-0.025277426
46	0xbca76489	-0.020433681
47	0x3de5b127	0.1121543
48	0xbcea22da	-0.028581072
49	0x3dc69bab	0.0969766
50	0xbe29b64e	-0.1657345
51	0x3ddc9330	0.10770261
52	0xbd3feb79	-0.046855424
53	0x3d19dbb3	0.037563037
54	0x3e21d0c0	0.15802288
55	0xbd91ad35	-0.07113115
56	0xbe5d45ed	-0.21608706
57	0xbdb0cc3a	-0.08632703
58	0xbda2a998	-0.07942504
59	0xbe07ce48	-0.13262284
60	0x3caa1eef	0.020766703
61	0x3dbf5754	0.093428284
62	0xbccf5b83	-0.02531219
63	0xbc7d68ac	-0.01546685
64	0x3d8e0f15	0.069364704
65	0xbcb2026c	-0.02172967
66	0x3de6a215	0.112613834
67	0x3e2978b0	0.16549945
68	0xbd7d8ed7	-0.0619038
69	0x3dc1fa05	0.094715156
70	0x3d76210c	0.06009011
71	0xbc88b507	-0.016687883
72	0x3cb26372	0.021775935
73	0xbe0cadcf	-0.13738178
74	0x3c0e0e7d	0.008670446
75	0xbe125b70	-0.14292693
76	0xbd21324e	-0.039354615
77	0x3c80d5af	0.015726892
78	0x3e54f43c	0.20796293
79	0xbdbd3533	-0.092386626
80	0x3e38660a	0.18007675
81	0xbda83035	-0.0821232
82	0xbd463160	-0.04838693
83	0x3df95cb0	0.12175882
84	0xbca53200	-0.020165443
85	0x3cfb7fdc	0.030700617
86	0x3d803267	0.062596135
87	0xbce868ac	-0.028370224
88	0x3db13e56	0.08654468
89	0x3d58b1d6	0.052903973
90	0xbd4ced21	-0.05003083
91	0xbdd85b48	-0.105642855
92	0xbe071e07	-0.13195048
93	0xbd6380b9	-0.05554268
94	0x3bcf4b94	0.0063261483
95	0xbdd9492f	-0.10609662
96	0x3dd4ff0d	0.104002096
97	0xbcc71357	-0.024301214
98	0xbdaedef2	-0.08538617
99	0x3cf34e51	0.02970043
100	0x3df7aab1	0.12093104
101	0x3e1f9456	0.1558393
102	0xbd61aa35	-0.055093963
103	0x3dcac762	0.099013105
104	0xbda0ca70	-0.07851112
105	0xbdafb74b	-0.08579882
106	0x3dcc0284	0.09961417
107	0x3d92911c	0.07156584
108	0x3d316165	0.043305773
109	0x3d90b367	0.07065468
110	0xbe154686	-0.14577684
111	0x3bb4c8f6	0.0055171205
112	0xbdcf1815	-0.10112015
113	0xbd82827e	-0.06372546
114	0x3d9f1adc	0.07768795
115	0x3ce17f73	0.027526593
116	0x3db6d5d5	0.08927504
117	0xbe499297	-0.19684826
118	0xbce1127c	-0.027474634
119	0xbc356225	-0.011070763
120	0xbd020ed7	-0.031752434
121	0x3d279293	0.04091127
122	0x3d3e8861	0.04651678
123	0xbd9f6d37	-0.07784503
124	0x3d8a8bfc	0.06764981
125	0xbcb8872b	-0.02252539
126	0xbb809b9d	-0.0039248005
127	0xbcb187fa	-0.021671284
128	0x3dc05e3b	0.09392973
129	0x3daf4ff8	0.08560175
130	0x3c5b8b1e	0.013399867
131	0x3d269b82	0.040675648
132	0x3d94588e	0.07243453
133	0x3cdcee73	0.02696917
134	0x3d294eb2	0.041334815
135	0xbc988a35	-0.01862059
136	0xbe2de6e2	-0.16982606
137	0xbce4603d	-0.027877921
138	0x3d948856	0.072525665
139	0xbd765d6a	-0.06014768
140	0xbcbe7e6d	-0.023253644
141	0xbdd2ce58	-0.10293263
142	0x3ae6143a	0.0017553635
143	0xbdb35f7a	-0.08758445
144	0x3df2f2cf	0.11862718
145	0xbca4bfb5	-0.020110944
146	0x3dbb84f3	0.091562174
147	0xbd827d22	-0.063715234
148	0xbdb5f0aa	-0.08883794
149	0xbc51cc76	-0.012805095
150	0x3e17a0ab	0.14807384
151	0x3e261307	0.16218196
152	0x3da688ee	0.08131586
153	0xbdd188a4	-0.1023114
154	0xbdadabb0	-0.084800124
155	0xbd582152	-0.05276615
156	0xbcd0ce1f	-0.025488911
157	0xbc699521	-0.0142567465
158	0x3e7eb02b	0.2487189
159	0x3d2c0c14	0.042003706
160	0x3db1ce45	0.08681921
161	0x3dd440bb	0.10363909
162	0xbd690405	-0.0568886
163	0x3dc0449a	0.09388085
164	0x3e05738e	0.13032362
165	0xbdd92dd0	-0.10604441
166	0x3da58056	0.08081119
167	0xbd22358d	-0.03960185
168	0x3db7823c	0.08960387
169	0xbdcbefcc	-0.09957847
170	0x3dd45afe	0.10368918
171	0xbd80f4a3	-0.06296661
172	0xbdf7815a	-0.12085219
173	0x3d1b325e	0.03788983
174	0x3e85df71	0.26147035
175	0xbc241322	-0.010014327
176	0xb9a7dc86	-0.00032017025
177	0x3dc94187	0.098269515
178	0x3d1a4078	0.03765914
179	0x3c3c3ef9	0.011489623
180	0xbbcf4ec0	-0.0063265264
181	0xbceeafb7	-0.029136522
182	0x3d9b2d4f	0.07577001
183	0xbdfa9666	-0.122357175
184	0x3dc02c79	0.093834825
185	0xbcf20c6f	-0.029546944
186	0xbd9a9a9f	-0.07549023
187	0xbdbeed80	-0.09322643
188	0xbdc3960c	-0.095501035
189	0x3d53b75f	0.05168855
190	0xbdcaff0e	-0.09911929
191	0xbddf89a7	-0.10914927
192	0xbe1598ce	-0.14609072
193	0xba4e27ad	-0.00078641885
194	0xbddc0eac	-0.10744986
195	0x3db8d601	0.09025193
196	0xbbb3b6cd	-0.005484438
197	0xbddf8aa7	-0.10915118
198	0x3dbab434	0.09116402
199	0xbd848620	-0.06470895
200	0x3caf522c	0.021401487
201	0xbd8b0188	-0.067874014
202	0xbac7041a	-0.0015183717
203	0x3e13dfdf	0.14440869
204	0x3df9d94c	0.12199649
205	0x3dd93ff0	0.10607898
206	0x3dfb2691	0.12263215
207	0xbc430454	-0.011902887
208	0x3d22bb21	0.03972924
209	0x3d180b01	0.03711987
210	0x3e1fa84d	0.15591545
211	0xbc2020f8	-0.009773485
212	0xbae68daf	-0.0017589832
213	0x3e3e190f	0.18564247
214	0xbd6a6324	-0.057223454
215	0x3d8429d4	0.064532906
216	0xbdb2fd15	-0.08739678
217	0x3b93e961	0.004513905
218	0xbd995b25	-0.074880876
219	0xbdb110f9	-0.086458154
220	0xbe2081a1	-0.1567445
221	0x3e022aa8	0.12711585
222	0xbd14a6a3	-0.03629173
223	0xbd0f27c2	-0.034950025
224	0xbdf10c76	-0.11769955
225	0xbe12e274	-0.14344198
226	0x3d4a9421	0.049457673
227	0x3e12c9b0	0.1433475
228	0xbe2dc49c	-0.16969532
229	0xbce857ed	-0.028362239
230	0xbe26de70	-0.1629579
231	0xbd8fdd9a	-0.07024689
232	0xbc2bd186	-0.010486966
233	0x3d00b73d	0.03142475
234	0x3daab8a9	0.083360024
235	0x3e591f6c	0.21203393
236	0x3d6f3418	0.05839929
237	0xbd917408	-0.07102209
238	0xbdb8c4f2	-0.09021939
239	0x3e0ece1d	0.13945813
240	0xbda76d76	-0.08175175
241	0x3e83b866	0.25726622
242	0x3e0b508a	0.13604942
243	0xbd61dc1c	-0.055141553
244	0xbc3bd28f	-0.011463775
245	0xbd399b84	-0.045314327
246	0x3ce58ad5	0.028020302
247	0xbd9174cd	-0.07102356
248	0x3e1feea2	0.15618375
249	0x3d879074	0.06619349
250	0x3da796a4	0.08183029
251	0x3d1bed4c	0.0380681
252	0xbc320902	-0.010866405
253	0x3e247f51	0.16064192
254	0xbe14f37f	-0.14546011
255	0x3db1d7e4	0.08683756

action_model._discrete_distribution.branches.0.weight f4 [2, 128]
0	0xbc166cbb	-0.009181197
1	0xbbc0f1d6	-0.005888204
2	0xba83b9cf	-0.0010049882
3	0x38ad486c	8.2627725e-05
4	0xbc86066f	-0.01636049
5	0xbc0ebf7f	-0.008712648
6	0xbb4151fd	-0.0029498332
7	0x3ba5618d	0.0050470293
8	0x3bc4a8ba	0.006001559
9	0xbb6876f0	-0.0035471283
10	0xbbb96cec	-0.0056587365
11	0xbbe3c5c7	-0.006951067
12	0x3c651f9a	0.013984585
13	0x3b7d8212	0.0038682264
14	0xbbf188d8	-0.0073710494
15	0x38aae2d0	8.148479e-05
16	0x3bac45c9	0.0052573425
17	0x3b572c1f	0.0032832695
18	0xbbc31ad5	-0.0059541264
19	0xbc780f1d	-0.015140322
20	0x3c15dea1	0.009147317
21	0x3c1c7458	0.009549223
22	0x3bc73eb0	0.006080471
23	0x3c1a50f3	0.009418714
24	0x3c06a13f	0.008217155
25	0xbc1fdcc6	-0.009757226
26	0x3c348fe9	0.011020639
27	0xbaf135ef	-0.0018402914
28	0xbaa0a88f	-0.0012257266
29	0x3aa98ec3	0.0012936223
30	0xbc871f1d	-0.016494328
31	0x3bbe024e	0.0057986146
32	0x3aaa5cb0	0.0012997594
33	0xbcc7fe5b	-0.024413278
34	0x3a8ef878	0.001090779
35	0xbb9c77bb	-0.004775015
36	0x3c19adcb	0.009379814
37	0xbbf5955a	-0.0074946107
38	0xbbe8ceef	-0.0071047465
39	0x3aa9652b	0.0012923827
40	0x3c34104f	0.010990216
41	0x3c0f97d1	0.008764223
42	0xba988419	-0.0011636048
43	0x3c1d32be	0.009594617
44	0xbc18d8eb	-0.009329061
45	0x3b8f3d04	0.0043712873
46	0x3b010dec	0.0019692136
47	0xbbd6464f	-0.006539143
48	0xbac0bd20	-0.0014704801
49	0xbb576a52	-0.0032869768
50	0x3bb0353c	0.00537744
51	0xbc24a88b	-0.010049949
52	0x3bbb17c8	0.005709622
53	0xbc553780	-0.0130137205
54	0x3a8dcb94	0.0010818117
55	0xb86afb62	-5.6024066e-05
56	0x3c14e8cf	0.009088709
57	0xbc2fd7d7	-0.010732613
58	0x3bc52b1e	0.006017103
59	0xbb6664a3	-0.00351552
60	0xbb84110f	-0.004030354
61	0x3be86d08	0.0070930757
62	0xba775ae2	-0.0009435845
63	0x3c9336e7	0.017970515
64	0x3bbac65b	0.0056999153
65	0x3c86f7ef	0.016475646
66	0xbbc808bd	-0.0061045573
67	0x3a789ea8	0.0009484091
68	0xbbf5fe62	-0.0075071314
69	0xbb08ad02	-0.0020855074
70	0xbb680558	-0.0035403576
71	0xbc2d94db	-0.010594572
72	0xbc365b79	-0.011130207
73	0x3ae89cc2	0.0017746913
74	0xbc315fcc	-0.010826062
75	0x3b3d59eb	0.0028892707
76	0xbc79f7ad	-0.015256804
77	0xbb83c822	-0.0040216604
78	0x3b4d482d	0.0031323538
79	0x3b55cbdb	0.0032622728
80	0xbbb169ca	-0.0054142224
81	0xbad8ba3d	-0.0016534996
82	0x3afa1023	0.0019078295
83	0x3c34a217	0.011024973
84	0x3b967b84	0.004592361
85	0x3c08bd7b	0.008345957
86	0x3c191ca1	0.009345205
87	0xb82be59e	-4.0983425e-05
88	0x3bd32097	0.006443094
89	0xbc0ce49f	-0.008599429
90	0xbc9a3407	-0.018823637
91	0xbb973570	-0.0046145245
92	0x3c3bd2b7	0.011463813
93	0x3ba15d4a	0.004924451
94	0xbbba4f2d	-0.005685708
95	0x3c802043	0.015640384
96	0x3b5c224f	0.0033589785
97	0x3a05fb93	0.0005111035
98	0xbbcd13fd	-0.0062584863
99	0xbc4604a8	-0.012086071
100	0xbc3e3cef	-0.011611207
101	0xbc682033	-0.014167833
102	0xbc0f6ec1	-0.008754433
103	0x3c520c95	0.012820383
104	0xbb81c94b	-0.0039607636
105	0xbac821b0	-0.0015268829
106	0x3b039d44	0.0020082751
107	0x3c6c9d50	0.014441803
108	0xbc07cb63	-0.008288237
109	0x3c00a8fc	0.007852789
110	0x3c6da65b	0.014504994
111	0xba0380be	-0.00050164375
112	0x3b922126	0.004459518
113	0x3888a63b	6.515948e-05
114	0xba13eca3	-0.00056428666
115	0x3b421226	0.0029612868
116	0xbc83c938	-0.01608716
117	0x38552787	5.081997e-05
118	0x3bc84be4	0.0061125625
119	0xbb45f8ef	-0.003020819
120	0xbb31a691	-0.0027107338
121	0x3bde1e1a	0.0067784907
122	0xbae7e86a	-0.0017693166
123	0xbbe9a2d2	-0.0071300054
124	0x399b594e	0.0002963044
125	0xbbf214e5	-0.0073877447
126	0x3bdad0f7	0.0066777426
127	0x3c0123a3	0.007882032
128	0x3b9711e0	0.004610285
129	0x3c107cdb	0.00881883
130	0xbb642003	-0.003480912
131	0xb9f8d6a3	-0.00047462163
132	0xbc49b45b	-0.0123110665
133	0xbbfcb29b	-0.007711721
134	0x3c9ba1fc	0.018998139
135	0xbc779910	-0.015112177
136	0xbb128796	-0.0022358648
137	0xbbe007ca	-0.006836866
138	0xbc61cf35	-0.013782312
139	0xbaa07cc5	-0.0012244215
140	0xbc40a355	-0.011757691
141	0x3c227fed	0.009918195
142	0xba915a94	-0.0011089616
143	0xbb1df07b	-0.0024099636
144	0x3c050ebd	0.00812119
145	0x3b228c9f	0.0024803055
146	0xba0c091d	-0.0005341934
147	0x3c5c1632	0.013433026
148	0x3befabbf	0.007314175
149	0xbc6f5d42	-0.014609637
150	0xbc1726eb	-0.009225587
151	0xbc3432ab	-0.010998408
152	0x3a0f592b	0.0005468304
153	0x3b42003f	0.0029602197
154	0x3ca00a77	0.01953624
155	0xbc032769	-0.008005002
156	0xbb0f91ff	-0.0021907089
157	0x3c551937	0.0130065
158	0xbc4527d4	-0.012033422
159	0x3ba73aae	0.0051034307
160	0xbb072cab	-0.002062599
161	0x3bcafdc4	0.006194802
162	0xbb26f056	-0.0025472841
163	0x3afa01f0	0.0019074064
164	0xbc0da045	-0.008644168
165	0x3a22c42d	0.0006209042
166	0xb7ee3cd0	-2.8400129e-05
167	0xbbadffcf	-0.005310036
168	0xbc36d053	-0.011158067
169	0x3c12339b	0.0089234365
170	0x3bddf2d0	0.0067733303
171	0xbc079bb8	-0.008276872
172	0xba38f23f	-0.00070551404
173	0xbb9d251e	-0.0047956845
174	0x3c607a1f	0.013700991
175	0xbc730ca5	-0.014834558
176	0xbc81a53c	-0.01582586
177	0x3c16f32a	0.009213248
178	0xbb852579	-0.004063305
179	0xbae8dd4f	-0.001776615
180	0x3c226bcd	0.009913397
181	0x3a8dd11b	0.0010819765
182	0xbba62123	-0.005069868
183	0xbba9b530	-0.00517907
184	0xbc4318e6	-0.011907792
185	0xbb929302	-0.004473091
186	0xbc15b78f	-0.009138002
187	0xbba3b6cc	-0.0049961563
188	0xbc20c661	-0.009812922
189	0xbab32772	-0.0013668372
190	0xbb3b943a	-0.0028622285
191	0x3abdc053	0.0014476873
192	0x3c6b52b8	0.014362983
193	0x3c883f09	0.01663162
194	0x3c48e915	0.012262602
195	0x3c797b67	0.015227175
196	0x3c8173bd	0.015802259
197	0xbbb7c362	-0.0056080082
198	0x3bd31903	0.0064421906
199	0xbb7f92b7	-0.003899736
200	0x3c0e04ae	0.008668108
201	0xbbda6a75	-0.0066655227
202	0xbb49695b	-0.0030732963
203	0x3c1ed67d	0.009694693
204	0xbb31547f	-0.002705842
205	0x3ab2ef5f	0.001365166
206	0xbc824fc7	-0.015907181
207	0x3c1df774	0.009641517
208	0xbbd72d6b	-0.0065666935
209	0x3ac1604a	0.0014753428
210	0xbbb92a89	-0.0056508225
211	0xbbdffaad	-0.006835303
212	0x3a9e9e76	0.0012101668
213	0xbb9fbc25	-0.0048747235
214	0xbbdf0c3a	-0.0068068774
215	0x3abc8d56	0.0014385383
216	0xbc0a9107	-0.008457429
217	0x3aedc8da	0.0018141523
218	0xbc680cc5	-0.014163201
219	0x3b86b2d9	0.004110676
220	0x3a2b13df	0.00065260933
221	0x3c0dd28f	0.008656158
222	0x3c0f117f	0.008732199
223	0x3ba93bb4	0.005164588
224	0x3b91506c	0.004434636
225	0xbabc915e	-0.0014386585
226	0xbcd26c18	-0.025686309
227	0x3c37d5c5	0.0112204
228	0x3c9d9fcb	0.019241234
229	0x3c002eeb	0.007823686
230	0xbc7c00dd	-0.015381065
231	0xbb88fcba	-0.004180518
232	0xbbd330b7	-0.0064450162
233	0x3b9b7319	0.0047439453
234	0x3b346cf8	0.002753077
235	0xbaa9d2cf	-0.0012956503
236	0xbb8ba125	-0.0042611533
237	0xba78d337	-0.00094919227
238	0x3bbf8642	0.005844862
239	0x3c5b5e12	0.013389127
240	0x3c291b61	0.010321469
241	0x3bd908f3	0.0066233813
242	0xbbf14daf	-0.007363997
243	0x3c506ae0	0.0127207935
244	0x3bcf8697	0.006333183
245	0xbb2cd8ac	-0.0026374264
246	0xbb3069e9	-0.0026918596
247	0x3bf9290a	0.007603769
248	0x3b68cb52	0.003552158
249	0x3b1b7d8f	0.0023725962
250	0xbc6985c3	-0.014253083
251	0xba2e0068	-0.0006637634
252	0x3c4ae15c	0.012382831
253	0xbc675a3b	-0.014120634
254	0x3b3c701e	0.002875335
255	0xbc8d2003	-0.017227178

action_model._discrete_distribution.branches.0.bias f4 [2]
0	0x00000000	0.0
1	0x00000000	0.0

action_model._discrete_distribution.branches.1.weight f4 [1, 128]
0	0x3b992a67	0.004674244
1	0xbb1ce9ec	-0.002394314
2	0x3bbbf2ec	0.0057357457
3	0x3b3cd299	0.002881205
4	0x3c1b3041	0.009471954
5	0x3c332bfd	0.010935781
6	0x3a0e8e25	0.00054380513
7	0x3c0ff0f7	0.008785478
8	0x39e796f7	0.0004417223
9	0xbbdda17a	-0.0067636343
10	0x3cdf0e0f	0.027228383
11	0x3c6a16a3	0.014287624
12	0xbb6f6977	-0.0036531368
13	0x3bc1355f	0.005896255
14	0x3c8226d0	0.015887648
15	0xbc72c16d	-0.014816624
16	0x3b59a552	0.003321011
17	0xbc2a69cd	-0.010401201
18	0x3aa75463	0.0012766238
19	0xbb775733	-0.0037741184
20	0xbb0d5221	-0.0021563845
21	0x3b13ce94	0.002255355
22	0xbb8aac2d	-0.0042319507
23	0xba323a33	-0.00067988335
24	0xba02c480	-0.0004988387
25	0x3a28c781	0.000643842
26	0xb9dbef2a	-0.00041949126
27	0xbc614922	-0.013750346
28	0xbc1597ec	-0.009130459
29	0xbc5fe827	-0.013666189
30	0xbc275a53	-0.010214406
31	0xbbe7c5c8	-0.007073138
32	0xb978cf53	-0.00023728357
33	0x3c24d935	0.010061552
34	0xbbe6eb05	-0.0070470595
35	0x3c5d2685	0.013497953
36	0xba27d37b	-0.00064020575
37	0x3b8a31b6	0.004217352
38	0xbb6926d0	-0.0035576113
39	0xbc57def8	-0.0131757185
40	0x3b386e83	0.0028142042
41	0xbb54900b	-0.003243449
42	0xbc477183	-0.012173059
43	0x39ee1885	0.00045413166
44	0x3c6171a3	0.013760003
45	0xbc40ee54	-0.011775572
46	0xbbc839d7	-0.0061104107
47	0x398d9807	0.00027006885
48	0xbb049c7c	-0.0020234874
49	0x3bf34af2	0.0074247057
50	0xbaa3912f	-0.0012479181
51	0x3c433380	0.011914134
52	0xbb4187a6	-0.0029530316
53	0x3bb7a2b7	0.005604114
54	0x3aa8a8b7	0.0012867664
55	0x3a2351e3	0.00062301586
56	0xbbb2bf68	-0.0054549463
57	0x3c0a45a3	0.008439454
58	0xbbcce6bd	-0.006253092
59	0x3b913435	0.0044312724
60	0xbc3b8b32	-0.011446761
61	0x3c0c4ea6	0.008563673
62	0xbb6ea848	-0.0036416221
63	0xbbe4696f	-0.0069705765
64	0xbbb9b35b	-0.005667133
65	0x3b17d27b	0.0023166228
66	0xba378e9b	-0.0007002146
67	0xbc212370	-0.009835109
68	0x3bac6f45	0.005262288
69	0x35e33aad	1.6929895e-06
70	0xbc49cf51	-0.0123174945
71	0xbbc6f037	-0.0060711163
72	0x3b23ae4f	0.0024975722
73	0xbadd996f	-0.0016906689
74	0xbc5272bf	-0.01284474
75	0xbb8e950c	-0.004351264
76	0x3bda0f93	0.0066546886
77	0x3b6e7538	0.0036385786
78	0xb9d7bd37	-0.00041148972
79	0xbbb12778	-0.0054063164
80	0x3ba52173	0.005039388
81	0xbc13baaf	-0.009016677
82	0x3be4536d	0.006967953
83	0xba93e4d1	-0.0011283403
84	0xbbbdf409	-0.0057969135
85	0xbb9bc43f	-0.004753619
86	0x3c099b5b	0.008398856
87	0xbbfb8310	-0.007675536
88	0xbc45bd13	-0.012069005
89	0x3b587e63	0.0033034317
90	0xba5cca77	-0.00084225036
91	0x3c525d28	0.012839593
92	0x3c0598a3	0.008154067
93	0xba430994	-0.0007440087
94	0xbaa04ef8	-0.0012230566
95	0x3abb0401	0.0014268161
96	0xbbe4e4ab	-0.006985267
97	0xbb49623b	-0.0030728716
98	0xbb9086cb	-0.0044106
99	0x3c35ee6f	0.01110421
100	0xbb36a9dd	-0.0027872242
101	0xbaec7632	-0.0018040596
102	0xbbe565bd	-0.0070006535
103	0x3ca0daeb	0.019635638
104	0x3be49e1f	0.0069768573
105	0xbb9928b6	-0.0046740426
106	0x3c66ca62	0.014086338
107	0xbc1fa5c0	-0.009744108
108	0xbac563f7	-0.0015059699
109	0xbb271e74	-0.002550033
110	0xbb90e3c0	-0.004421681
111	0xbb568b37	-0.0032736787
112	0xbc3ce2c7	-0.011528677
113	0x3bc2fe7a	0.005950746
114	0x3c4ef27d	0.012631056
115	0xbc1dbe7b	-0.009627934
116	0xbbcc4569	-0.0062338603
117	0x3c2e72c0	0.010647476
118	0xba62c925	-0.00086511887
119	0xbaff4597	-0.0019475695
120	0xbc398549	-0.011323282
121	0xbc7dddda	-0.015494788
122	0x3b4eac38	0.0031535756
123	0xbb17fd2b	-0.0023191671
124	0xbc093c1b	-0.008376147
125	0x3b4543b1	0.0030100162
126	0xbb097208	-0.002097251
127	0xbbd58a50	-0.0065167323
