src/CyberHero/Assets/Scenes/Prototype Alex/Melee Agent 1.onnx (onnx, 81529 bytes, 7 tensors)

discrete_act_size_vector f4 [1, 2]
2.0 1.0
00000000: 0000 0040 0000 803f

network_body._body_endoder.seq_layers.0.weight f4 [128, 13]
-0.40537566 -0.1583009 0.16010287 0.15264636 -0.09881131 -0.3131155 0.42765227 0.20703952
-0.48541468 -0.15615457 -0.15278867 0.49832264 0.19626893 0.0006211599 -0.09999344 -0.05187014
0.22862284 0.22088574 0.22161867 -0.0959048 0.25540093 0.10587936 0.27656013 -0.18835795
-0.60297877 -0.19370593 0.074280694 0.014622833 0.11556416 0.048774216 -0.14367044 -0.49096817
0.4571301 0.10766849 -0.3124613 0.2114948 -0.13001324 -0.2980923 -0.41352063 -0.06425259
0.5195851 0.26801205 -0.39856946 0.026746394 -0.07298128 0.1467006 0.47176296 -0.17991102
0.5015028 0.27239376 -0.38437787 -0.45925266 0.11664862 0.13439114 -0.010491853 0.20334233
0.35751903 0.10293679 0.07457655 -0.112791166 0.42378482 0.7929265 0.057476014 0.033069305
0.05956483 -0.12691703 0.14004639 0.0030866999 -0.038799066 -0.25158858 0.1213502 0.3470518
0.2963242 -0.25343883 0.016299717 -0.14234458 0.09268012 0.08352512 -0.25733396 0.05914889
0.13913926 0.20829332 -0.11039717 -0.10520441 -0.23682588 0.0027833544 0.079396285 -0.0039828303
-0.22556378 -0.20877245 -0.8616562 0.33802852 0.2144621 0.071131416 0.22745809 -0.028140109
-0.4444678 0.090158015 0.2842022 -0.24835972 -0.106228024 -0.25404254 0.22289017 0.38771722
-0.07313464 0.29388344 0.64603263 0.10692309 -0.42127725 -0.03371438 0.28714103 0.29318893
0.40675393 0.3880399 0.43054348 -0.13854195 -0.28119063 -0.2661902 -0.16304551 -0.06723333
0.3996882 -0.030688984 0.09836036 0.28008306 0.16499804 -0.38800582 0.17595735 -0.24481228
-0.10580555 0.080737986 -0.00048754417 -0.022124402 -0.30279437 -0.5830389 0.21622819 -0.033820737
-0.08426563 0.37640733 0.10983572 -0.60526264 -0.23054266 -0.18642992 0.18476152 0.1948801
0.3494864 -0.117945954 -0.007083443 0.011549679 -0.20901605 -0.25151372 0.07316168 -0.5536298
-0.22961064 -0.81205755 -0.04971864 -0.16262756 0.08222672 0.10574947 -0.027550953 0.2891994
0.2037247 0.07748603 0.53923446 0.11431378 -0.56883794 -0.23331405 -0.18600424 -0.067584515
-0.10980645 -0.43013874 0.15022883 -0.2499662 -0.24451102 -0.15692465 -0.21330589 -0.031213805
0.2413273 0.15886329 -0.5239597 -0.10707675 -0.09150647 -0.61486286 0.31654328 0.5909516
0.22675169 0.6337146 -0.1958677 -0.16111346 -0.2427834 -0.1109816 -0.5358372 -0.2465945
-0.13478817 -0.00046062752 -0.13126118 0.25633344 -0.29779354 0.5176049 -0.15183666 -0.05048374
0.3217893 0.21762086 0.010186249 -0.35655704 -0.00035870384 0.012868541 0.34131214 0.060091764
0.19756293 -0.27725857 -0.11290057 0.17718565 0.2000136 0.119285546 -0.08520083 0.17676504
0.08398834 0.096481256 0.30154312 0.5125227 -0.075155884 0.0040113544 0.09284886 -0.21120267
-0.15730466 0.45530123 -0.188339 -0.17430393 0.15695935 -0.062541544 -0.1867757 0.042393833
-0.14824373 0.088364825 0.546002 -0.17431697 -0.023259426 -0.28370866 0.18192227 0.08961751
-0.100303 0.2800791 0.09850688 -0.007185725 -0.3733276 -0.2638983 0.1684332 0.5837313
0.35115424 0.0004400226 -0.10256107 -0.13167837 0.32054818 -0.042207677 -0.020214744 -0.26804802
00000000: 668d cfbe a219 22be 02f2 233e 544f 1c3e
00000010: 965d cabd ad50 a0be 3df5 da3e 2b02 543e
00000020: 4688 f8be fce6 1fbe a274 1cbe 2524 ff3e
00000030: b9fa 483e 56d5 223a 5cc9 ccbd c975 54bd
00000040: 1b1c 6a3e df2f 623e 01f0 623e bc69 c4bd
00000050: e9c3 823e 47d7 d83d 4a99 8d3e e8e0 40be
00000060: d15c 1abf d95a 46be 7a20 983d 9b94 6f3c
00000070: e7ac ec3d 79c7 473d 581e 13be 2e60 fbbe
00000080: f50c ea3e 4c81 dc3d edfa 9fbe 1892 583e
00000090: 3122 05be 8e9f 98be fab8 d3be dd96 83bd
000000a0: 8703 053f e038 893e 4c11 ccbe 411b db3c
000000b0: 3677 95bd af38 163e ea8a f13e 983a 38be
000000c0: 7d62 003f 3277 8b3e 2dcd c4be 2a23 ebbe
000000d0: 79e5 ee3d d59d 093e 05e6 2bbc f938 503e
000000e0: bc0c b73e 86d0 d23d 97bb 983d 0eff e6bd
000000f0: 53fa d83e 3bfd 4a3f f86b 6b3d ae73 073d
00000100: 40fa 733d 8af6 01be 5268 0f3e 3b4a 4a3b
00000110: c5eb 1ebd 38d0 80be 7486 f83d c6b0 b13e
00000120: ceb7 973e bcc2 81be fc86 853c c7c2 11be
00000130: 13cf bd3d 380f ab3d 47c1 83be 1b46 723d
00000140: 867a 0e3e d84a 553e e917 e2bd 6975 d7bd
00000150: 7c82 72be f068 363b 859a a23d 6782 82bb
00000160: 31fa 66be 72c8 55be 8095 5cbf 1312 ad3e
00000170: f49b 5b3e 59ad 913d c6ea 683e 1686 e6bc
00000180: 4991 e3be c4a4 b83d f382 913e 0352 7ebe
00000190: 148e d9bd dd11 82be 523d 643e df82 c63e
000001a0: 9dc7 95bd e477 963e 6562 253f 7efa da3d
000001b0: a7b1 d7be 1718 0abd 2604 933e dc1c 963e
000001c0: 0d42 d03e 2aad c63e 3270 dc3e f1dd 0dbe
000001d0: 38f8 8fbe 154a 88be 67f5 26be a1b1 89bd
000001e0: efa3 cc3e 7767 fbbc 2871 c93d 0c67 8f3e
000001f0: 3ff5 283e b3a8 c6be 2a2e 343e 12b0 7abe
00000200: 95b0 d8bd f559 a53d 129d ffb9 3c3e b5bc
00000210: dd07 9bbe 0a42 15bf ec6a 5d3e 9d87 0abd
00000220: 7593 acbd 76b8 c03e 8df1 e03d 7ef2 1abf
00000230: 6013 6cbe 7ce7 3ebe 2032 3d3e a68e 473e
00000240: e2ef b23e a68d f1bd 3a1c e8bb dd3a 3d3c
00000250: 4e08 56be 68c6 80be cad5 953d afba 0dbf
00000260: 0d1f 6bbe 01e3 4fbf c6a5 4bbd d787 26be
00000270: 7c66 a83d 2e93 d83d 89b2 e1bc f211 943e
00000280: 359d 503e ffb0 9e3d 450b 0a3f 581d ea3d
00000290: 5d9f 11bf e1e9 6ebe e577 3ebe c069 8abd
000002a0: 34e2 e0bd 253b dcbe 96d5 193e 24f7 7fbe
000002b0: 1961 7abe dbb0 20be dc6c 5abe 18b4 ffbc
000002c0: 811e 773e 0fad 223e 3922 06bf 0e4b dbbd
000002d0: bf67 bbbd a767 1dbf f611 a23e 9b48 173f
000002e0: 9831 683e 1f3b 223f 8b91 48be edfa 24be
000002f0: 369c 78be 524a e3bd a02c 09bf 4583 7cbe
00000300: e905 0abe 6180 f1b9 5569 06be 233e 833e
00000310: 6578 98be c181 043f 127b 1bbe 0ac8 4ebd
00000320: 91c1 a43e 01d8 5e3e 3ae4 263c a58e b6be
00000330: 6a10 bcb9 93d6 523c 77c0 ae3e c822 763d
00000340: f04d 4a3e d6f4 8dbe 6a38 e7bd 2870 353e
00000350: 5dd0 4c3e fb4b f43d c67d aebd e501 353e
00000360: 1402 ac3d f797 c53d dc63 9a3e b034 033f
00000370: 54eb 99bd ae71 833b 8b27 be3d 8345 58be
00000380: 7914 21be 3e1d e93e f0db 40be bb7c 32be
00000390: f4b9 203e c815 80bd 2142 3fbe 28a5 2d3d
000003a0: 34cd 17be 9ef8 b43d c9c6 0b3f 2680 32be
000003b0: 8d8a bebc 4342 91be d549 3a3e 6389 b73d
000003c0: a96b cdbd 8766 8f3e fabd c93d 3b76 ebbb
000003d0: cc24 bfbe ae1d 87be c179 2c3e 6a6f 153f
000003e0: 7dca b33e d5b2 e639 8a0b d2bd b2d6 06be
000003f0: e41e a43e f5e1 2cbd 6499 a5bc 973d 89be

network_body._body_endoder.seq_layers.0.bias f4 [128]
0.0 0.0 0.0 0.0 0.0 0.0 0.0 0.0
0.0 0.0 0.0 0.0 0.0 0.0 0.0 0.0
0.0 0.0 0.0 0.0 0.0 0.0 0.0 0.0
0.0 0.0 0.0 0.0 0.0 0.0 0.0 0.0
0.0 0.0 0.0 0.0 0.0 0.0 0.0 0.0
0.0 0.0 0.0 0.0 0.0 0.0 0.0 0.0
0.0 0.0 0.0 0.0 0.0 0.0 0.0 0.0
0.0 0.0 0.0 0.0 0.0 0.0 0.0 0.0
0.0 0.0 0.0 0.0 0.0 0.0 0.0 0.0
0.0 0.0 0.0 0.0 0.0 0.0 0.0 0.0
0.0 0.0 0.0 0.0 0.0 0.0 0.0 0.0
0.0 0.0 0.0 0.0 0.0 0.0 0.0 0.0
0.0 0.0 0.0 0.0 0.0 0.0 0.0 0.0
0.0 0.0 0.0 0.0 0.0 0.0 0.0 0.0
0.0 0.0 0.0 0.0 0.0 0.0 0.0 0.0
0.0 0.0 0.0 0.0 0.0 0.0 0.0 0.0
00000000: 0000 0000 0000 0000 0000 0000 0000 0000
00000010: 0000 0000 0000 0000 0000 0000 0000 0000
00000020: 0000 0000 0000 0000 0000 0000 0000 0000
00000030: 0000 0000 0000 0000 0000 0000 0000 0000
00000040: 0000 0000 0000 0000 0000 0000 0000 0000
00000050: 0000 0000 0000 0000 0000 0000 0000 0000
00000060: 0000 0000 0000 0000 0000 0000 0000 0000
00000070: 0000 0000 0000 0000 0000 0000 0000 0000
00000080: 0000 0000 0000 0000 0000 0000 0000 0000
00000090: 0000 0000 0000 0000 0000 0000 0000 0000
000000a0: 0000 0000 0000 0000 0000 0000 0000 0000
000000b0: 0000 0000 0000 0000 0000 0000 0000 0000
000000c0: 0000 0000 0000 0000 0000 0000 0000 0000
000000d0: 0000 0000 0000 0000 0000 0000 0000 0000
000000e0: 0000 0000 0000 0000 0000 0000 0000 0000
000000f0: 0000 0000 0000 0000 0000 0000 0000 0000
00000100: 0000 0000 0000 0000 0000 0000 0000 0000
00000110: 0000 0000 0000 0000 0000 0000 0000 0000
00000120: 0000 0000 0000 0000 0000 0000 0000 0000
00000130: 0000 0000 0000 0000 0000 0000 0000 0000
00000140: 0000 0000 0000 0000 0000 0000 0000 0000
00000150: 0000 0000 0000 0000 0000 0000 0000 0000
00000160: 0000 0000 0000 0000 0000 0000 0000 0000
00000170: 0000 0000 0000 0000 0000 0000 0000 0000
00000180: 0000 0000 0000 0000 0000 0000 0000 0000
00000190: 0000 0000 0000 0000 0000 0000 0000 0000
000001a0: 0000 0000 0000 0000 0000 0000 0000 0000
000001b0: 0000 0000 0000 0000 0000 0000 0000 0000
000001c0: 0000 0000 0000 0000 0000 0000 0000 0000
000001d0: 0000 0000 0000 0000 0000 0000 0000 0000
000001e0: 0000 0000 0000 0000 0000 0000 0000 0000
000001f0: 0000 0000 0000 0000 0000 0000 0000 0000

network_body._body_endoder.seq_layers.2.weight f4 [128, 128]
-0.05748481 0.06558287 0.10333463 0.14877535 0.053717375 -0.020300662 -0.14258912 -0.0006807476
0.15442376 0.16907966 -0.10292903 -0.056118447 -0.191278 -0.009843862 0.16468261 -0.062399555
-0.020134652 -0.07145226 -0.103522666 -0.025718033 -0.008189729 -0.085393235 -0.028456403 0.0513282
-0.053840682 -0.24380133 -0.15848258 -0.00019274674 -0.33471537 -0.019735964 0.0720176 0.14086895
-0.04244817 0.087002955 0.043597743 -0.087834634 -0.13215241 -0.05832444 -0.002888554 0.0069614844
-0.095582075 -0.10589935 0.026833503 -0.042604003 -0.2347732 0.09280528 -0.010140058 0.10396691
0.16161412 -0.13465735 -0.008681626 0.0645605 -0.06744424 0.15456197 0.11870656 -0.011463164
0.0006960131 -0.024543932 -0.072552055 -0.06963558 -0.03904248 0.13896699 0.07422918 0.12912884
-0.07852536 0.059227765 -0.0066889445 0.14467551 0.15052372 0.0022152157 -0.11658048 -0.0011692534
-0.1120257 -0.050739273 0.081981055 0.054795403 0.04244595 -0.06264522 0.024733799 0.025666676
0.15992413 0.16086717 -0.061500516 -0.023982288 0.11743651 0.16647717 0.14356613 0.02945244
0.15421054 0.0111385435 -0.01852914 -0.051648196 0.13194723 0.21042328 -0.019720847 0.03029249
-0.119028114 -0.105170466 -0.13280551 -0.031745452 0.011767081 -0.17027329 -0.025985023 -0.1652647
-0.027190931 -0.13232718 -0.08003137 0.012384643 -0.013612522 -0.01912665 -0.115554295 -0.014597433
-0.059983242 0.0077099632 -0.12892924 -0.046536252 -0.13583162 0.08881801 -0.013968084 0.0999067
0.040674374 -0.016374202 -0.07540871 -0.15179159 -0.034271806 0.07919138 -0.10941547 0.02330779
0.020453319 -0.14342035 -0.041777205 0.002666746 0.06210613 0.01105915 0.015604456 0.072637886
0.022437826 0.024514709 0.13121569 -0.05010231 0.041936927 0.027683277 -0.061020415 -0.08375106
-0.05415259 -0.029308764 -0.08247498 -0.03648477 0.014555441 -0.13998431 -0.12170323 0.031144487
0.111511044 -0.028766954 0.025907204 0.108849786 -0.107794 -0.10299976 -0.08401401 0.021408737
-0.13795538 0.06280659 -0.03034697 0.082174726 -0.021247253 0.10481261 0.04376906 -0.023564076
0.0113122985 -0.078606434 0.005133885 0.0655833 0.044001337 0.10941487 0.1208534 0.084045686
0.08552385 -0.047748573 -0.082450606 0.17903113 0.0065049483 0.07877493 -0.122621715 -0.026331373
0.06890648 0.19136772 0.064542495 0.09538918 -0.13999738 -0.093377024 -0.06818773 -0.07843944
0.048408285 -0.07785642 -0.025207764 -0.14379011 0.03237368 0.008726069 -0.13936372 0.040110935
0.022743836 -0.16575384 0.015908116 0.17172134 -0.020091645 -0.19815831 0.15039241 0.088525556
0.14543231 -0.059710745 0.0042345924 0.021831501 -0.17059074 -0.1027838 0.07863596 0.1822873
-0.054084912 0.014277493 -0.078502335 0.083369754 0.023874559 0.017360939 0.0069972454 0.00970033
0.077154934 -0.16584235 0.08428315 -0.08096 0.0848714 0.08559765 0.03141159 -0.07049034
-0.04450121 -0.0022067747 -0.038513668 0.12114181 0.12917662 0.103526786 0.030710714 0.058470782
0.031182308 0.10342179 0.039196767 0.13984564 -0.008199273 -0.057898425 -0.1602976 -0.0025639732
0.046748597 0.05858288 0.04740592 0.04031901 -0.21800005 0.14432703 -0.056224052 -0.03574278
00000000: 3175 6bbd 5050 863d 1ba1 d33d 9158 183e
00000010: c006 5c3d 934d a6bc e202 12be 3374 32ba
00000020: 4321 1e3e 3823 2d3e 75cc d2bd 75dc 65bd
00000030: 61de 43be 2648 21bc 8fa2 283e ad96 7fbd
00000040: 6df1 a4bc 9055 92bd b103 d4bd a0ae d2bc
00000050: 372e 06bc a6e2 aebd 671d e9bc 853d 523d
00000060: 0c88 5cbd 0ea7 79be 4249 22be 0f1c 4ab9
00000070: d05f abbe 51ad a1bc f77d 933d f33f 103e
00000080: 22de 2dbd 9b2e b23d 8c93 323d a5e2 b3bd
00000090: f652 07be 9ce5 6ebd e54d 3dbb 2a1d e43b
000000a0: 89c0 c3bd c2e1 d8bd efd1 db3c 8981 2ebd
000000b0: 6368 70be b210 be3d 7c22 26bc 9aec d43d
000000c0: 2c7e 253e 9ee3 09be 613d 0ebc 4c38 843d
000000d0: 3520 8abd 7e45 1e3e 6d1c f33d ffcf 3bbc
000000e0: a674 363a 5b10 c9bc 2c96 94bd 199d 8ebd
000000f0: 02eb 1fbd 5d4d 0e3e 7805 983d 5a3a 043e
00000100: e7d1 a0bd d098 723d ef2e dbbb d125 143e
00000110: e422 1a3e 272d 113b bfc1 eebd a241 99ba
00000120: bb6d e5bd fcd3 4fbd afe5 a73d 2571 603d
00000130: cedb 2d3d 234c 80bd 899e ca3c ec42 d23c
00000140: 27c3 233e 5dba 243e f7e7 7bbd 8176 c4bc
00000150: 8e82 f03d fe78 2a3e 0003 133e 3e46 f13c
00000160: 5ee9 1d3e 707e 363c 6cca 97bc 0f8d 53bd
00000170: 2d1d 073e 3379 573e 9d8d a1bc f527 f83c
00000180: 03c5 f3bd 9d63 d7bd 2bfe 07be 8507 02bd
00000190: b7ca 403c 1f5c 2ebe 8bde d4bc 263b 29be
000001a0: 84bf debc c780 07be 7de7 a3bd f5e8 4a3c
000001b0: 0e07 5fbc 7eaf 9cbc bba7 ecbd 122a 6fbc
000001c0: fdb0 75bd dca3 fc3b 0706 04be cc9c 3ebd
000001d0: 7217 0bbe 38e6 b53d 64da 64bc e29b cc3d
000001e0: 2c9a 263d 3123 86bc e26f 9abd 416f 1bbe
000001f0: 9860 0cbd 172f a23d 3815 e0bd faef be3c
00000200: b88d a73c c9dc 12be 931e 2bbd 93c4 2e3b
00000210: ff62 7e3d 7031 353c d5a9 7f3c 2cc3 943d
00000220: 88cf b73c 12d3 c83c 685d 063e 1438 4dbd
00000230: 0ec6 2b3d 0ac8 e23c 8bf0 79bd ad85 abbd
00000240: 1bcf 5dbd ef18 f0bc a4e8 a8bd 0e71 15bd
00000250: f279 6e3c 0c58 0fbe 8b3f f9bd b922 ff3c
00000260: e75f e43d ada8 ebbc 583b d43c a3ec de3d
00000270: 1ac3 dcbd 8af1 d2bd 8a0f acbd 6061 af3c
00000280: 2d44 0dbe bea0 803d 359a f8bc 394b a83d
00000290: b80e aebc fea7 d63d 3047 333d 7309 c1bc
000002a0: 3857 393c 69fc a0bd 263a a83b 8a50 863d
000002b0: bf3a 343d e714 e03d fd81 f73d 2520 ac3d
000002c0: 2127 af3d 0294 43bd dddb a8bd f053 373e
000002d0: 7627 d53b c054 a13d 1821 fbbd e4b4 d7bc
000002e0: d71e 8d3d e6f5 433e db2e 843d 675b c33d
000002f0: 795b 0fbe 743c bfbd 02a6 8bbd dba4 a0bd
00000300: c447 463d 3073 9fbd 8380 cebc b73d 13be
00000310: 449a 043d c9f7 0e3c 5db5 0ebe 5d4b 243d
00000320: 4851 ba3c 60bb 29be bd51 823c b8d7 2f3e
00000330: 3c97 a4bc 03ea 4abe 7800 1a3e e34c b53d
00000340: 35ec 143e 4193 74bd 56c2 8a3b fad7 b23c
00000350: 57af 2ebe 5080 d2bd e40b a13d 86a9 3a3e
00000360: 2488 5dbd 25ec 693c d5c5 a0bd c3bd aa3d
00000370: 9494 c33c 8738 8e3c 2649 e53b 22ee 1e3c
00000380: 6803 9e3d 94d2 29be a59c ac3d 5bce a5bd
00000390: 0ed1 ad3d d24d af3d 70a9 003d 3d5d 90bd
000003a0: e746 36bd 899f 10bb 82c0 1dbd 3319 f83d
000003b0: e046 043e da05 d43d 0995 fb3c 0f7f 6f3d
000003c0: 0a72 ff3c cece d33d ca8c 203d b233 0f3e
000003d0: 3e56 06bc e626 6dbd 0e25 24be 5508 28bb
000003e0: 757b 3f3d 9af4 6f3d b62c 423d 8c25 253d
000003f0: 683b 5fbe 77ca 133e 314b 66bd 0567 12bd

action_model._discrete_distribution.branches.0.weight f4 [2, 128]
-0.021296421 -0.0016872137 -0.003622839 0.0035406724 -0.017441636 -0.00040782403 0.0025253496 0.004942759
-0.0041670282 0.0007609799 0.016495952 -0.006053387 0.0069410205 -0.0015981359 0.005060384 -0.007491755
0.009172661 0.00088191946 -0.005682073 0.003555849 0.0020019424 -0.005304007 -0.006308844 -0.0095095625
-0.0035986507 -0.010548481 0.01467363 0.00862472 -0.005660891 -0.017723737 0.014877865 0.0048318016
0.0027100665 0.0034213245 0.0045545152 0.0010336773 0.0041109324 -0.00931144 0.012212416 -0.006815816
-0.011913025 -0.004548404 0.00023372164 0.0017330578 0.007839828 -0.0055934894 0.008038928 0.007776697
0.0072757765 0.005462916 -0.0038489325 0.010096584 -0.018022867 0.0026566589 0.009710277 -0.00534988
0.0010996693 -0.0010286659 0.012277107 0.01530132 0.00820582 -0.008668802 -0.004093185 0.007219077
-0.008054428 0.0132948235 0.001244824 -0.0057529365 -0.009238537 -0.0031564143 0.00065121945 0.005610118
0.00021091793 -0.0059644347 0.009540286 0.014075282 0.0075085214 -0.0024946225 0.0028409762 0.0004426292
-0.014229799 0.012248879 -0.003707309 -0.009518388 0.0009686042 -0.020237979 -0.014349406 -0.0034773208
-0.005010232 0.013423122 0.008866194 0.0025691418 0.011488972 -0.001970807 0.0021031888 -0.00027286055
0.0060046436 0.011439762 0.012661128 -0.00063527905 -0.004656282 0.0017185034 0.0035317037 -0.0126364445
0.006055863 -0.020012552 -0.0027456395 -0.0009133375 -0.005146274 -0.023702191 0.0024430898 0.00033548562
0.009037439 -0.004486227 -0.0025749614 0.002211925 -0.016960403 -0.010398265 0.004945312 0.0017975904
-0.0023034168 0.0039885654 -0.0035367205 0.005033521 0.0061067487 -0.018251045 0.0017988802 0.009503216
0.008602026 -0.007812921 0.0062456834 -0.0052878996 -0.0011394212 0.013608577 0.0066503696 -0.0023206337
-0.017360924 -0.0036598542 -0.020198638 0.009430194 0.006422933 -0.004523748 -0.0016154483 0.0076841055
-0.007519446 -0.0007683299 -0.00087242556 -0.009515347 0.0072046444 -0.01000348 -0.0013236135 0.015759552
0.0037460502 0.0011700878 -0.0073385644 0.010230937 0.0012377027 -0.009322004 0.0063420506 0.0031380814
0.008691944 0.011543705 0.0006487505 -0.0076502226 0.0013720236 0.019469885 -0.0061363974 0.009448288
0.005983684 -0.0050331354 0.012793535 -0.002253874 -0.011994014 0.0022343695 0.0025451283 -0.013447438
0.0009149929 -0.004378472 0.005745524 0.003543276 -0.0039768643 0.007348691 -0.0081820255 -0.0044071986
0.014826109 -0.0056792432 -0.0014878627 -0.008187185 -9.769681e-05 0.008165598 0.000514005 0.013859707
0.0033057274 -0.014252551 -0.008427289 -0.0053521614 0.003868371 -0.011712655 0.0016029876 -0.018990988
0.0049758116 -0.00083163485 0.00011990807 -0.007431928 0.020090565 2.3018161e-05 0.0033008808 0.00360847
-0.012221405 -0.02175956 -0.008465706 0.011145564 -0.004220919 -0.013068083 0.0022251846 0.005053637
0.005681408 -0.0059563015 -0.009201889 0.007128238 0.021413837 0.005633612 0.011712552 0.0056558
0.0033706208 -0.011304469 -0.0012594779 0.011964689 0.0058309794 0.004893656 0.011231444 0.0045559555
0.021143652 0.0008051716 -0.01065824 0.004849437 -0.0111835515 -0.0059070676 0.00842377 0.014806791
0.0007945328 -0.00036538392 -0.013428812 0.0062339096 -8.535326e-05 -0.0019196476 0.0006649573 0.0014678834
-0.006656869 -0.005912964 -0.014386524 0.008496558 0.0034900133 0.021954635 0.0065678954 0.005860665
00000000: d575 aebc 7f25 ddba 276d 6dbb a00a 683b
00000010: c3e1 8ebc 37d1 d5b9 5680 253b def6 a13b
00000020: 918b 88bb 7f7c 473a 8522 873c 7e5b c6bb
00000030: 8071 e33b 8b78 d1ba 94d1 a53b 657d f5bb
00000040: ee48 163c 9d30 673a af30 babb 3f09 693b
00000050: 0533 033b 3ccd adbb 6bba cebb ffcd 1bbc
00000060: 57d7 6bbb 89d3 2cbc aa69 703c b34e 0d3c
00000070: ff7e b9bb 5f31 91bc 4ac2 733c 1754 9e3b
00000080: 5f9b 313b 4d38 603b 0b3e 953b 747c 873a
00000090: 00b5 863b 038f 18bc 9616 483c 3557 dfbb
000000a0: d92e 43bc c70a 95bb 2d13 7539 c527 e33a
000000b0: 9f72 003c 9749 b7bb b5b5 033c aad3 fe3b
000000c0: a369 ee3b 4302 b33b 5f3e 7cbb 256c 253c
000000d0: b1a4 93bc 571b 2e3b db17 1f3c 0c4e afbb
000000e0: c722 903a 4dd4 86ba eb25 493c 63b2 7a3c
000000f0: b471 063c 9707 0ebc 2020 86bb 028e ec3b
00000100: b8f6 03bc 88d2 593c 5d29 a33a 2183 bcbb
00000110: 3c5d 17bc d8db 4ebb 99b6 2a3a 15d5 b73b
00000120: da29 5d39 4e71 c3bb dc4e 1c3c 039c 663c
00000130: 0b0a f63b d27c 23bb ac2f 3a3b b010 e839
00000140: 1a24 69bc 86af 483c 53f6 72bb 03f3 1bbc
00000150: ede9 7d3a 1eca a5bc c519 6bbc c3e3 63bb
00000160: df2c a4bb a8ec 5b3c 8343 113c 0c5f 283b
00000170: 3e3c 3c3c a828 01bb a7d5 093b b90e 8fb9
00000180: 9ac2 c43b d76d 3b3c 9f70 4f3c db88 26ba
00000190: b993 98bb 683f e13a 2874 673b 1709 4fbc
000001a0: 4370 c63b 5df1 a3bc 30f0 33bb 0b6d 6fba
000001b0: 13a2 a8bb 192b c2bc 3f1c 203b 1ee4 af39
000001c0: c411 143c 3301 93bb afc0 28bb f2f5 103b
000001d0: 8bf0 8abc 7c5d 2abc 490c a23b 209d eb3a
000001e0: ecf4 16bb 83b2 823b 53c8 67bb 3cf0 a43b
000001f0: 1f1b c83b 3783 95bc 67c8 eb3a 60b3 1b3c
00000200: 83ef 0c3c c401 00bc 97a8 cc3b 1e46 adbb
00000210: a258 95ba 82f6 5e3c 58eb d93b c615 18bb
00000220: 7f38 8ebc 2ada 6fbb 9d77 a5bc 1a81 1a3c
00000230: 7877 d23b f33b 94bb 73bd d3ba f3ca fb3b
00000240: af65 f6bb bf69 49ba 7db3 64ba 42e6 1bbc
00000250: f014 ec3b a3e5 23bc 197d adba 2d1a 813c
00000260: 4b80 753b a25d 993a 5778 f0bb a99f 273c
00000270: 693a a23a 52bb 18bc fad0 cf3b 45a8 4d3b
00000280: a868 0e3c cf21 3d3c e910 2a3a b8ae fabb
00000290: 79d5 b33a 4f7f 9f3c d513 c9bb fecc 1a3c
000002a0: c812 c43b 00ed a4bb fa9b 513c bbb5 13bb
000002b0: 8a82 44bc 806e 123b 2bcc 263b a552 5cbc
000002c0: 22dc 6f3a 4979 8fbb f344 bc3b 4f36 683b
000002d0: 5b50 82bb 4acd f03b e70d 06bc 436a 90bb
000002e0: 35e9 723c f218 babb 6304 c3ba 8b23 06bc
000002f0: 93e2 ccb8 00c9 053c 4bbe 063a d313 633c
00000300: e7a4 583b 8883 69bc 9d12 0abc 2f61 afbb
00000310: 7f84 7d3b 70e6 3fbc 571b d23a fd92 9bbc
00000320: 220c a33b 1202 5aba 2877 fb38 8887 f3bb
00000330: f894 a43c 2017 c137 9753 583b 157c 6c3b
00000340: 4a3c 48bc 1b41 b2bc bfb3 0abc e29b 363c
00000350: a34f 8abb 831b 56bc 67d4 113b fb98 a53b
00000360: 1b2b ba3b 142d c3bb 85c3 16bc ff93 e93b
00000370: 126c af3c 2a9a b83b 01e6 3f3c 4a54 b93b
00000380: a2e5 5c3b 6136 39bc 1115 a5ba 8b07 443c
00000390: cd11 bf3b f65a a03b 1704 383c 204a 953b
000003a0: 7435 ad3c 2712 533a e69f 2ebc 07e8 9e3b
000003b0: 373b 37bc 1390 c1bb da03 0a3c 2f98 723c
000003c0: 3248 503a 0091 bfb9 8504 5cbc d345 cc3b
000003d0: afff b2b8 af9c fbba 8750 2e3a fe65 c03a
000003e0: dd21 dabb 8ac1 c1bb 75b5 6bbc 2635 0b3c
000003f0: b5b8 643b 35da b33c 8037 d73b d20a c03b

action_model._discrete_distribution.branches.0.bias f4 [2]
0.0 0.0
00000000: 0000 0000 0000 0000

action_model._discrete_distribution.branches.1.weight f4 [1, 128]
-0.016335981 -0.012145478 -0.023433968 0.0100890305 0.015195044 -0.00057075353 -0.008575621 0.019092347
0.0009524297 0.0014270152 -0.0016213624 0.00037290144 -0.0008313564 0.0043594865 0.020947969 -7.7029326e-05
0.006087589 0.00692128 -0.0034793203 -0.0011791581 0.0030535688 0.0069908053 0.0049235187 -0.01588845
-0.0167619 0.005991669 0.0063256025 0.0084049925 0.00782442 -0.015833167 0.007247606 -0.0093281325
0.0006055637 -0.006094383 0.012025497 -0.00033053334 0.005546614 -0.0029545848 0.0035988234 0.0016897087
0.008224043 -0.003189809 -0.003230285 0.003589201 0.014656516 0.015190626 -0.014315364 0.004487825
0.00076122273 -0.0039666304 -0.003010732 0.010467567 0.011999692 -0.0013917303 -0.004650813 -0.0029771707
0.0029996892 0.005703109 0.0039659124 0.005273541 -0.005573252 -0.016013559 -0.0005973883 0.0032522257
0.015729269 -3.260432e-05 0.018742122 -0.011284252 0.008115647 0.009687819 0.0052991 -0.0059368373
-0.006434285 0.0045620543 -0.0025457302 0.0091322055 -0.009124391 8.241486e-05 -0.0023887379 -0.007619049
-0.0039384887 0.010513239 -0.0048966943 -0.0065709576 0.009270025 -0.004296577 0.0049036983 0.0032320532
0.013194205 0.019214777 0.001532921 0.020611744 0.0065935724 0.0026564016 0.0033909192 0.011623941
0.0008032033 -0.0065828213 -0.009558834 0.0040681553 -0.0092505645 0.005148902 0.010640035 0.003364873
0.0076206937 0.0037704185 -0.0029542064 -0.0076165944 -0.0031121338 -0.01166059 -0.02075067 -0.00031514207
0.012020027 -0.006859255 0.014508404 0.00230598 -0.0004247596 -0.009773801 -0.013344064 0.01838024
0.013727473 -0.012063462 -0.0021742247 0.001307652 0.011763354 0.015603035 0.007975775 0.0023262645
00000000: 09d3 85bc d4fd 46bc 98f8 bfbc 764c 253c
00000010: a2f4 783c 9f9e 15ba c380 0cbc 8e67 9c3c
00000020: 7aac 793a af0a bb3a e583 d4ba fc81 c339
00000030: 62ef 59ba 06da 8e3b 139b ab3c ce8a a1b8
00000040: 667a c73b e8cb e23b 4f05 64bb fb8d 9aba
00000050: 621e 483b 2013 e53b 7855 a13b 7f28 82bc
00000060: 4150 89bc c355 c43b 0047 cf3b 18b5 093c
00000070: ff31 003c 8fb4 81bc 537d ed3b 06d5 18bc
00000080: b1be 1e3a 64b3 c7bb 9706 453c 6f4b adb9
00000090: 5fc0 b53b b5a1 41bb 3dda 6b3b 3779 dd3a
000000a0: 23be 063c 1d0c 51bb 30b3 53bb cd38 6b3b
000000b0: e221 703c 1ae2 783c fd8a 6abc 9b0e 933b
000000c0: cb8c 473a 82fa 81bb b34f 45bb 2880 2b3c
000000d0: 5b9a 443c b86a b6ba d965 98bb a31c 43bb
000000e0: 6f96 443b 25e1 ba3b 7cf4 813b abcd ac3b
000000f0: d49f b6bb de2e 83bc 0d9a 1cba 4b23 553b
00000100: abda 803c 9fc0 08b8 1489 993c 95e1 38bc
00000110: 7ef7 043c a8b9 1e3c 13a4 ad3b cd89 c2bb
00000120: b2d6 d2bb 497d 953b 44d6 26bb 3f9f 153c
00000130: 787e 15bc 24d6 ac38 5f8c 1cbb 37a9 f9bb
00000140: 700e 81bb b83f 2c3c 7374 a0bb 3051 d7bb
00000150: 4ee1 173c 4dca 8cbb 34af a03b dbd0 533b
00000160: 822c 583c 4f68 9d3c 4bec c83a f6d9 a83c
00000170: e50e d83b 0617 2e3b 2f3a 5e3b 5872 3e3c
00000180: 108e 523a b5b4 d7bb a89c 1cbc 294e 853b
00000190: ae8f 17bc 1fb8 a83b 8b53 2e3c 3385 5c3b
000001a0: 03b7 f93b 2019 773b 5c9b 41bb a094 f9bb
000001b0: f1f4 4bbb 0f0c 3fbc 4ffd a9bc a739 a5b9
000001c0: a6ef 443c 9ac3 e0bb a8b4 6d3c ed1f 173b
000001d0: 45b2 deb9 4b22 20bc 10a1 5abc 2892 963c
000001e0: 32e9 603c d4a5 45bc 707d 0ebb 8565 ab3a
000001f0: 15bb 403c dfa3 7f3c d3ac 023c 3e74 183b
