src/CyberHero/Assets/RL/AgentNeuralNetwork/OLD/BossBehaviour.onnx (onnx, 88434 bytes, 9 tensors)

discrete_act_size_vector f4 [1, 3]
2.0 3.0 2.0
00000000: 0000 0040 0000 4040 0000 0040

network_body._body_endoder.seq_layers.0.weight f4 [128, 18]
0.5188737 0.0009816196 -0.30445552 0.026630277 0.064613394 -0.19071892 -0.046185687 -0.056220774
0.26806435 -0.02314555 -0.34905493 -0.16285595 0.12643418 0.09532927 -0.43518683 -0.22457767
0.036467034 0.061040107 0.10196964 -0.23855445 0.14465706 0.3278718 -0.34664708 0.3503262
-0.25848725 0.30059102 -0.08444865 0.012381389 0.09399729 0.030968044 -0.16308314 -0.15104961
-0.51720524 0.23582771 0.44456527 0.046755612 -0.013867419 -0.06888754 0.010088863 0.108015165
-0.09430357 -0.15928292 -0.36939135 0.61587906 -0.090635434 0.34921455 0.09629899 -0.02291515
0.43512234 0.081145085 -0.1997048 0.118665 -0.1420837 -0.42751768 -0.26230597 -0.23024996
-0.186885 0.11334223 -0.3060508 -0.017553838 0.24446554 0.24078935 -0.17435136 0.2492885
-0.36114523 0.21594134 -0.07945084 0.23883174 -0.07575743 0.02980602 0.12263682 -0.09907311
-0.22103733 -0.2808743 0.13736272 0.2618076 0.2359614 0.10533502 -0.026636783 -0.018551042
-0.252339 -0.3997592 -0.17475049 -0.093217425 0.07037241 0.014948191 -0.065174334 -0.23429681
-0.21945418 -0.2752457 -0.30380553 0.011073553 0.012351554 -0.13641483 -0.16697483 0.16145276
-0.20505951 -0.17108615 0.0068604494 -0.37833533 -0.39963463 -0.22286147 0.09342377 -0.035359558
-0.29880068 -0.05784314 -0.12663475 -0.10049201 0.23785084 -0.301114 -0.21342729 0.09896288
-0.009969507 -0.28634483 -0.17571811 -0.23608765 -0.06931394 0.14335719 -0.07939111 -0.43152043
-0.018677505 -0.009528571 -0.40306166 -0.029013697 0.10249679 -0.14621001 0.51215243 0.28695405
-0.014248392 -0.017826369 -0.13869357 -0.12235189 0.042210195 0.06853922 0.20293298 -0.03874682
0.12961945 -0.2719865 0.34984362 0.0015126709 -0.6687392 0.072696604 -0.11627611 0.10099385
-0.2077791 -0.35661227 -0.24407749 -0.053369965 0.13470176 0.04651995 0.10151383 -0.17897166
0.27433285 -0.4163856 0.15251556 -0.06110157 0.09784595 0.18901072 0.19720677 -0.10332208
0.25563654 -0.12549785 0.21686481 0.14615378 0.5432878 0.5849068 -0.01810238 -0.31641272
0.36831912 -0.2823566 0.029585887 0.04997583 0.25181344 0.13013376 -0.26473227 -0.03434631
0.103513 0.28839082 -0.0138725 -0.33925244 0.35341832 -0.15676408 0.046219647 0.35248807
-0.10413486 -0.39838713 0.40355396 -0.07254903 0.050542638 -0.18201056 0.06680912 0.059451915
-0.29873675 0.11630946 -0.5006883 0.23374046 -0.22552247 0.08938945 -0.076523446 0.34315294
0.4568881 -0.347357 0.13348359 -0.033325803 -0.055895235 -0.13730752 0.19261336 0.12491906
0.2273639 0.2615372 0.13735697 -0.35487357 -0.28240964 0.019521605 -0.011693862 -0.019759882
-0.20651622 0.077548034 0.011282686 -0.20270301 0.22382459 -0.3100413 0.059491992 0.3129542
0.2608346 0.14923716 0.32211882 0.20491126 0.059817612 -0.09224355 0.47183773 0.15608267
0.08148535 0.13689794 -0.21931091 -0.15123151 -0.50351155 0.3470622 0.0051199226 -0.06509889
0.09282566 0.07740276 0.04306343 0.12026458 0.109683774 -0.17226303 0.084335975 0.18382998
-0.22146145 0.03289785 -0.2532279 -0.030317541 -0.46296066 0.09742641 -0.1010521 0.39033884
00000000: e8d4 043f b0a9 803a 98e1 9bbe bd27 da3c
00000010: 0754 843d d24b 43be 342d 3dbd c147 66bd
00000020: bb3f 893e bd9b bdbc 54b7 b2be b6c3 26be
00000030: f677 013e fe3b c33d cfd0 debe b0f7 65be
00000040: 755e 153d 3105 7a3d 75d5 d03d 9e47 74be
00000050: fb20 143e d0de a73e ba7b b1be f55d b33e
00000060: 7158 84be 11e7 993e 6af3 acbd 4fdb 4a3c
00000070: a781 c03d b2b0 fd3c 44ff 26be c0ac 1abe
00000080: 9067 04bf d27c 713e 0f9e e33e d082 3f3d
00000090: 2c34 63bc e914 8dbd c24b 253c 0e37 dd3d
000000a0: 3b22 c1bd 101b 23be dd20 bdbe 40aa 1d3f
000000b0: 129f b9bd 40cc b23e 6838 c53d 8db8 bbbc
000000c0: 5bc8 de3e 652f a63d 6a7f 4cbe a306 f33d
000000d0: 647e 11be 99e3 dabe f84c 86be a5c6 6bbe
000000e0: c85e 3fbe f91f e83d b1b2 9cbe 11cd 8fbc
000000f0: 2d55 7a3e 7c91 763e 2a89 32be 7c45 7f3e
00000100: 07e8 b8be ba1f 5d3e 1fb7 a2bd 4f90 743e
00000110: b626 9bbd c12b f43c 0329 fb3d d8e6 cabd
00000120: 9c57 62be c2ce 8fbe d0a8 0c3e a50b 863e
00000130: de9f 713e e3b9 d73d 6235 dabc 5bf8 97bc
00000140: 9432 81be 3dad ccbe cbf1 32be c7e8 bebd
00000150: 691f 903d 42e9 743c 1f7a 85bd 81eb 6fbe
00000160: 99b8 60be 01ed 8cbe 668c 9bbe d96d 353c
00000170: 2c5e 4a3c 54b0 0bbe 73fb 2abe df53 253e
00000180: 1ffb 51be 3531 2fbe 9fcd e03b 2bb5 c1be
00000190: e99c ccbe cc35 64be f654 bf3d 2fd5 10bd
000001a0: 67fc 98be eeec 6cbd 8aac 01be c1ce cdbd
000001b0: 2c8f 733e 9d2b 9abe af8c 5abe 0dad ca3d
000001c0: 2557 23bc ca9b 92be 73ef 33be f6c0 71be
000001d0: 78f4 8dbd 3acc 123e ce97 a2bd 3ff0 dcbe
000001e0: 9101 99bc b91d 1cbc 195e cebe 22ae edbc
000001f0: d6e9 d13d 14b8 15be 6c1c 033f a4eb 923e
00000200: 1672 69bc 9b08 92bc b005 0ebe a193 fabd
00000210: 99e4 2c3d 4a5e 8c3d aacd 4f3e fcb4 1ebd
00000220: f6ba 043e d141 8bbe b41e b33e d044 c63a
00000230: 7e32 2bbf f5e1 943d 2b22 eebd ddd5 ce3d
00000240: 0bc4 54be e295 b6be 73ef 79be 779a 5abd
00000250: 42ef 093e b48b 3e3d 7ce6 cf3d 5944 37be
00000260: 5b75 8c3e 7e30 d5be 0a2d 1c3e a445 7abd
00000270: 7563 c83d 078c 413e 92f0 493e 879a d3bd
00000280: cbe2 823e 8282 00be cf11 5e3e 56a9 153e
00000290: e914 0b3f 74bc 153f 714b 94bc d900 a2be
000002a0: 5394 bc3e 0b91 90be 1a5e f23c 75b3 4c3d
000002b0: b1ed 803e c941 053e fd8a 87be b7ae 0cbd
000002c0: a0fe d33d f6a7 933e 7b49 63bc 7fb2 adbe
000002d0: 3ff3 b43e c386 20be d050 3d3d 5179 b43e
000002e0: a844 d5bd 66f9 cbbe a09e ce3e 9694 94bd
000002f0: cc05 4f3d fa60 3abe 38d3 883d da83 733d
00000300: 06f4 98be a733 ee3d 1c2d 00bf a959 6f3e
00000310: 5def 66be d111 b73d 53b8 9cbd beb1 af3e
00000320: 3ded e93e c7d8 b1be ecaf 083e a380 08bd
00000330: 67f2 64bd 589a 0cbe 703c 453e 90d5 ff3d
00000340: 15d2 683e 34e8 853e 4ea7 0c3e fdb1 b5be
00000350: ff97 90be c6eb 9f3c 9d97 3fbc 7adf a1bc
00000360: fd78 53be 81d1 9e3d 04db 383c 6191 4fbe
00000370: 4632 653e bcbd 9ebe e0ad 733d 883b a03e
00000380: 1d8c 853e a0d1 183e c2ec a43e 42d4 513e
00000390: 5003 753d 30ea bcbd b794 f13e 23d4 1f3e
000003a0: cbe1 a63d f92e 0c3e 0a93 60be 6fdc 1abe
000003b0: 22e6 00bf 23b2 b13e 06c5 a73b 9152 85bd
000003c0: 611b be3d 5785 9e3d 4763 303d 474d f63d
000003d0: e3a1 e03d b865 30be 57b8 ac3d ed3d 3c3e
000003e0: cac6 62be e5bf 063d 16a7 81be 7e5c f8bc
000003f0: 2e09 edbe 7f87 c73d 67f4 cebd 7eda c73e

network_body._body_endoder.seq_layers.0.bias f4 [128]
0.0 0.0 0.0 0.0 0.0 0.0 0.0 0.0
0.0 0.0 0.0 0.0 0.0 0.0 0.0 0.0
0.0 0.0 0.0 0.0 0.0 0.0 0.0 0.0
0.0 0.0 0.0 0.0 0.0 0.0 0.0 0.0
0.0 0.0 0.0 0.0 0.0 0.0 0.0 0.0
0.0 0.0 0.0 0.0 0.0 0.0 0.0 0.0
0.0 0.0 0.0 0.0 0.0 0.0 0.0 0.0
0.0 0.0 0.0 0.0 0.0 0.0 0.0 0.0
0.0 0.0 0.0 0.0 0.0 0.0 0.0 0.0
0.0 0.0 0.0 0.0 0.0 0.0 0.0 0.0
0.0 0.0 0.0 0.0 0.0 0.0 0.0 0.0
0.0 0.0 0.0 0.0 0.0 0.0 0.0 0.0
0.0 0.0 0.0 0.0 0.0 0.0 0.0 0.0
0.0 0.0 0.0 0.0 0.0 0.0 0.0 0.0
0.0 0.0 0.0 0.0 0.0 0.0 0.0 0.0
0.0 0.0 0.0 0.0 0.0 0.0 0.0 0.0
00000000: 0000 0000 0000 0000 0000 0000 0000 0000
00000010: 0000 0000 0000 0000 0000 0000 0000 0000
00000020: 0000 0000 0000 0000 0000 0000 0000 0000
00000030: 0000 0000 0000 0000 0000 0000 0000 0000
00000040: 0000 0000 0000 0000 0000 0000 0000 0000
00000050: 0000 0000 0000 0000 0000 0000 0000 0000
00000060: 0000 0000 0000 0000 0000 0000 0000 0000
00000070: 0000 0000 0000 0000 0000 0000 0000 0000
00000080: 0000 0000 0000 0000 0000 0000 0000 0000
00000090: 0000 0000 0000 0000 0000 0000 0000 0000
000000a0: 0000 0000 0000 0000 0000 0000 0000 0000
000000b0: 0000 0000 0000 0000 0000 0000 0000 0000
000000c0: 0000 0000 0000 0000 0000 0000 0000 0000
000000d0: 0000 0000 0000 0000 0000 0000 0000 0000
000000e0: 0000 0000 0000 0000 0000 0000 0000 0000
000000f0: 0000 0000 0000 0000 0000 0000 0000 0000
00000100: 0000 0000 0000 0000 0000 0000 0000 0000
00000110: 0000 0000 0000 0000 0000 0000 0000 0000
00000120: 0000 0000 0000 0000 0000 0000 0000 0000
00000130: 0000 0000 0000 0000 0000 0000 0000 0000
00000140: 0000 0000 0000 0000 0000 0000 0000 0000
00000150: 0000 0000 0000 0000 0000 0000 0000 0000
00000160: 0000 0000 0000 0000 0000 0000 0000 0000
00000170: 0000 0000 0000 0000 0000 0000 0000 0000
00000180: 0000 0000 0000 0000 0000 0000 0000 0000
00000190: 0000 0000 0000 0000 0000 0000 0000 0000
000001a0: 0000 0000 0000 0000 0000 0000 0000 0000
000001b0: 0000 0000 0000 0000 0000 0000 0000 0000
000001c0: 0000 0000 0000 0000 0000 0000 0000 0000
000001d0: 0000 0000 0000 0000 0000 0000 0000 0000
000001e0: 0000 0000 0000 0000 0000 0000 0000 0000
000001f0: 0000 0000 0000 0000 0000 0000 0000 0000

network_body._body_endoder.seq_layers.2.weight f4 [128, 128]
0.121472955 0.0051506124 -0.070936956 -0.03346529 0.06462671 -0.0021907804 0.060715336 0.02675492
0.035652526 -0.07873301 -0.09900377 0.092510395 0.055908564 0.0027469615 -0.0043510953 0.009472291
0.04628939 0.031292543 0.042262875 -0.007137155 0.021103809 0.1405893 -0.14288715 -0.123767935
-0.07801915 0.0055679814 -0.027582413 -0.08523389 -0.12733743 0.092531286 0.13635278 0.041788727
0.100942336 0.035221234 -0.0021427951 -0.15760614 0.009951356 0.0020382148 -0.13060732 0.13964851
-0.023548191 0.08925708 -0.009936588 0.020806411 0.0149456505 -0.16031449 -0.15208343 -0.053973984
0.06201838 0.086495765 -0.022297753 -0.10792011 -0.09098318 0.25799507 0.053656947 0.049340624
0.10783919 0.24020281 -0.03597991 -0.19022635 -0.029897403 -0.0074375873 0.0023709896 -0.04189802
0.113760136 0.09523759 -0.23680605 -0.06401757 -0.024865434 0.014400089 0.0358892 0.07585123
-0.10302623 0.14826183 0.09203443 -0.06698285 0.08830081 0.019214049 -0.12935215 0.06274577
0.07155231 0.11240892 0.14739226 0.0036920835 0.08483405 -0.07979137 -0.038018573 0.12991981
0.01604604 0.030636499 -0.1235531 0.06080336 -0.047148816 0.054977354 -0.14416824 -0.018547429
-0.0062815216 -0.008574786 0.054694418 0.047946848 -0.13678338 -0.02539468 0.106160775 0.060525086
0.09667557 -0.07944236 0.044257283 -0.025534049 0.02875763 -0.0073383297 0.06788264 -0.15803547
-0.09676322 0.05612101 -0.10499075 -0.066863865 0.042438727 0.06410441 -0.11640048 -0.08771099
-0.03056167 0.18480045 -0.06080483 0.056558825 -0.063972935 -0.073364526 0.021634182 -0.05887766
0.03167021 0.14447717 0.14840043 0.03388182 0.09233211 -0.008842518 0.096072 -0.055993974
-0.077092595 -0.0033685947 0.09483639 -0.13746104 0.104636885 0.050052453 -0.065794535 -0.14345858
-0.062217977 -0.087388486 -0.06551422 -0.07825466 -0.045772303 -0.031829447 0.0039990083 -0.07859406
0.013954356 -0.036206212 0.068933174 0.0447293 -0.12401037 0.018104011 0.10569055 -0.026491493
0.015211737 0.13480848 -0.043198064 0.039786227 0.08184867 -0.019582188 -0.015042268 -0.18345469
-0.10544694 -0.022494469 0.04078261 0.03990736 0.066487305 0.013054263 -0.122196876 0.17928487
0.13775828 0.051901087 -0.0022001725 -0.04964037 0.119514406 0.09355358 0.032865673 0.07301559
-0.11293586 0.00047655115 -0.11704376 0.0010747089 -0.012330981 -0.24925208 -0.09427448 -0.0079816645
0.061667476 -0.016592551 -0.010810945 -0.25698417 -0.03862849 -0.10611592 0.022690011 0.111259155
-0.051004596 -0.006068812 0.13586102 -0.03337611 -0.019652769 0.005753969 -0.066708416 0.08279389
-0.060350493 0.027953196 0.0074677602 -0.05093377 0.044879608 0.121666335 -0.02668541 -0.029196499
0.03417747 -0.12303692 -0.06944437 -0.0734907 -0.023795528 -0.00887776 -0.09008285 -0.081466675
0.024353465 0.07845326 -0.07600328 -0.08160525 -0.15758379 -0.13098502 0.13202266 0.07121515
0.07300109 -0.017808722 0.054247193 0.032263882 0.14610247 -0.05393871 -0.004865887 0.10509823
0.06874683 0.14252083 0.022196854 -0.0022717367 0.1362813 -0.029951718 -0.10655883 -0.027180571
0.02553001 0.12449567 0.25557503 0.075487256 -0.07854405 0.040119633 -0.1210378 -0.008910017
00000000: d0c6 f83d 78c6 a83b 6547 91bd e612 09bd
00000010: 025b 843d 3293 0fbb a5b0 783d 222d db3c
00000020: 6208 123d c63e a1bd 7dc2 cabd 1776 bd3d
00000030: 6100 653d 5e06 343b a293 8ebb ab31 1b3c
00000040: f299 3d3d 9c2c 003d d61b 2d3d ccde e9bb
00000050: e5e1 ac3c a4f6 0f3e 0251 12be 0b7a fdbd
00000060: 81c8 9fbd 9d73 b63b 83f4 e1bc 1b8f aebd
00000070: be64 02be 0b81 bd3d 10a0 0b3e a82a 2b3d
00000080: dbba ce3d 2444 103d 236e 0cbb 8163 21be
00000090: 030b 233c 9293 053b edbd 05be 0500 0f3e
000000a0: 23e8 c0bc 6acc b63d 12cd 22bc 3572 aa3c
000000b0: 9ade 743c 7b29 24be c2bb 1bbe d313 5dbd
000000c0: fc06 7e3d b124 b13d c7a9 b6bc 3805 ddbd
000000d0: 6455 babd ee17 843e 63c7 5b3d 6519 4a3d
000000e0: cbda dc3d baf7 753e ac5f 13bd b2ca 42be
000000f0: 66eb f4bc 01b7 f3bb 9b62 1b3b 429d 2bbd
00000100: 13fb e83d ed0b c33d 497d 72be a51b 83bd
00000110: 98b2 cbbc 5aee 6b3c 8e00 133d e457 9b3d
00000120: 6bff d2bd f3d1 173e 8c7c bc3d 4e2e 89bd
00000130: 0ed7 b43d c866 9d3c e474 04be db80 803d
00000140: 048a 923d a636 e63d ffed 163e e2f6 713b
00000150: 79bd ad3d a869 a3bd 5db9 1bbd b309 053e
00000160: fc72 833c 65f9 fa3c 6809 fdbd f20c 793d
00000170: 1e1f 41bd ef2f 613d d7a0 13be c7f0 97bc
00000180: 39d5 cdbb 427d 0cbc 4107 603d ea63 443d
00000190: f110 0cbe 8108 d0bc d26a d93d 27e9 773d
000001a0: d7fd c53d adb2 a2bd 2047 353d c82c d1bc
000001b0: 1f95 eb3c 5f76 f0bb 0e06 8b3d 0dd4 21be
000001c0: cc2b c6bd 25df 653d 6405 d7bd ecef 88bd
000001d0: 3bd4 2d3d 2c49 833d 6063 eebd d2a1 b3bd
000001e0: 785c fabc 543c 3d3e 7c0e 79bd 3aaa 673d
000001f0: 3e04 83bd 2440 96bd 2b3a b13c b429 71bd
00000200: 9fb8 013d d3f1 133e 48f6 173e aac7 0a3d
00000210: 9e18 bd3d 35e0 10bc 66c1 c43d f059 65bd
00000220: b9e2 9dbd a4c3 5cbb 9539 c23d 96c2 0cbe
00000230: dd4b d63d cd03 4d3d 49bf 86bd cee6 12be
00000240: 47d8 7ebd bcf8 b2bd 522c 86bd fb43 a0bd
00000250: bd7b 3bbd 985f 02bd 1d0a 833b ecf5 a0bd
00000260: d0a0 643c f74c 14bd d62c 8d3d 1236 373d
00000270: 26f9 fdbd dd4e 943c 4974 d83d b004 d9bc
00000280: a63a 793c 3c0b 0a3e 74f0 30bd e2f6 223d
00000290: 47a0 a73d d36a a0bc d873 76bc 8cdb 3bbe
000002a0: 91f4 d7bd 5246 b8bc ab0b 273d e675 233d
000002b0: 7f2a 883d 8ce1 553c 5b42 fabd 7496 373e
000002c0: 8210 0d3e 3c96 543d c530 10bb b353 4bbd
000002d0: f8c3 f43d 0599 bf3d 289e 063d 3389 953d
000002e0: eb4a e7bd 9dd9 f939 a4b4 efbd 3fdd 8c3a
000002f0: e207 4abc f03b 7fbe fb12 c1bd 87c5 02bc
00000300: 0997 7c3d 1aed 87bc 6420 31bc 6e93 83be
00000310: e838 1ebd 4e53 d9bd 67e0 b93c d7db e33d
00000320: 32ea 50bd e3dc c6bb 271f 0b3e 63b5 08bd
00000330: d8fe a0bc ca8b bc3b 6c9e 88bd d88f a93d
00000340: 1432 77bd 1afe e43c 1db4 f43b ee9f 50bd
00000350: aed3 373d 332c f93d 5c9b dabc 7f2d efbc
00000360: adfd 0b3d c8fa fbbd da38 8ebd 4b82 96bd
00000370: d7ee c2bc 0674 11bc 5b7d b8bd 00d8 a6bd
00000380: eb80 c73c 1aac a03d 9ca7 9bbd a720 a7bd
00000390: a55d 21be f020 06be f330 073e 40d9 913d
000003a0: 9881 953d 99e3 91bc 4e32 5e3d 2227 043d
000003b0: e39b 153e d6ee 5cbd 0572 9fbb be3d d73d
000003c0: 23cb 8c3d fbf0 113e 2dd6 b53c 6be1 14bb
000003d0: 538d 0b3e 4e5d f5bc 843b dabd caa9 debc
000003e0: 5024 d13c 96f7 fe3d bbda 823e 1099 9a3d
000003f0: b4db a0bd 7c54 243d abe2 f7bd 52fb 11bc

action_model._discrete_distribution.branches.0.weight f4 [2, 128]
-0.014846119 -0.0131586045 0.0022780993 0.011348378 -0.0011467393 -0.0062452108 -0.0039733914 -0.0053318045
-0.012477151 -0.012520772 0.0014873099 0.0023283383 -0.015245291 0.0039759674 -0.01398733 0.0045166626
0.005056388 -0.0013745667 -0.00967959 0.0038734877 0.005832343 -0.013264291 -0.003043868 -0.0004912155
-0.0043603065 0.010604574 0.00076304434 0.00061519135 -0.015764358 0.003038272 -0.0025018137 -0.015845712
-0.006954795 -0.0007586458 -0.005260194 -0.002128354 0.0051275366 0.01935307 0.0040050875 -0.015443585
0.005534919 -0.0019931102 -0.0006002622 0.0033844907 -0.020304205 0.002766246 -0.00039444622 0.011168468
0.011528722 0.00950432 -0.007035664 0.011827378 -0.002010902 0.010658276 -0.008344394 0.005589936
-0.0061038467 0.0034633116 0.0153561225 0.005085021 0.0054247603 0.002065555 -0.01235675 0.0008780678
0.004763008 0.00075211056 -0.0032178273 -0.0032107376 -0.0028373804 0.008050108 0.0025034181 0.0015821838
-0.00854013 -0.0033192076 0.012993748 0.015011735 -0.0054888907 -5.7209523e-05 -0.0014966558 -0.0108560575
-0.0024909587 0.002934451 -0.008698632 0.01010223 -0.0018630838 -0.0029380599 0.0026026776 -0.0039305924
0.0067476924 0.010370326 -0.008876718 0.007953837 -0.015676394 -0.0028964593 0.00014106683 0.0050058523
-0.01572667 -0.0037259373 0.010767383 -0.0018883953 -0.017653568 0.010023556 0.0057825507 -0.00091880356
-0.020462487 0.0017363763 -0.0024653561 -0.007930269 -0.003961352 0.004974305 -0.0056655044 0.010156779
0.009898652 -0.007760921 -0.006968805 -0.0055965516 -0.004283156 0.004951691 0.0024126784 0.018127467
-0.008869902 -0.004192499 -0.004258813 -0.018492058 -0.013185943 0.0057050283 -0.0097451415 0.013798003
-0.023397906 -0.004320269 0.0062739784 0.004062994 0.004552826 0.018829461 0.01754188 -0.014402975
0.00266893 -0.0065185106 0.007319111 -0.0046568015 0.012299457 0.013398021 -0.010539 0.004555004
-0.0016721627 -0.0030144956 -0.01032505 -0.01834072 -0.0047883517 0.005707067 0.00133375 -0.0074490258
-0.023428043 -0.0110981045 0.0059904526 0.013617982 0.008982895 0.008109452 -0.007841273 -0.020972852
0.008212586 -0.012282121 -0.0017867776 0.0036871023 0.009114258 0.00077365513 0.004247026 -0.015105687
-0.005723422 0.0044875913 -0.0064757513 -0.01541023 0.0041495147 -0.0020657217 0.0012363471 0.006673205
-0.011182024 0.0013429649 0.0064861663 0.008357176 -0.0012403317 0.0007133103 -0.018711304 0.0040277555
-0.016171517 0.019370293 -0.0026784185 0.017475 0.0017852423 0.0026581164 0.004561586 -0.00063584704
0.00038201569 -0.005595971 -0.0109118745 -0.00023334523 -0.017576387 0.0074861734 0.008159136 -0.009910168
-0.00085969846 -0.0055374107 -0.011310282 -0.004216242 -0.002541905 -0.010040466 -0.0017376207 -0.004440848
0.0031536126 -0.020757567 -0.0011591314 0.0061097653 0.006135968 0.0020971396 -0.012409324 -0.01212193
-0.00082964444 -0.0006629505 0.0021812802 -0.0057608127 0.014218004 0.002696608 0.0029957297 -0.0033172132
0.0041993954 0.020260815 -0.007499376 -0.0052433824 -0.011460539 0.004971035 0.0020195374 0.0070865736
-0.0011623262 0.0052153557 -0.0069169845 -0.0074080485 -0.010936301 0.003052022 0.009547263 -0.0012514511
0.009199127 0.0020796314 0.010539835 -0.0039635114 -0.026809512 0.017994076 0.011531035 0.007331304
-0.01418279 -0.007508438 0.014151551 -0.0065518864 -0.006009016 -0.002565065 0.0009009964 -0.0116250925
00000000: 233d 73bc 3097 57bc 2a4c 153b 8cee 393c
00000010: 304e 96ba a0a4 ccbb 3933 82bb 6bb6 aebb
00000020: f76c 4cbc ed23 4dbc d7f1 c23a 0997 183b
00000030: 63c7 79bc d548 823b 1d2b 65bc 8300 943b
00000040: 0fb0 a53b ce2a b4ba 2597 1ebc 57da 7d3b
00000050: 3d1d bf3b 7852 59bc a27b 47bb eac4 00ba
00000060: e7e0 8ebb cfbe 2d3c 0a07 483a cb44 213a
00000070: 4124 81bc bf1d 473b 78f5 23bb dece 81bc
00000080: 0de5 e3bb dcdf 46ba b55d acbb db7b 0bbb
00000090: e504 a83b 548a 9e3c 1c3d 833b 1707 7dbc
000000a0: 445e b53b d79e 02bb ea5a 1dba 55ce 5d3b
000000b0: 0155 a6bc e849 353b adcd ceb9 f3fb 363c
000000c0: f7e2 3c3c 02b8 1b3c 6d8b e6bb 9ec7 413c
000000d0: 56c9 03bb 0da0 2e3c edb6 08bc c82b b73b
000000e0: c702 c8bb baf8 623b 3f98 7b3c 3fa0 a63b
000000f0: 30c2 b13b 435e 073b f773 4abc 222e 663a
00000100: 0213 9c3b 4929 453a 2fe2 52bb 3d6b 52bb
00000110: 58f3 39bb 9ae4 033c 6310 243b 4761 cf3a
00000120: e7eb 0bbc 1087 59bb bbe3 543c c8f3 753c
00000130: 27dc b3bb 42f4 6fb8 6f2b c4ba 9bdd 31bc
00000140: 5a3f 23bb eb4f 403b b584 0ebc d383 253c
00000150: b832 f4ba 778c 40bb af91 2a3b 33cc 80bb
00000160: bf1b dd3b 4de8 293c a76f 11bc cf50 023c
00000170: c86b 80bc 86d2 3dbb 57eb 1339 2208 a43b
00000180: 38d5 80bc db2e 74bb ad69 303c 0884 f7ba
00000190: 379e 90bc d739 243c 8d7b bd3b dddb 70ba
000001a0: f2a0 a7bc 1f97 e33a d091 21bb f6ed 01bc
000001b0: 3bce 81bb 7fff a23b b2a5 b9bb 9e68 263c
000001c0: f52d 223c 534f febb 935a e4bb 4763 b7bb
000001d0: b759 8cbb cb41 a23b 071e 1e3b 0e80 943c
000001e0: 1153 11bc 3b61 89bb 838d 8bbb a87c 97bc
000001f0: da09 58bc 3ff1 ba3b 16aa 1fbc 0511 623c
00000200: f7ac bfbc 0b91 8dbb f295 cd3b dd22 853b
00000210: df2f 953b 3e40 9a3c fdb3 8f3c 75fa 6bbc
00000220: 37e9 2e3b 3b99 d5bb 27d5 ef3b 1598 98bb
00000230: a983 493c 6083 5b3c c5ab 2cbc 2542 953b
00000240: 782c dbba d88e 45bb 662a 29bc 473f 96bc
00000250: 9be7 9cbb 5902 bb3b 39d1 ae3a f516 f4bb
00000260: 2bec bfbc d3d4 35bc 8f4b c43b f51d 5f3c
00000270: fe2c 133c 82dd 043c af78 00bc 42cf abbc
00000280: 158e 063c f33a 49bc 4f32 eaba 50a3 713b
00000290: f853 153c 1ecf 4a3a a32a 8b3b d87d 77bc
000002a0: 8b8b bbbb a50c 933b 8a32 d4bb 307b 7cbc
000002b0: a7f8 873b 0f61 07bb ed0c a23a e7aa da3b
000002c0: cf34 37bc 6d06 b03a e889 d43b 89ec 083c
000002d0: a092 a2ba 72fd 3a3a 7348 99bc 43fb 833b
000002e0: 217a 84bc 73ae 9e3c 6888 2fbb bb27 8f3c
000002f0: cbfe e93a cb33 2e3b 5b79 953b f9ae 26ba
00000300: 4749 c839 685e b7bb b8c7 32bc 22ae 74b9
00000310: 5bfc 8fbc 934e f53b e6ad 053c 425e 22bc
00000320: 635d 61ba 2b73 b5bb c34e 39bc 6728 8abb
00000330: 1796 26bb c480 24bc e0c0 e3ba 8884 91bb
00000340: d7ac 4e3b c60b aabc ffed 97ba 6d34 c83b
00000350: 3b10 c93b 2a70 093b 7a50 4bbc 0f9b 46bc
00000360: 7f7c 59ba dbc9 2dba cff3 0e3b 33c5 bcbb
00000370: a2f2 683c 93b9 303b 0154 443b 9a65 59bb
00000380: 159b 893b 02fa a53c 53bd f5bb aed0 abbb
00000390: fcc4 3bbc 10e4 a23b 375a 043b 7d36 e83b
000003a0: 3259 98ba 93e5 aa3b dfa7 e2bb 37bf f2bb
000003b0: 2c2e 33bc 6f04 483b 206c 1c3c bb07 a4ba
000003c0: efb7 163c 6d4a 083b 46af 2c3c 58e0 81bb
000003d0: 9f9f dbbc 5068 933c abec 3c3c 6f3b f03b
000003e0: ef5e 68bc 5809 f6bb e8db 673c 35b1 d6bb
000003f0: 48e7 c4bb a61a 28bb d830 6c3a 2c77 3ebc

action_model._discrete_distribution.branches.0.bias f4 [2]
0.0 0.0
00000000: 0000 0000 0000 0000

action_model._discrete_distribution.branches.1.weight f4 [3, 128]
-0.003180836 -0.014300729 0.008604981 0.0005953754 0.0027911195 -0.0027832622 -0.0058782515 -0.005650364
0.01451351 0.0027540831 -0.004520038 -0.00835569 0.007499736 -0.005477333 -0.0018044778 0.002385308
-0.010289676 -0.0103631085 -0.0008860011 -0.002752984 -0.0041662813 -1.1379936e-05 0.002145788 0.0043771057
0.0032444762 -0.006459647 0.0094273295 0.0036421225 -0.015590704 -0.0009979921 0.0010076385 -0.012522719
0.003832278 -0.0102804145 0.019081274 0.0074391924 0.0032820727 -0.0036891967 -0.0033113216 0.007464409
0.0065615433 -0.008075307 0.0018543609 0.010560732 -0.0037838637 0.0069203414 0.011296 0.006312827
-0.005110721 0.006726667 0.015481782 -0.007044037 0.018170858 0.009409875 0.007554854 0.010363418
-0.003513825 -0.012799412 -0.0013654458 -0.0068203867 0.012171633 1.704649e-06 -0.0031232324 -0.016503438
-0.004398343 0.008529973 -0.0008188314 -0.011698881 0.00457862 -0.0011940055 -0.005681829 0.005084043
0.004171892 0.00062108703 0.0017903856 0.0036619678 0.005285881 -0.0015531069 0.0023128693 0.0044974214
-0.0012607084 -0.0038908136 0.0019163553 0.0081569385 -0.010649777 0.0037202537 -0.00200334 0.003578521
0.001396464 0.0054279296 -0.005160988 0.011733937 0.010489276 0.0034536857 0.008240237 0.0026308035
-0.016486881 -0.0068928646 -0.0019015666 -0.010903581 0.0036675923 0.00017418513 0.0030862596 -0.014858176
0.022747032 -0.0104705645 -0.009895776 -0.0050571314 -0.010076072 0.008842564 -0.009471493 -0.0033086163
0.00898834 0.002939634 -0.0039497893 -0.00816911 -0.0037048296 0.0067288354 0.00042223078 -0.0042696446
-0.0074948817 -0.009562625 -0.006306471 0.00913849 0.0102128275 0.002199539 -0.004455189 -0.012899021
0.0029202572 -0.0005738075 0.0011742109 0.009839606 0.00084687764 -0.0072087646 0.009839495 0.002437456
-0.011528042 0.0039779423 -0.015222427 -0.008307858 0.0058752256 -0.0005805048 0.0071094367 0.002792024
0.008779703 0.009096129 -0.0011971935 0.0008997479 0.00084679 0.0053951764 -0.0041389647 0.0041434416
-0.013976551 0.0066894027 -0.0112020625 -0.002902651 -0.009544449 0.0029388268 -0.014511498 0.0135618625
0.013714025 -0.010676577 -0.001801446 -0.00510269 -0.014672934 0.0026343851 -0.005375779 0.0052102823
0.0004547409 -0.0050243353 0.009986775 -0.004148625 -0.0025734052 0.0008697632 0.008722938 -0.0014649577
0.01387862 0.006250771 -0.0015896912 0.014128635 -0.0028825353 -0.00075988244 0.0038621256 0.0031187062
0.0024895903 0.003594609 0.011044572 -0.013977203 0.011241083 0.010174143 -0.0078031854 0.008165936
-0.009030181 0.0066094585 -0.009919964 0.011958427 -0.009759167 -0.020974066 0.007532697 -0.020678489
0.009149806 -0.013182796 0.013137837 -0.016474066 -0.0016697623 -0.004781322 0.00441964 -0.00054459576
0.0010251714 -0.005166202 -0.0037535043 -0.00047295858 -0.009035149 0.015397862 -0.0038515143 -0.009449644
0.007973606 -0.0063615697 0.0038789008 -0.003633795 0.0060715913 -0.0077754073 -0.004695292 -0.014541804
0.002300516 0.015113673 0.003804179 0.00039051345 -0.008470832 0.012705393 0.0054848446 0.010280535
0.0077767703 -0.0005842487 0.012155085 0.010758074 0.017863194 0.00049276714 0.0056504593 0.008991246
0.000705768 -0.008032915 -0.013242579 -0.007953084 0.001192543 -0.004252801 0.00447242 -0.010515484
0.0034233802 0.0073479638 -0.000121445155 -0.0003604643 0.006919352 -0.019517057 -0.009082518 0.008409716
00000000: 9375 50bb 9b4d 6abc e8fb 0c3c f712 1c3a
00000010: 37eb 363b 6467 36bb 599e c0bb b026 b9bb
00000020: 13ca 6d3c d97d 343b d41c 94bb 4ee6 08bc
00000030: 58c0 f53b 337b b3bb 3a84 ecba d452 1c3b
00000040: 0796 28bc 07ca 29bc 8742 68ba 686b 34bb
00000050: 4d85 88bb 74ec 3eb7 59a0 0c3b d36d 8f3b
00000060: 47a1 543b 72ab d3bb 1675 1a3c adb0 6e3b
00000070: 2770 7fbc 0fcf 82ba bd12 843a 172c 4dbc
00000080: f526 7b3b 2f6f 28bc 5550 9c3c 78c4 f33b
00000090: 0b18 573b 73c6 71bb c202 59bb 0098 f43b
000000a0: 3702 d73b 4b4e 04bc 070e f33a ec06 2d3c
000000b0: b3fa 77bb 08c4 e23b dc12 393c d5db ce3b
000000c0: d677 a7bb 5f6b dc3b 4da7 7d3c aad1 e6bb
000000d0: 0ddb 943c e02b 1a3c b58e f73b 53cb 293c
000000e0: 3348 66bb a0b4 51bc c2f8 b2ba 8d7d dfbb
000000f0: 876b 473c 4bcb e435 25af 4cbb 3832 87bc
00000100: fa1f 90bb 4dc1 0b3c d8a6 56ba aaac 3fbc
00000110: 4008 963b 2d80 9cba a32e babb 0b98 a63b
00000120: 5eb4 883b 72d0 223a 5fab ea3a a0fd 6f3b
00000130: 2f35 ad3b 9f91 cbba 8293 173b 1b5f 933b
00000140: 5b3e a5ba 05fd 7ebb 372e fb3a aea4 053c
00000150: 677c 2ebc 80cf 733b 784a 03bb 9f85 6a3b
00000160: 8e09 b73a c6dc b13b 811d a9bb b33f 403c
00000170: 36db 2b3c 3b57 623b 0f02 073c 8f69 2c3b
00000180: 7f0f 87bc 8add e1bb fd3d f9ba efa4 32bc
00000190: fd5b 703b 77a5 3639 d842 4a3b b56f 73bc
000001a0: fc57 ba3c bb8c 2bbc e521 22bc 4bb6 a5bb
000001b0: 1c16 25bc 67e0 103c 522e 1bbc 5fd5 58bb
000001c0: d543 133c e0a6 403b 3c6d 81bb bbd7 05bc
000001d0: bacc 72bb 907d dc3b db5e dd39 60e8 8bbb
000001e0: a097 f5bb 8eac 1cbc 83a6 cebb 9bb9 153c
000001f0: b453 273c 2426 103b d6fc 91bb 6a56 53bc
00000200: c961 3f3b 926b 16ba fbe7 993a 4c36 213c
00000210: ff00 5e3a 8037 ecbb d535 213c babd 1f3b
00000220: 1de0 3cbc 6659 823b 7d67 79bc af1d 08bc
00000230: f784 c03b 052d 18ba 47f6 e83b 64fa 363b
00000240: bed8 0f3c ee07 153c 26eb 9cba 0fdd 6b3a
00000250: 1dfb 5d3a 05ca b03b 27a0 87bb b5c5 873b
00000260: e7fd 64bc c732 db3b db88 37bc 673a 3ebb
00000270: 5260 1cbc 5599 403b a2c1 6dbc 9332 5e3c
00000280: cab0 603c cfec 2ebc 7f1e ecba 7734 a7bb
00000290: bf66 70bc a6a5 2c3b 4d27 b0bb 04bb aa3b
000002a0: 4a6a ee39 2ea3 a4bb 929f 233c 30f1 87bb
000002b0: 93a6 28bb d200 643a a7ea 0e3c d303 c0ba
000002c0: 2763 633c 45d3 cc3b 2f5d d0ba ca7b 673c
000002d0: ebe8 3cbb d932 47ba b71b 7d3b 3563 4c3b
000002e0: 6528 233b 8893 6b3b 4bf4 343c a300 65bc
000002f0: 852c 383c 73b1 263c ddb1 ffbb 6bca 053c
00000300: 53f3 13bc 2894 d83b 5887 22bc 47ed 433c
00000310: eae4 1fbc ced1 abbc d8d4 f63b ef65 a9bc
00000320: 11e9 153c a7fc 57bc 1540 573c 9ff4 86bc
00000330: eddb daba a3ac 9cbb a1d2 903b 34c3 0eba
00000340: 0b5f 863a 3e49 a9bb 5afd 75bb 6df7 f7b9
00000350: 2908 14bc 5047 7c3c b069 7cbb aed2 1abc
00000360: baa3 023c b774 d0bb 2835 7e3b f724 6ebb
00000370: 33f4 c63b d8c8 febb f7da 99bb bf40 6ebc
00000380: 41c4 163b 579f 773c 884f 793b d4bd cc39
00000390: 3fc9 0abc 482a 503c 36ba b33b b06f 283c
000003a0: 47d4 fe3b 4428 19ba 1f26 473c a242 303c
000003b0: d555 923c 0b2d 013a 7d27 b93b 0550 133c
000003c0: 4a03 393a 7d9c 03bc 67f7 58bc a74d 02bc
000003d0: 1a4f 9c3a 155b 8bbb 618d 923b 2349 2cbc
000003e0: ca5a 603b 30c7 f03b 5fb0 feb8 b3fc bcb9
000003f0: bbbb e23b 3ce2 9fbc d7ce 14bc e8c8 093c

action_model._discrete_distribution.branches.1.bias f4 [3]
0.0 0.0 0.0
00000000: 0000 0000 0000 0000 0000 0000

action_model._discrete_distribution.branches.2.weight f4 [2, 128]
0.0033020587 0.004456432 0.0041762674 -0.0059045414 0.001202213 -0.0002186345 -0.011033683 -0.0010407071
0.0029708277 -0.005829762 -0.0026017437 0.004633239 0.001622574 -0.0074301683 -0.0019103464 -0.0063294405
0.016782483 0.0055206106 0.009408156 0.0015178731 0.007140556 -0.0023410108 0.0035812445 -0.011133507
-0.012026294 0.0077654584 -0.01158391 0.006759323 -0.0064850016 0.0029056806 0.009190705 -0.000980905
-0.009599663 -0.0076324344 0.0043678787 -0.004013713 -0.0033512793 -0.0040017464 -0.007899662 -0.00197218
0.0015058081 0.0089395 -0.0002096165 0.0004406041 -0.00029866895 0.00074427563 -0.006111705 0.0011344962
0.008638834 -0.015709534 0.0015197413 -0.00069661846 0.01272828 0.011143873 -0.008548678 -0.004933226
0.01417398 -0.0030029665 0.0030075542 0.009864376 0.00011471494 0.006949132 0.00036231484 -0.0019485366
-0.0017196825 0.0031093264 0.007884188 -0.011283938 -0.0009910585 -0.009012786 0.0017215787 0.007663056
-0.0011732412 0.0053654253 -0.003719002 0.00948704 0.011886937 -0.009773101 0.010983841 0.0030735421
0.0041018585 0.006211612 0.02862829 -0.0061390433 -0.0058743265 0.00039371327 0.017501576 0.0068187774
-0.00047444226 0.009855145 0.0026455584 0.0071276794 0.0043096617 -0.0007401574 0.007360128 0.022010045
-0.011646765 -0.006947623 -0.0060747564 0.006902111 0.0209528 0.0143841375 -0.0032693483 -0.016672177
0.017984502 0.011986006 0.0052396017 0.0007689604 0.0053949873 -0.0018221209 -0.009581853 -0.005779397
0.0057191695 0.009013965 -0.0019345327 -0.010705583 -0.008098419 0.00031903357 0.0090709245 0.013359721
-0.008674201 -0.011615549 0.0042141075 0.0054590064 -0.0027087878 0.00757225 -0.0039022192 -0.01087619
0.0042615156 -0.003078405 0.008043871 0.0062229424 -0.0114017045 0.00195506 0.0012592732 0.011639069
0.013364007 -0.0046317284 -0.017309163 -0.005416594 -0.014796368 -0.015064574 -0.011507331 -0.004152932
-0.0069652298 0.002180898 0.010073955 -0.011078595 -0.013259234 -0.0063355165 0.01142446 -0.0050982395
-0.002334154 -0.006171863 0.008390909 0.0017799143 -0.0038624841 0.029204581 -0.0020746419 0.008493817
-0.0070514227 0.0079271225 -0.0020598725 -0.0027705648 -0.0024630649 0.022840058 0.0010290584 0.0010624243
0.015411312 0.0093977405 -0.0006963677 0.009853684 -0.003973148 -0.004775925 -0.00021375545 0.0064418293
-0.010587045 -0.007901279 -0.01576369 0.0136786625 -0.009170341 0.004186887 -0.008092007 -0.014404696
0.009335271 -0.0017164946 0.012010398 0.0006324348 0.015827024 0.012379253 0.003316264 0.0054300795
-0.0048374967 0.009309184 0.0024352644 0.007309915 0.007429755 -0.0054097204 0.013168196 -0.011408052
-0.0069976957 -0.0041165403 0.0067493557 0.0044900393 0.0031381838 0.0030634298 -0.004735325 -0.00026621556
-0.011077039 -0.0014901344 -0.0015627986 0.021315118 0.0032738273 -0.006078136 -0.01784142 -0.0044847713
-0.000771804 -0.0075080185 -0.004594011 0.013843003 3.5329427e-05 -0.010054908 0.006527172 0.0034338215
-0.009108143 -0.0061833467 0.015215218 0.0029733405 -0.0023909758 -0.00016418142 -0.017592331 -0.008570466
-0.011381606 -0.00073113304 0.016117258 0.0043217395 -0.005553022 0.004313382 0.008620988 0.005613528
0.00031513863 0.00092702126 -0.0077539883 0.00092306937 -0.017432613 -0.0013914293 0.0063048163 -0.004723203
-0.01965759 -0.011180154 -0.017394897 0.0009098776 0.004599215 0.010923955 -0.0115845045 0.0010801064
00000000: 5a67 583b 4307 923b 12d9 883b e27a c1bb
00000010: 9393 9d3a 4041 65b9 9fc6 34bc 5668 88ba
00000020: 38b2 423b 9707 bfbb 0482 2abb 6dd2 973b
00000030: 8dac d43a c578 f3bb 9764 faba 3267 cfbb
00000040: 6b7b 893c 3de6 b43b ab24 1a3c 5ff3 c63a
00000050: 53fb e93b a56b 19bb 50b3 6a3b 5069 36bc
00000060: ef09 45bc 6375 fe3b 71ca 3dbc 507d dd3b
00000070: 2380 d4bb 3b6d 3e3b 9c94 163c b691 80ba
00000080: e847 1dbc 8019 fabb 6c20 8f3b 7785 83bb
00000090: 23a1 5bbb 1521 83bb 956d 01bc b13f 01bb
000000a0: 895e c53a fb76 123c 80cc 5bb9 e200 e739
000000b0: ab96 9cb9 7e1b 433a b344 c8bb 60b3 943a
000000c0: e589 0d3c 48b1 80bc 0e32 c73a 469d 36ba
000000d0: 478a 503c cb94 363c c10f 0cbc e6a6 a1bb
000000e0: fb39 683c 6bcd 44bb 631a 453b 319e 213c
000000f0: 1d93 f038 8bb5 e33b 13f5 bd39 0a66 ffba
00000100: f866 e1ba d7c5 4b3b ae2c 013c 44e0 38bc
00000110: 68e6 81ba 5daa 13bc 98a6 e13a 5f1a fb3b
00000120: 71c7 99ba 73d0 af3b 80ba 73bb 886f 1b3c
00000130: 6dc1 423c 5b1f 20bc 91f5 333c 7b6d 493b
00000140: e268 863b c78a cb3b e085 ea3c 072a c9bb
00000150: 6c7d c0bb 4d6b ce39 775f 8f3c 0d70 df3b
00000160: 90be f8b9 7977 213c 1b61 2d3b 4f8f e93b
00000170: 1038 8d3b 1f07 42ba 3b2d f13b 694e b43c
00000180: 13d2 3ebc e3a8 e3bb c00e c7bb 1b2b e23b
00000190: 35a5 ab3c 72ab 6b3c 9042 56bb 1794 88bc
000001a0: 3c54 933c f460 443c f7b0 ab3b 0f94 493a
000001b0: 6fc8 b03b 3bd4 eeba 34fd 1cbc 1961 bdbb
000001c0: df67 bb3b 4faf 133c 2590 fdba 7866 2fbc
000001d0: 3baf 04bc f643 a739 379e 143c bbe2 5a3c
000001e0: 3c1e 0ebc 254f 3ebc 7f16 8a3b 77e1 b23b
000001f0: eb85 31bb a320 f83b 60bc 7fbb 0c32 32bc
00000200: 2fa4 8b3b 11bf 49bb 71ca 033c d3e9 cb3b
00000210: 37ce 3abc 7720 003b 320e a53a cbb1 3e3c
00000220: b5f4 5a3c c1c5 97bb f2cb 8dbc af7d b1bb
00000230: 776c 72bc 67d1 76bc 3f89 3cbc 5215 88bb
00000240: 953c e4bb 66ed 0e3b 3b0d 253c ff82 35bc
00000250: 423d 59bc 2a9a cfbb a92d 3b3c 220f a7bb
00000260: 9bf8 18bb 573d cabb 067a 093c 034c e93a
00000270: bb21 7dbb 723e ef3c b7f6 07bb a729 0b3c
00000280: 9f0f e7bb c3e0 013c edfe 06bb 5d92 35bb
00000290: 5f6b 21bb 131b bb3c 78e1 863a 0b41 8b3a
000002a0: ba7f 7c3c fbf8 193c 728c 36ba 5971 213c
000002b0: 2e31 82bb 5d7f 9cbb 8b23 60b9 fb15 d33b
000002c0: 4975 2dbc 5e74 01bc db22 81bc 781c 603c
000002d0: 333f 16bc 2732 893b 5694 04bc ad01 6cbc
000002e0: f7f2 183c 00fc e0ba 43c7 443c fbc9 253a
000002f0: ada7 813c 5ad2 4a3c ad55 593b cfee b13b
00000300: dd83 9ebb 8c85 183c f598 1f3b 0388 ef3b
00000310: 4d75 f33b 0644 b1bb 6bbf 573c d7e8 3abc
00000320: ed4c e5bb 0be4 86bb b329 dd3b 2e21 933b
00000330: fda9 4d3b d3c3 483b c92a 9bbb d992 8bb9
00000340: 787c 35bc 9d50 c3ba d2d6 ccba 0b9d ae3c
00000350: b58d 563b 1a2b c7bb 2b28 92bc fdf4 92bb
00000360: e452 4aba d305 f6bb 5c89 96bb c3cd 623c
00000370: af2e 1438 57bd 24bc e3e1 d53b f709 613b
00000380: 523a 15bc ac9d cabb 4049 793c 60dc 423b
00000390: ebb1 1cbb 1d28 2cb9 cb1d 90bc 246b 0cbc
000003a0: ea79 3abc 82a9 3fba 5708 843c 619d 8d3b
000003b0: 20f6 b5bb 4557 8d3b 0b3f 0d3c b0f1 b73b
000003c0: 3139 a539 5803 733a 2b15 febb 23fa 713a
000003d0: d7ce 8ebc 9f60 b6ba a298 ce3b 19c5 9abb
000003e0: f408 a1bc f72c 37bc be7f 8ebc da84 6e3a
000003f0: 03b5 963b 63fa 323c efcc 3dbc 5b92 8d3a
