src/CyberHero/Assets/RL/AgentNeuralNetwork/OLD/GroundDroneAgent 1.onnx (onnx, 77198 bytes, 5 tensors)

network_body._body_endoder.seq_layers.0.weight f4 [128, 9]
00000000: b4db 0ebe 2be4 49bf fe85 0d3e 9c43 ac3e
00000010: a8ba a53d fa9e babe e49a 94bc 3063 c2bd
00000020: eae2 9e3d cc1c a1be 6642 ad3d 96a8 b13d
00000030: e009 37bf 6a68 bdbd 1ae2 7c3e 3616 10bf
00000040: 3ad3 263e d204 90be 27d7 77be 8e3c 563e
00000050: f4d5 ebbd a47a 963e 84d4 413e 2266 f23e
00000060: 8a51 8dbe fae5 a4bd 40dc cb3e f857 a93e
00000070: 6213 94be b430 c1bc 7a52 473e f8ea bebd
00000080: 6a00 4ebe c6b4 843e d3cf 133e 9262 2ebd
00000090: 2bee 41be 32bd 80be fd6a a0bc 5c82 5ebf
000000a0: fccc 23bf 4746 95bd b81a 42be bc43 ab3e
000000b0: bf93 113f 3862 0aba 2589 293f 2620 d6be
000000c0: e42f 30bf 0b85 d3bd 8bb3 163f 60ad 743d
000000d0: ace9 f13e cb53 5fbd 4065 cd3e fba6 92bd
000000e0: 9e9b ec3d 0099 113e f3f5 cf3e a833 50be
000000f0: 98cf 8f3e ea84 973e c03c b83e df51 32be
00000100: 8829 0d3f 20e1 363e 9a7a 84be 6ad0 a1be
00000110: 4281 a4be d83b 6a3f 2a40 803e 5f6c 49be
00000120: 12cc ddbd cba8 9ebe 8227 1f3d cadf 68be
00000130: a64a 553d 1c81 383e 6bcb 0fbe 765a 94bd
00000140: 1f75 d4be 5398 cabe 1b6f 173f ac15 c4bb
00000150: 9f92 4dbe f8bc b83e fc50 eebe 7e7f c83c
00000160: 481e ba3e fad9 f8be 464a 0c3d 73cd d33d
00000170: 2399 c13c 6048 a33e b417 f9be 765e 59be
00000180: 57e6 183f b86b 2a3d e1e7 8d3e 7e51 ffbd
00000190: e772 b13d bca2 a93e baa2 843e 2444 d53e
000001a0: d09f 1dbd 00bd c33e ee0b eb3e 90bb 3abd
000001b0: e4cb 7dbe a01b 473e 0bcb f73d c076 bdbd
000001c0: 0e43 5b3e 58f5 f73e b7d2 58bd 586f ef3d
000001d0: 27fc d43e 08df 09bf 0425 193f afd8 4c3e
000001e0: a022 a93e 3bde b3bd 34e3 f0be b6de af3e
000001f0: 068c e33e ebdb 44bf 1315 a2be eac7 6c3e
00000200: 64d5 c63e 8bdc cd3d a494 773e bd64 993d
00000210: 23e1 7bbe 102b 2abe 5337 cbbe 5042 db3d
00000220: b0e6 04bd acc3 2bbe 0e78 99bd 643f 08bf
00000230: 4f6e dbbd 9b57 09bd b48d bd3e 70a4 dabd
00000240: 5892 96bd 907b 763f 0b77 2d3c 2827 11bf
00000250: 6724 b1bd 3baf 8fbe 344d 15bb efa0 2cbd
00000260: efc6 aa3e c6d3 95be 86be 9c3e 43ad 3bbe
00000270: 9e3c 883c 7e66 7e3e 8272 b53e 0a22 293e
00000280: 73d1 703e 2c2c dbbc 060e 27bf 08a1 c2be
00000290: 6c63 abbe ca40 863e a647 9d3e 8ea6 05bf
000002a0: c30f f2bd d491 9ebe 1e27 123b 07a8 ffbd
000002b0: f6a9 283f 95f4 203e 0cf7 353f c612 25be
000002c0: 649f 22bd 0d83 aabd 7ec0 ab3e eaf3 703e
000002d0: 954d a6be 9383 d3be 50bb a7bd 8838 25be
000002e0: ccd2 80be dad3 353f a0eb e93e 7ec5 90be
000002f0: 6f3a 913e 7cc4 ba3e 23d6 9b3d e8fb 00bd
00000300: 17f2 e03e ff9d 4dbe 4ea9 633e ec68 acbe
00000310: 46f4 f0bd a813 51bd ee2a 9c3e ff77 e0be
00000320: f830 81bd ef9a 0f3f 9f35 c0be 463e 4d3e
00000330: ef02 ad3e 1675 e3be b6be ec3e 5080 f93e
00000340: 73b0 b6bc f62e 263e 0329 ebbe 0793 30be
00000350: 7e80 1d3e 6a96 3b3e 5494 08bd b4dd 073e
00000360: 1b12 d93d 9bec 163f b02d 8e3e e4d7 4a3d
00000370: ae9f b33d 207a debe d7a5 4d3e 4bfb 15bd
00000380: 48a8 283e 4693 70be 2629 d0bd 9c6d c6bd
00000390: b8b7 b03e da4e fb3e ffe7 b7be 4204 7e3d
000003a0: 164a fb3d 741c 29bf b9e5 113f 5386 55bf
000003b0: 08be 31be 3863 cfbe a42f e93d 0202 573e
000003c0: 5058 35bd 4456 2bbd 0427 b5be 1a6c 19be
000003d0: 78a5 d83e b314 32be 22ef 4e3e 4a39 efbe
000003e0: 2f72 f5be 8e4b b8bd 0023 9fbd fe47 edbc
000003f0: 4650 893e 8241 cc3e ce14 e4bc 483b b73c
-0.13950998 -0.7886378 0.13820645 0.33645332 0.080922425 -0.36449414 -0.018140264 -0.09491575
0.07758124 -0.31467283 0.0845993 0.08674733 -0.71499443 -0.09248431 0.24695626 -0.5628389
0.16291514 -0.28128678 -0.24203168 0.20921537 -0.11515418 0.29390442 0.18928725 0.47343546
-0.27601272 -0.08051677 0.39816475 0.33074927 -0.28921038 -0.023582794 0.19465056 -0.093221605
-0.20117345 0.2591917 0.14434747 -0.042574473 -0.1893851 -0.25144345 -0.019582266 -0.8691766
-0.63984656 -0.07288795 -0.18955505 0.33450115 0.5686607 -0.0005278918 0.6622489 -0.41821402
-0.68823075 -0.1032811 0.5886771 0.059735656 0.4724859 -0.05452327 0.4011631 -0.07160755
0.11553119 0.14218521 0.40617332 -0.20332205 0.2808807 0.29593593 0.3598385 -0.17414044
0.55141497 0.17859316 -0.25874788 -0.3160432 -0.32129866 0.91497564 0.25048953 -0.19670247
-0.10829939 -0.30988154 0.038856037 -0.22741619 0.052073143 0.18018001 -0.14042442 -0.072438166
-0.41495606 -0.3956934 0.5915391 -0.005984029 -0.20075463 0.36081672 -0.4654616 0.024474856
0.36351228 -0.48603803 0.03425052 0.10341921 0.023632592 0.31891155 -0.48650897 -0.2122744
0.5972647 0.041606635 0.27715972 -0.12466715 0.08664494 0.3313197 0.259054 0.4165355
-0.038482487 0.38230133 0.4590754 -0.04558903 -0.2478481 0.19444132 0.12099274 -0.092511654
0.21412298 0.4842937 -0.05293533 0.11691159 0.41598627 -0.53855944 0.59822106 0.20004533
0.3303423 -0.087826215 -0.47048342 0.34349602 0.44442767 -0.7689807 -0.31656703 0.23123136
0.3883468 0.10051831 0.24177796 0.074899174 -0.24597602 -0.1661799 -0.39690647 0.107060075
-0.032446563 -0.16773862 -0.07493602 -0.53221726 -0.10714399 -0.033530813 0.37022173 -0.10675895
-0.073521316 0.9628229 0.010587464 -0.5670037 -0.08649521 -0.28063378 -0.0022781612 -0.042145666
0.333549 -0.29263133 0.30614108 -0.18327813 0.016630467 0.24843785 0.35438925 0.16516891
0.23517399 -0.026754461 -0.65255773 -0.38013482 -0.3347429 0.26221305 0.30718726 -0.5220727
-0.118194126 -0.30970633 0.0022301148 -0.124832205 0.6588434 0.157183 0.7108009 -0.16120443
-0.039702788 -0.08325777 0.33545297 0.23530546 -0.32481065 -0.4131132 -0.08190024 -0.16134846
-0.25160825 0.71026385 0.4568758 -0.28275675 0.28364894 0.3647803 0.07609203 -0.031490237
0.439347 -0.20079802 0.22232553 -0.336738 -0.117653415 -0.051044136 0.30501503 -0.4384155
-0.06308168 0.56095785 -0.3754091 0.20043287 0.337913 -0.44425267 0.4623925 0.48730707
-0.022300934 0.16228852 -0.45929727 -0.17243586 0.15381047 0.18319097 -0.03334458 0.13268167
0.105991565 0.5895478 0.27769232 0.049522296 0.08770691 -0.4345255 0.20082794 -0.036616605
0.16470444 -0.2349368 -0.101640984 -0.09688875 0.34515166 0.49083596 -0.35919186 0.06201578
0.1226999 -0.6605904 0.56991154 -0.8340809 -0.17357647 -0.40505385 0.1138604 0.2099686
-0.044273674 -0.041830316 -0.3538133 -0.14982644 0.42313743 -0.17390709 0.2020841 -0.46723396
-0.47938678 -0.08998786 -0.077703476 -0.028964993 0.26819056 0.39893728 -0.027841952 0.022367135

network_body._body_endoder.seq_layers.0.bias f4 [128]
00000000: 0000 0000 0000 0000 0000 0000 0000 0000
00000010: 0000 0000 0000 0000 0000 0000 0000 0000
00000020: 0000 0000 0000 0000 0000 0000 0000 0000
00000030: 0000 0000 0000 0000 0000 0000 0000 0000
00000040: 0000 0000 0000 0000 0000 0000 0000 0000
00000050: 0000 0000 0000 0000 0000 0000 0000 0000
00000060: 0000 0000 0000 0000 0000 0000 0000 0000
00000070: 0000 0000 0000 0000 0000 0000 0000 0000
00000080: 0000 0000 0000 0000 0000 0000 0000 0000
00000090: 0000 0000 0000 0000 0000 0000 0000 0000
000000a0: 0000 0000 0000 0000 0000 0000 0000 0000
000000b0: 0000 0000 0000 0000 0000 0000 0000 0000
000000c0: 0000 0000 0000 0000 0000 0000 0000 0000
000000d0: 0000 0000 0000 0000 0000 0000 0000 0000
000000e0: 0000 0000 0000 0000 0000 0000 0000 0000
000000f0: 0000 0000 0000 0000 0000 0000 0000 0000
00000100: 0000 0000 0000 0000 0000 0000 0000 0000
00000110: 0000 0000 0000 0000 0000 0000 0000 0000
00000120: 0000 0000 0000 0000 0000 0000 0000 0000
00000130: 0000 0000 0000 0000 0000 0000 0000 0000
00000140: 0000 0000 0000 0000 0000 0000 0000 0000
00000150: 0000 0000 0000 0000 0000 0000 0000 0000
00000160: 0000 0000 0000 0000 0000 0000 0000 0000
00000170: 0000 0000 0000 0000 0000 0000 0000 0000
00000180: 0000 0000 0000 0000 0000 0000 0000 0000
00000190: 0000 0000 0000 0000 0000 0000 0000 0000
000001a0: 0000 0000 0000 0000 0000 0000 0000 0000
000001b0: 0000 0000 0000 0000 0000 0000 0000 0000
000001c0: 0000 0000 0000 0000 0000 0000 0000 0000
000001d0: 0000 0000 0000 0000 0000 0000 0000 0000
000001e0: 0000 0000 0000 0000 0000 0000 0000 0000
000001f0: 0000 0000 0000 0000 0000 0000 0000 0000
0.0 0.0 0.0 0.0 0.0 0.0 0.0 0.0
0.0 0.0 0.0 0.0 0.0 0.0 0.0 0.0
0.0 0.0 0.0 0.0 0.0 0.0 0.0 0.0
0.0 0.0 0.0 0.0 0.0 0.0 0.0 0.0
0.0 0.0 0.0 0.0 0.0 0.0 0.0 0.0
0.0 0.0 0.0 0.0 0.0 0.0 0.0 0.0
0.0 0.0 0.0 0.0 0.0 0.0 0.0 0.0
0.0 0.0 0.0 0.0 0.0 0.0 0.0 0.0
0.0 0.0 0.0 0.0 0.0 0.0 0.0 0.0
0.0 0.0 0.0 0.0 0.0 0.0 0.0 0.0
0.0 0.0 0.0 0.0 0.0 0.0 0.0 0.0
0.0 0.0 0.0 0.0 0.0 0.0 0.0 0.0
0.0 0.0 0.0 0.0 0.0 0.0 0.0 0.0
0.0 0.0 0.0 0.0 0.0 0.0 0.0 0.0
0.0 0.0 0.0 0.0 0.0 0.0 0.0 0.0
0.0 0.0 0.0 0.0 0.0 0.0 0.0 0.0

network_body._body_endoder.seq_layers.2.weight f4 [128, 128]
00000000: 5932 f43c b3c5 63bd cb38 803d a685 0abd
00000010: 62f0 a8bc ad58 b3bc 0028 333c 0a9a f83d
00000020: fe41 dc3b f566 ba3c 9954 1dbc 983c b6bd
00000030: 2200 ef3c d51c 9dbd 59bb 0c3c 3c13 f4ba
00000040: e2d2 603d 736a b83d 3f57 fbbd e553 3cbd
00000050: fabc 1fbd fb0f 03be 3a2b f33c 2b10 053d
00000060: 49fe 13be 1fe8 3e3c f1b8 b6bc 715b 123d
00000070: 2d10 8ebd e29c ea3c ba2f 7bbd 9fe4 5bbd
00000080: 66e9 2fbe 106b 133d 9df3 2b3e 2795 5bbd
00000090: a8c8 1bbc 35bc 153d 85bb 473d 06e0 553e
000000a0: 5649 eb3c 1574 0c3e 61bc 853d 7519 bc3d
000000b0: c498 033d 1111 d03d 750d 9abc adc5 61bd
000000c0: 29fd 2ebd cea6 26bd 8f95 be3d e5d1 4b3d
000000d0: 1a85 1d3d 66ea a93d 5424 1f3d 8b22 1a3d
000000e0: f837 033e 238d 3ebe ae4b c5bd 622b aabd
000000f0: 14a6 3abd 22d0 0dbd c799 2b3e 1106 e3bd
00000100: d9f1 1fbd cfb2 a0bd a73e d33d 3a74 283b
00000110: bde7 acbc cf4e 893d 82bf a8bd 9198 11bd
00000120: 7239 40bb aa2b 07be c9a4 85bd 95d1 883d
00000130: 819c 84bc 7a4a 69ba 051e 83bd 5670 f5bb
00000140: af8d 3cbe b132 3cbe 27bf 18be 22c9 e23c
00000150: f2ec de3b b11d 2dbd bbd6 97bb 0f5e 7fbe
00000160: 9683 ffbc 7508 dc3c 4ba0 df3c c2a1 d43d
00000170: c85a f8bd da04 ac3d dd5f 25be ea7f dc3d
00000180: dc34 16bd 21f7 e43b 8e10 2d3d dc25 213e
00000190: 9613 e3bd d309 4e3d 03e7 fc3b c038 2dbd
000001a0: 60b7 9ebd a345 8d3c 7e5d adbb 7eef dbbd
000001b0: 5ab6 d53c d0ab 2cbe 43ff 3c3d 9c15 f23c
000001c0: 271d 313d a7c7 393e 50c9 14bd 6715 363e
000001d0: 3bc7 08be 19d8 c33c 7553 e43d 40ba a33d
000001e0: d89f c53d effe 363d 6fc1 42b9 f8cf a3bb
000001f0: 980e 043d d08b dabb 4a55 02be 0b2f efbd
00000200: f891 733e 153c 01bd 1791 8e3d 78a0 a4bd
00000210: 1be9 553d 4064 a53c 3e14 bf3d ea82 22bd
00000220: 8ed1 10be 63ad 643c 955e 98bc 8921 823d
00000230: e5a0 64bb 81d6 aebc af92 423d d03e a4bd
00000240: c978 243d d567 55bd 1ff0 b43b 38da 94bd
00000250: ae5d ecbd fddc 17be 034a bd3c cdef d53b
00000260: 1c39 603c df3d 833d 8806 063d a65c b43d
00000270: 580c 043e 5f47 13bd 3ef6 b03d 0174 b5bd
00000280: ee29 fc3b 0e90 ecbc a526 b43d 3729 c43d
00000290: 4741 b2bc 3edd cf3d 3e9a 6d3c 99a3 373d
000002a0: e8a7 b6bd 3044 fe3c 385f 413d 9466 0abe
000002b0: 51d3 893d 6189 073e b857 1b3e 75cb 343d
000002c0: 43c3 b23c d014 8e3d 99fa 063e 0ca0 9e3d
000002d0: f266 21bd f87c 90bd 7908 88bc 627d 0f3e
000002e0: b735 b4bd 0ae0 433e fac0 c73d 4fdf 3bbd
000002f0: c6f3 acbd 0467 9a3c 7e30 81bd f1da 44bd
00000300: b72d 54bd 81ea 06bd 5752 603d 6f97 513c
00000310: 03b2 13bc 416d 3abd 2c0e 513c 4c63 f03d
00000320: 2a95 823d 9b52 9cbd ec20 b0bd 03c6 8a3d
00000330: 6c8a e5bc 8905 ccbd 400a 913c 51da 9f3d
00000340: f781 69bd 16c2 9d3d 9488 513d e5c7 d8bc
00000350: 343d f13c 01b1 21be 69a9 8abd 727d 8fbd
00000360: 4477 57bc 5c08 923d 7c3f 2f3e 31d0 40bd
00000370: 2e17 02be c050 d8bd 858d 2cbe a481 d5bd
00000380: c2ad eabd 619b 2d3e d087 84bd 7acf 09bd
00000390: 1163 903d a069 9f3d 0aa2 e9bd f2b3 ea3b
000003a0: 92b9 f23b 5760 c23d 8b77 13bd 288b ac39
000003b0: 729c 82be 6c91 2b3d d829 d3bd 8d61 51bd
000003c0: 6598 38bd 3cb9 37bb 51ea f23d f3c6 673d
000003d0: 7d1d f13d b4e8 e0bb edd5 c7bd 2657 48bd
000003e0: 5085 aa3d 4b25 a33d 6268 373d 3233 fc3d
000003f0: fc25 a73d 23c0 11be ff4a d73c 96a5 df3b
0.029809164 -0.055608463 0.062608324 -0.033818863 -0.020622436 -0.02189287 0.01093483 0.121387556
0.006721734 0.022754172 -0.009602689 -0.08898276 0.029174868 -0.07671515 0.008589589 -0.0018621455
0.054888614 0.090046786 -0.122725 -0.045978446 -0.03899858 -0.12799065 0.029683698 0.032486122
-0.14452471 0.011652022 -0.022304984 0.035731737 -0.06936679 0.02863926 -0.061324812 -0.053684827
-0.17178878 0.035990775 0.1679215 -0.05360904 -0.009508289 0.03655644 0.048762817 0.2088624
0.028721493 0.13716157 0.06530071 0.09184543 0.03212811 0.10159505 -0.018805245 -0.05512016
-0.0427219 -0.04068642 0.0930587 0.049760718 0.038457014 0.08296661 0.038853005 0.0376306
0.12814319 -0.18608527 -0.096335754 -0.08309056 -0.04556854 -0.03462232 0.1675788 -0.110851415
-0.039049003 -0.07846605 0.10314684 0.0025704042 -0.021106595 0.06704485 -0.08239652 -0.03554589
-0.0029331115 -0.1320025 -0.06525571 0.066805996 -0.016187908 -0.00088993425 -0.0640221 -0.007490198
-0.18413423 -0.18378712 -0.14916669 0.027683798 0.0068031484 -0.042264644 -0.004633752 -0.24938224
-0.031190675 0.026859501 0.027298113 0.10382415 -0.1212669 0.08399363 -0.1614985 0.10766585
-0.036671504 0.006987468 0.042252116 0.15737098 -0.1108772 0.050302338 0.0077179684 -0.04229045
-0.0774982 0.01724512 -0.005290686 -0.10739039 0.026087929 -0.16862416 0.046141874 0.02955132
0.043240692 0.18142568 -0.0363248 0.17781602 -0.1335725 0.023906754 0.11148731 0.07994509
0.096496284 0.044676717 -0.00018573341 -0.004999157 0.03224048 -0.006669499 -0.12727848 -0.116788946
0.23786151 -0.03155144 0.069612674 -0.080384195 0.05222426 0.020189404 0.09330033 -0.03967563
-0.14142439 0.013957354 -0.018599788 0.063540526 -0.003488594 -0.021342518 0.04750317 -0.08019793
0.040154252 -0.052100975 0.0055217887 -0.072681844 -0.115413055 -0.14830394 0.02310658 0.0065288306
0.013685491 0.06408285 0.032721072 0.08806734 0.12895334 -0.035956737 0.08640717 -0.088600166
0.007695428 -0.028877284 0.08796433 0.095781736 -0.021759642 0.101496205 0.014502106 0.044833753
-0.08918744 0.031038374 0.04720995 -0.13515693 0.067297585 0.13236 0.15170181 0.044139344
0.021821624 0.069375634 0.13181533 0.0774537 -0.039404817 -0.07055086 -0.016605603 0.14012673
-0.08799308 0.19128433 0.09753604 -0.04586726 -0.084449336 0.01884795 -0.06308077 -0.04806036
-0.05180141 -0.032938484 0.054766025 0.012792452 -0.009014609 -0.04551435 0.0127597265 0.117376894
0.06376107 -0.07632943 -0.08600029 0.06776049 -0.028020106 -0.09961993 0.017705083 0.078053124
-0.05700871 0.077030346 0.05115564 -0.026462505 0.02944813 -0.15790178 -0.06770594 -0.07006349
-0.013150994 0.07130501 0.17114061 -0.047073547 -0.12704155 -0.10562277 -0.1685086 -0.104251176
-0.11458923 0.16953804 -0.06471217 -0.03364513 0.070501454 0.07783818 -0.114078596 0.0071625644
0.0074073756 0.094910316 -0.036002677 0.00032910076 -0.25509983 0.041886732 -0.103107154 -0.051118422
-0.04506721 -0.0028033992 0.118610986 0.056586217 0.117732026 -0.006863678 -0.097576 -0.048911236
0.083262086 0.079660974 0.04477728 0.12314452 0.08161542 -0.1423345 0.026280878 0.0068251593

action_model._discrete_distribution.branches.0.weight f4 [3, 128]
00000000: 7c91 a4bb cdcd e7b9 62f7 21bb a5d0 153c
00000010: 2f33 2f3a 9dbc 183c 1341 b73c 7a86 273b
00000020: 5d2e 6cbb f329 403b ba08 843a a000 603b
00000030: 2856 8fbb c72a 86b9 3739 883a 7258 dc3b
00000040: ee04 453b be42 c73a b083 d5bb 9fa9 a1bc
00000050: 7cf5 44bc d228 82ba a47e 0bbc 5ff0 e3bb
00000060: 937a c8bc 0890 5c3b 4007 47bb 57a1 783b
00000070: dd31 e93b bafc 9a3b 80c1 55bc 52c7 63bc
00000080: 72b5 3b3c 5a3c 7c3c fef0 9aba 6636 33ba
00000090: 5a3b f2bb f78c 903b 6bf2 ad3b 8a34 b1ba
000000a0: 9656 8c3b 3e7c 06bb af7c b63b 2934 21bc
000000b0: ddb8 4d3b f568 ffbb d818 383c 8274 b6bb
000000c0: 5b0e a13a 7c90 a3bc 8b5c 34bb e370 f7bb
000000d0: 5756 123c a737 42ba f865 64ba 67f8 47bc
000000e0: 87aa 133c 9b9d 8d3b c9ac a63b dc79 163c
000000f0: db7a a93b d6b3 c43b b318 833c eeb9 34bc
00000100: d348 113a 4cc9 433b fb78 263c 5b5a a83c
00000110: 757e 7439 d1b5 203a f92a 0dbc 4e6c 2fbc
00000120: 8bcd 6eba e41d 2c3c 3de5 83ba da5d ff3a
00000130: c91a ac3c 93e3 453a 3ff9 f6bb 03fb fbbb
00000140: 60f8 8f3b ff3e 8e3a 5d78 bb3b 0b85 b93b
00000150: 9f21 84ba 50fc 82bb 92ce bfbb 58bd 1bbc
00000160: 47bc b2ba 3f30 19bc c25d a23a bd72 ebbb
00000170: 1868 59ba c9c7 803c e1e0 03bc bdd3 2f3c
00000180: ab28 13bc 00d3 503b 6b54 5f3c b5ee 40ba
00000190: 7b72 0ebc 4e13 953b eb76 6b3b 65e8 ab3a
000001a0: 07b2 e939 874e 87bc 6b10 503c 1bd8 d53b
000001b0: af7a 783b 5981 11bc 3bc1 d5bb 3a99 d33c
000001c0: 13d9 26bc 88f1 07bb 8558 6e3b c573 ef3a
000001d0: b8b0 95bb 45f9 01bb c59b d63b c442 423b
000001e0: 89aa 96ba f084 11bb 2ad1 c3bb 3787 bd39
000001f0: 1368 c0bc d57a a6ba bc95 c33c 8bbf 993c
00000200: 431b 3fbc 1d0d a4ba dff2 c13a 5d28 293b
00000210: b188 b33c c318 523b e775 e6bb 3ddf 363c
00000220: 0482 22bb 7b90 07bc acd2 36bc 1b7b bebc
00000230: 58b8 0cbc 4bcc 823c 0271 193c a7aa 8bbc
00000240: 876c 503c 7e8b aebb e5ba 133b a6a7 aebb
00000250: da89 f5ba 37f7 f23b afa5 d3bb 0bfe 4ebc
00000260: fd74 343b af70 1b3a 3b5e 303c 7194 2a3c
00000270: 478c 373c 934f 133c a8d9 0cbc 02b3 4ebc
00000280: 438a 5cbc 2c7e 813b 94ce 243c a009 d53b
00000290: eb48 afbb e9cb 23bc 5f6a 1e3c fa87 4d3c
000002a0: 1c44 973b 13dd a8bc 0fa4 eeba 0ff6 b4bb
000002b0: 99e7 89bc 35f6 edbb 6f80 083a 5b43 24bc
000002c0: f387 fdbb bc88 c239 bdb5 7fbb b3ef 26ba
000002d0: e2a0 1c3b 0ec2 863c c8d8 ba3b 6ba9 e4bb
000002e0: 4f36 0bbc d0d0 9bbc 6414 9cba a1cf aa3b
000002f0: 3968 3cbc f8bb a83b 16c9 06bb fe74 ab3b
00000300: 3cbf 26bc 21aa 41bb 7094 1d3c ebb3 8c3c
00000310: 877d 743a 1fc8 9b3a 21b1 9339 baf9 1d3c
00000320: 4ddf cf3b 1345 503c f63a 10bc 93a4 c73b
00000330: d75a b03b 3f2b 1fbb 4f83 3fbb 73f8 dd39
00000340: 1ff7 eebb 8ee3 b639 2096 d0bb 870a 163c
00000350: 11fe 423a d41b 44bc 4d75 583c f53e 433a
00000360: a546 3eba b3dd 323b 502d 44bc 2798 42bc
00000370: 302c a6bc c270 193c e027 cd3a cd68 a1b9
00000380: bda9 c2bb bff7 14bc 7f49 d83a 5bc8 423c
00000390: 2ea1 00bc 78b4 5dbb c21d 033c dfb3 03bc
000003a0: a336 3839 8573 56bc 17d5 d3bb 4f23 a13b
000003b0: e812 83bb 42ce 41bc 9219 263b 9a42 19bc
000003c0: 1078 523c 57f3 34bc 1f32 adbb 8570 e2bb
000003d0: 75a2 86ba a724 8b3b a97c 243c f72e 5a3a
000003e0: 7379 193c b658 01bb 1224 a8bb dbb3 873b
000003f0: ef6e be3a 37ad fa3b 2264 ff3b 1ad1 debb
-0.005022226 -0.00044213087 -0.0024714102 0.009143983 0.0006683347 0.009322313 0.022369897 0.0025562332
-0.0036038377 0.0029321879 0.0010073401 0.003418006 -0.0043742843 -0.00025590343 0.0010393028 0.0067244107
0.0030062753 0.0015202386 -0.0065159425 -0.019734202 -0.012021419 -0.0009930378 -0.00851408 -0.0069561447
-0.02447251 0.0033655185 -0.0030369312 0.0037937963 0.00711654 0.0047298344 -0.013046622 -0.013902502
0.011456834 0.015395248 -0.0011821089 -0.0006836414 -0.007392329 0.0044113356 0.0053084395 -0.0013519686
0.004282783 -0.0020520831 0.0055690627 -0.009839096 0.0031390705 -0.0077944943 0.011236392 -0.005568088
0.0012287603 -0.019966356 -0.002752098 -0.007551299 0.008931718 -0.00074088055 -0.00087127043 -0.01220522
0.009012825 0.0043217666 0.0050865156 0.009184327 0.005172116 0.0060028834 0.016002988 -0.011030657
0.00055421627 0.002987462 0.01016068 0.020550897 0.00023316762 0.00061306084 -0.0086162025 -0.010706974
-0.0009109608 0.010505173 -0.0010062825 0.0019482926 0.021008866 0.0007548865 -0.0075370367 -0.007689835
0.0043936223 0.0010852515 0.0057211355 0.005661612 -0.0010080821 -0.003997363 -0.0058534825 -0.009505592
-0.0013636433 -0.009349882 0.0012387561 -0.0071853087 -0.0008293404 0.015720265 -0.008049221 0.010731635
-0.008981864 0.0031864047 0.013630967 -0.0007359789 -0.008694286 0.0045494204 0.0035929035 0.0013115524
0.00044573864 -0.016516937 0.012699227 0.006526006 0.0037914922 -0.008880937 -0.006523279 0.0258299
-0.01018359 -0.002074333 0.003636868 0.0018268755 -0.0045681857 -0.0019832414 0.006549331 0.0029641846
-0.0011494915 -0.002220448 -0.005975862 0.00036149632 -0.023487126 -0.0012701402 0.02387511 0.018768093
-0.011664215 -0.0012516115 0.0014797113 0.0025811412 0.021915765 0.0032058216 -0.007033098 0.011161623
-0.0024796734 -0.008274193 -0.0111586265 -0.02325206 -0.008588873 0.015966555 0.009365322 -0.017049147
0.012721187 -0.0053266874 0.0022541818 -0.005330044 -0.00187331 0.007414724 -0.00645896 -0.012633811
0.002753555 0.0005929572 0.010764654 0.010411368 0.011202878 0.00899114 -0.008596815 -0.012615921
-0.013460699 0.0039518084 0.010059018 0.0065013915 -0.0053492687 -0.009997346 0.0096689155 0.012544626
0.0046162736 -0.020613229 -0.0018206852 -0.0055224965 -0.016834067 -0.007262016 0.00052071264 -0.010025824
-0.0077371537 0.00037104439 -0.0039018237 -0.00063681154 0.0023899605 0.016449954 0.005702112 -0.006978204
-0.008496835 -0.019020468 -0.0011907932 0.0052127396 -0.011499458 0.0051493607 -0.0020566634 0.0052324524
-0.01017743 -0.0029550868 0.00961791 0.017175635 0.00093265664 0.0011885202 0.00028169996 0.009642059
0.006343758 0.012711781 -0.00880312 0.006092617 0.0053819227 -0.0024287251 -0.0029222553 0.00042337514
-0.0072926427 0.00034883287 -0.0063655525 0.009157783 0.00074383715 -0.011969525 0.01321156 0.0007448041
-0.00072584517 0.0027292788 -0.011973694 -0.011877096 -0.020284742 0.009365262 0.0015652142 -0.00030786396
-0.0059406445 -0.00909227 0.0016501396 0.011888589 -0.007850928 -0.0033829492 0.0080027 -0.00803849
0.00017567961 -0.013089065 -0.0064646113 0.004917539 -0.0040000565 -0.011828961 0.002534483 -0.009354258
0.012846008 -0.011044345 -0.005285516 -0.006910386 -0.0010271805 0.0042463127 0.010039487 0.00083230383
0.009367335 -0.0019736714 -0.005131253 0.0041413135 0.001452891 0.0076500433 0.007793919 -0.006799829

action_model._discrete_distribution.branches.0.bias f4 [3]
00000000: 0000 0000 0000 0000 0000 0000
0.0 0.0 0.0
