src/CyberHero/Assets/RL/AgentNeuralNetwork/OLD/GroundDroneAgent.onnx (onnx, 76174 bytes, 5 tensors)

network_body._body_endoder.seq_layers.0.weight f4 [128, 7]
-0.10973355 -0.5193318 0.045579184 -0.32809874 1.0427978 0.4528035 0.4939553 -0.39619836
0.38609236 0.20234662 0.7029838 -0.43822962 0.44224298 0.12789564 0.13065997 -0.23032935
-0.3643777 0.26171333 -0.27443293 -0.20148912 -0.0638814 -0.5167297 0.6337843 -0.23612013
0.0038584506 0.29031327 -0.22388545 -0.32098544 0.05443627 0.5666104 0.113434784 0.4642044
0.14593321 0.21160817 -0.05115677 0.0967546 -0.26190597 0.5389411 0.17945787 0.58415246
0.5726264 -0.46495804 0.1876598 0.095732234 -0.39273444 -0.33638895 -0.3931046 -0.3985556
-0.0037759165 0.40643466 0.070182316 -0.93089956 -0.06284743 -0.088709004 -0.55748075 0.6399334
-0.7131143 0.5595985 -0.19088688 -0.32952356 -0.5997516 0.6394765 -0.7390373 -0.27904704
0.5575964 -0.19287242 -0.24413255 0.06554911 -0.95779806 0.21770337 -0.3268971 0.066024385
0.0017177649 -0.06900783 0.27427045 -0.22796325 0.2632227 0.7978625 -0.14922902 -0.51486826
0.009867363 -0.17721124 0.4489792 -0.21510139 0.1917669 0.1159103 -0.6308846 -0.39828107
-0.59256953 -0.19327404 0.12784933 0.20736657 -0.40169948 0.2809655 -0.028300714 0.07107006
0.22344734 -0.08305663 0.09563187 -0.7460567 -0.35797507 -0.3545895 -0.28274664 -0.1607299
-0.27648473 0.12557743 0.23168565 -0.15213993 -0.051108137 -0.5268394 0.39693263 0.49304503
-0.083360426 0.6834362 -0.1346005 0.26292074 0.11563257 0.41330826 -0.18028378 -0.20844406
0.5238603 -0.13332532 0.08353707 -0.4174955 1.1208 0.05546806 0.1137962 -0.07121059
-0.577643 0.41037974 -0.26972762 0.6284877 0.46419197 -0.6324491 -0.25993478 0.37550047
0.20006473 0.020690987 1.0588841 0.54433906 0.35592002 0.05403451 0.26365694 -0.23282377
0.26000232 0.15879874 0.51921374 -0.4078224 0.2591821 -0.29107282 0.10634567 0.17002515
0.055353604 0.13822377 -0.49432093 0.020525983 0.32024205 -0.08607746 0.8184287 0.59886223
-0.20472316 -0.21329756 0.089053094 -0.055831276 -0.08585323 -0.73678684 -0.22447069 -0.80976695
-0.32687873 0.3026187 -0.034194775 0.08593573 0.2386249 0.07770827 -0.39419928 -0.024737637
0.17951241 -0.34811735 -0.44042736 -0.6998957 -0.13455166 -0.14551389 -0.46416563 0.07319589
-0.10822203 0.014512582 0.33654493 0.15294318 0.10705517 0.22532322 0.3356055 0.7235646
0.5526436 -0.51176465 -0.3336157 -0.09412731 -0.16064018 0.13661838 -0.4910214 0.52146494
-0.50732845 0.37037116 -0.1462789 0.0027121173 -0.52936614 0.2392978 -0.099917285 0.7138549
-0.25195217 0.3473472 0.5600514 -0.065943226 0.0056751934 0.6146304 0.05493856 0.05421739
-0.32763582 -0.17902958 -0.47768685 -0.11749102 0.12740791 -0.18475199 0.56077963 0.47395867
0.22292076 0.06743735 -0.34473896 -1.2016516 -0.025828367 -0.06410771 -0.40808558 -0.1561152
0.7318128 -0.47638634 -0.6765596 0.27985427 -0.076937206 0.5125397 0.31482 0.42053524
0.21572171 -0.41696012 0.08806088 0.20435934 0.16138205 -0.06606191 -0.20781183 0.2815353
-0.1785542 0.024440767 0.27310303 -0.42756525 0.04094641 0.35219994 0.9680306 0.7336867
00000000: fcbb e0bd eef2 04bf 3db1 3a3d 8ffc a7be
00000010: 667a 853f dcd5 e73e b6e7 fc3e 83da cabe
00000020: e6ad c53e f433 4f3e bff6 333f a25f e0be
00000030: ac6d e23e 13f7 023e bacb 053e 75db 6bbe
00000040: b78f babe 4aff 853e 7982 8cbe 2a53 4ebe
00000050: 40d4 82bd 6648 04bf b03f 223f 7ac9 71be
00000060: 0fde 7c3b f1a3 943e 3a42 65be 3458 a4be
00000070: 91f8 5e3d 610d 113f 7f50 e83d 33ac ed3e
00000080: 846f 153e d0af 583e c389 51bd 4727 c63d
00000090: 8a18 86be 0bf8 093f cec3 373e 048b 153f
000000a0: a597 123f fb0e eebe e429 403e 430f c43d
000000b0: 7d14 c9be 2c3b acbe 0245 c9be 7b0f ccbe
000000c0: 5e75 77bb 3418 d03e bfbb 8f3d 6f4f 6ebf
000000d0: 27b6 80bd 11ad b5bd 0fb7 0ebf add2 233f
000000e0: a98e 36bf d941 0f3f da77 43be 50b7 a8be
000000f0: 5289 19bf bbb4 233f 8c31 3dbf 41df 8ebe
00000100: a3be 0e3f 5980 45be e2fd 79be 9d3e 863d
00000110: 4132 75bf a2ed 5e3e 0f5f a7be cb37 873d
00000120: a026 e13a fa53 8dbd 2d6d 8c3e 336f 69be
00000130: 20c5 863e b840 4c3f 7ecf 18be 68ce 03bf
00000140: b8aa 213c dd76 35be 9ae0 e53e 8a43 5cbe
00000150: 8b5e 443e 6162 ed3d a781 21bf 7feb cbbe
00000160: a3b2 17bf a1e9 45be efea 023e e757 543e
00000170: 8eab cdbe b6da 8f3e e6d6 e7bc 2e8d 913d
00000180: 61cf 643e 9819 aabd a4da c33d 92fd 3ebf
00000190: 8248 b7be c18c b5be 2bc4 90be 6196 24be
000001a0: 688f 8dbe 5f97 003e 013f 6d3e 92ca 1bbe
000001b0: c456 51bd f2de 06bf c13a cb3e 6670 fc3e
000001c0: dfb8 aabd adf5 2e3f b7d4 09be 8c9d 863e
000001d0: c5d0 ec3d 249d d33e 509c 38be 5c72 55be
000001e0: b51b 063f 6f86 08be 7c15 ab3d f8c1 d5be
000001f0: 6076 8f3f 7a32 633d fb0d e93d dcd6 91bd
00000200: 69e0 13bf 4b1d d23e bd19 8abe 92e4 203f
00000210: 92aa ed3e 2fe8 21bf 2c16 85be 9941 c03e
00000220: c5dd 4c3e 2580 a93c 8489 873f ce59 0b3f
00000230: 263b b63e 4a53 5d3d 0bfe 863e 5b69 6ebe
00000240: 061f 853e 239c 223e 31eb 043f 19ce d0be
00000250: 84b3 843e 7f07 95be c2cb d93d 131b 2e3e
00000260: 76ba 623d 888a 0d3e a217 fdbe 1b26 a83c
00000270: c4f6 a33e 6149 b0bd 8b84 513f 094f 193f
00000280: f3a2 51be ad6a 5abe 7861 b63d 56af 64bd
00000290: d1d3 afbd 109e 3cbf a5db 65be e34c 4fbf
000002a0: a65c a7be d7f0 9a3e d20f 0cbd 12ff af3d
000002b0: 165a 743e 8325 9f3d 7dd4 c9be 96a6 cabc
000002c0: 1ad2 373e 703c b2be b27f e1be 5d2c 33bf
000002d0: e9c7 09be 9801 15be 1ea7 edbe bae7 953d
000002e0: 83a3 ddbd 2ec6 6d3c 9e4f ac3e 239d 1c3e
000002f0: be3f db3d 21bb 663e 7cd4 ab3e 883b 393f
00000300: 0d7a 0d3f 0203 03bf adcf aabe d2c5 c0bd
00000310: dc7e 24be b0e5 0b3e 2867 fbbe ba7e 053f
00000320: 47e0 01bf 4aa1 bd3e 23ca 15be c7bd 313b
00000330: 8a84 07bf 7c0a 753e 6fa1 ccbd 32bf 363f
00000340: e0ff 80be 7ed7 b13e 875f 0f3f 3e0d 87bd
00000350: f9f6 b93b 6b58 1d3f 4107 613d 0e13 5e3d
00000360: e2bf a7be 8853 37be 5f93 f4be 229f f0bd
00000370: 3877 023e a02f 3dbe 418f 0f3f b6aa f23e
00000380: 5745 643e 981c 8a3d a081 b0be b8cf 99bf
00000390: 0396 d3bc e74a 83bd 98f0 d0be aadc 1fbe
000003a0: 1558 3b3f e9e8 f3be 0333 2dbf 0f49 8f3e
000003b0: 4191 9dbd cd35 033f 1630 a13e 6550 d73e
000003c0: 27e6 5c3e cc7b d5be 4359 b43d 9343 513e
000003d0: 5641 253e 774b 87bd a0cc 54be 6525 903e
000003e0: ead6 36be 0138 c83c 29d4 8b3e d5e9 dabe
000003f0: 6cb7 273d 8d53 b43e dad0 773f e4d2 3b3f

network_body._body_endoder.seq_layers.0.bias f4 [128]
0.0 0.0 0.0 0.0 0.0 0.0 0.0 0.0
0.0 0.0 0.0 0.0 0.0 0.0 0.0 0.0
0.0 0.0 0.0 0.0 0.0 0.0 0.0 0.0
0.0 0.0 0.0 0.0 0.0 0.0 0.0 0.0
0.0 0.0 0.0 0.0 0.0 0.0 0.0 0.0
0.0 0.0 0.0 0.0 0.0 0.0 0.0 0.0
0.0 0.0 0.0 0.0 0.0 0.0 0.0 0.0
0.0 0.0 0.0 0.0 0.0 0.0 0.0 0.0
0.0 0.0 0.0 0.0 0.0 0.0 0.0 0.0
0.0 0.0 0.0 0.0 0.0 0.0 0.0 0.0
0.0 0.0 0.0 0.0 0.0 0.0 0.0 0.0
0.0 0.0 0.0 0.0 0.0 0.0 0.0 0.0
0.0 0.0 0.0 0.0 0.0 0.0 0.0 0.0
0.0 0.0 0.0 0.0 0.0 0.0 0.0 0.0
0.0 0.0 0.0 0.0 0.0 0.0 0.0 0.0
0.0 0.0 0.0 0.0 0.0 0.0 0.0 0.0
00000000: 0000 0000 0000 0000 0000 0000 0000 0000
00000010: 0000 0000 0000 0000 0000 0000 0000 0000
00000020: 0000 0000 0000 0000 0000 0000 0000 0000
00000030: 0000 0000 0000 0000 0000 0000 0000 0000
00000040: 0000 0000 0000 0000 0000 0000 0000 0000
00000050: 0000 0000 0000 0000 0000 0000 0000 0000
00000060: 0000 0000 0000 0000 0000 0000 0000 0000
00000070: 0000 0000 0000 0000 0000 0000 0000 0000
00000080: 0000 0000 0000 0000 0000 0000 0000 0000
00000090: 0000 0000 0000 0000 0000 0000 0000 0000
000000a0: 0000 0000 0000 0000 0000 0000 0000 0000
000000b0: 0000 0000 0000 0000 0000 0000 0000 0000
000000c0: 0000 0000 0000 0000 0000 0000 0000 0000
000000d0: 0000 0000 0000 0000 0000 0000 0000 0000
000000e0: 0000 0000 0000 0000 0000 0000 0000 0000
000000f0: 0000 0000 0000 0000 0000 0000 0000 0000
00000100: 0000 0000 0000 0000 0000 0000 0000 0000
00000110: 0000 0000 0000 0000 0000 0000 0000 0000
00000120: 0000 0000 0000 0000 0000 0000 0000 0000
00000130: 0000 0000 0000 0000 0000 0000 0000 0000
00000140: 0000 0000 0000 0000 0000 0000 0000 0000
00000150: 0000 0000 0000 0000 0000 0000 0000 0000
00000160: 0000 0000 0000 0000 0000 0000 0000 0000
00000170: 0000 0000 0000 0000 0000 0000 0000 0000
00000180: 0000 0000 0000 0000 0000 0000 0000 0000
00000190: 0000 0000 0000 0000 0000 0000 0000 0000
000001a0: 0000 0000 0000 0000 0000 0000 0000 0000
000001b0: 0000 0000 0000 0000 0000 0000 0000 0000
000001c0: 0000 0000 0000 0000 0000 0000 0000 0000
000001d0: 0000 0000 0000 0000 0000 0000 0000 0000
000001e0: 0000 0000 0000 0000 0000 0000 0000 0000
000001f0: 0000 0000 0000 0000 0000 0000 0000 0000

network_body._body_endoder.seq_layers.2.weight f4 [128, 128]
0.03626933 0.07999419 0.022307256 0.033459984 0.10640592 -0.015287149 0.04761891 -0.13921176
-0.094342306 -0.1972356 -0.037854083 0.00943113 -0.0070454925 0.090310894 0.03248488 -0.014203858
-0.055174753 -0.055710025 0.12472281 0.28615052 -0.05500017 0.00077721354 0.035613418 -0.021149393
0.04696791 0.0061930395 0.10715401 -0.08118586 -0.08726207 -0.08940466 0.058100376 -0.034992997
-0.052468684 0.16308029 0.091360964 -0.04351848 0.051228367 -0.013975985 0.038570162 -0.030397318
-0.1353742 0.056737296 -0.0349075 0.11937715 0.0751321 0.037330803 -0.030934019 0.039203767
-0.024350474 0.07647834 -0.026508346 -0.106853105 -0.017124005 -0.14751601 0.05456958 -0.0370225
-0.07418985 0.016979067 -0.024778185 -0.055210862 0.04581501 -0.039442547 0.03574946 0.028170595
0.09592334 -0.061769795 -0.042962797 0.13482581 0.009363508 0.023759732 0.03534635 -0.05261782
-0.090914704 -0.07180736 -0.025739904 0.16776197 0.0823055 -0.14910492 -0.12166221 0.074455895
0.06543394 0.0272297 -0.11497901 -0.23749658 0.08539085 -0.17311297 -0.11277406 -0.0494126
-0.02507588 0.111659706 0.05177474 -0.067541376 0.04585551 -0.0642393 0.14231955 0.11022271
0.025121136 -0.048219617 0.015881909 0.018220305 0.0849867 -0.005061786 -0.044010647 0.14387839
-0.16238713 0.16821122 -0.039633654 0.10617471 0.10841639 -0.018283967 0.040340465 0.047670797
-0.04262817 -0.058273744 -0.03538968 -0.12783995 -0.04340983 -0.20293225 -0.059326746 0.114256725
-0.009563599 0.021747205 -0.032103054 0.08994041 -0.027514609 0.16793562 0.0067908135 0.015853258
0.17722899 0.0716617 0.15999018 0.08292675 -0.12573875 -0.02164127 -0.033568904 0.123079374
-0.06278548 -0.2957269 -0.03319674 -0.00028813278 -0.029108783 0.10092471 -0.029544055 0.0194831
0.003722886 -0.09851229 -0.119930044 0.056006495 0.06371017 0.051697593 0.14176178 0.012006511
-0.14874962 0.06394611 0.117455855 -0.13778932 -0.048823725 -0.02049921 -0.07071487 0.014519125
-0.11163828 0.15487309 0.024757903 0.005848296 -0.120205685 -0.055843223 0.11783482 0.014258856
0.07066501 0.054535475 0.071453005 -0.06557617 0.043476205 0.012751048 0.07370139 -0.12856433
0.0922575 0.09515096 -0.026943328 0.0017222124 -0.10419097 0.07579875 0.014785694 -0.061166156
-0.01506773 0.0116632935 0.04122942 0.048274763 -0.08428396 -0.111872524 -0.009231187 0.088325754
0.045257017 -0.03757229 0.001008551 0.07654528 -0.016554587 0.01132524 -0.0142137585 0.01886326
-0.09975175 -0.0069517214 0.05318491 0.103409 0.10426623 0.042532895 0.06854238 -0.051529374
-0.09263645 -0.04099919 -0.0040546223 0.051875103 -0.010982499 0.15213591 0.07363721 0.014092799
-0.011118774 0.025757235 -0.052736912 0.051467355 0.09860944 0.044910822 0.081405796 0.028035302
0.11297064 -0.077021234 0.042413797 0.20241009 -0.047384683 -0.0076710326 -0.14681555 -0.10262906
0.05714171 0.051434606 0.041149333 -0.02028049 0.16770181 0.11949508 -0.101969905 -0.061295
-0.005552067 -0.017741209 0.12917316 -0.17290749 0.0472176 -0.035324715 -0.008136469 -0.08472156
0.021186737 0.061794296 0.102284186 0.064156234 0.12343655 0.052524567 0.029058916 -0.027842764
00000000: 268f 143d fed3 a33d b5bd b63c 560d 093d
00000010: 59eb d93d f376 7abc 0c0c 433d 878d 0ebe
00000020: 8a36 c1bd 21f8 49be e20c 1bbd 0785 1a3c
00000030: e0dd e6bb ebf4 b83d de0e 053d 4cb7 68bc
00000040: ecfe 61bd 3230 64bd ac6e ff3d 5282 923e
00000050: dc47 61bd ebbd 4b3a 60df 113d 7e41 adbc
00000060: 6c61 403d fbee ca3b 9073 db3d c644 a6bd
00000070: 75b6 b2bd ca19 b7bd a9fa 6d3d d154 0fbd
00000080: 67e9 56bd 85fe 263e 751b bb3d 6f40 32bd
00000090: d6d4 513d 88fb 64bc bffb 1d3d cc03 f9bc
000000a0: 899f 0abe 5e65 683d 2bfb 0ebd 027c f43d
000000b0: dcde 993d 2fe8 183d 5769 fdbc 2194 203d
000000c0: a57a c7bc ada0 9c3d 0828 d9bc cdd5 dabd
000000d0: a447 8cbc 700e 17be 5a84 5f3d e8a4 17bd
000000e0: d9f0 97bd af17 8b3c 9ffb cabc c924 62bd
000000f0: 85a8 3b3d 828e 21bd 076e 123d 05c6 e63c
00000100: 7573 c43d 5302 7dbd c2f9 2fbd c70f 0a3e
00000110: 6669 193c c5a3 c23c 56c7 103d c985 57bd
00000120: 7d31 babd bd0f 93bd 7edc d2bc cbc9 2b3e
00000130: c98f a83d f6ae 18be 092a f9bd 557c 983d
00000140: 3b02 863d d210 df3c 1d7a ebbd 4e32 73be
00000150: 66e1 ae3d 8744 31be 16f6 e6bd de64 4abd
00000160: ef6b cdbc d8ad e43d c011 543d 2253 8abd
00000170: fdd2 3b3d e58f 83bd 37bc 113e 72bc e13d
00000180: d7ca cd3c ef81 45bd c71a 823c c042 953c
00000190: 820d ae3d 57dd a5bb 8244 34bd db54 133e
000001a0: d048 26be 903f 2c3e e656 22bd 2072 d93d
000001b0: 6a09 de3d 42c8 95bc 0b3c 253d 7442 433d
000001c0: e09a 2ebd 73b0 6ebd c5f4 10bd 7ae8 02be
000001d0: 82ce 31bd 79cd 4fbe 9a00 73bd 6eff e93d
000001e0: a4b0 1cbc 3227 b23c 7e7e 03bd ad32 b83d
000001f0: 5166 e1bc 51f7 2b3e 7985 de3b b1de 813c
00000200: 847b 353e 5fc3 923d 77d4 233e 80d5 a93d
00000210: a9c1 00be 0849 b1bc 8c7f 09bd 0a11 fc3d
00000220: ac95 80bd 8469 97be 4ef9 07bd 8710 97b9
00000230: 8b75 eebc 9db1 ce3d 6006 f2bc 069b 9f3c
00000240: aafb 733b d0c0 c9bd e29d f5bd 1167 653d
00000250: 7a7a 823d dbc0 533d 002a 113e f5b6 443c
00000260: d251 18be 2ef6 823d b28c f03d a518 0dbe
00000270: 63fb 47bd f6ed a7bc f5d2 90bd a0e1 6d3c
00000280: 9ca2 e4bd 0d97 1e3e 16d1 ca3c 10a3 bf3b
00000290: 662e f6bd ddbb 64bd 6253 f13d fa9d 693c
000002a0: d1b8 903d 9760 5f3d f455 923d cd4c 86bd
000002b0: 1b14 323d c6e9 503c c1f0 963d 5ea6 03be
000002c0: 80f1 bc3d 82de c23d 41b8 dcbc dcbb e13a
000002d0: 1362 d5bd 603c 9b3d b23f 723c 5d89 7abd
000002e0: a4de 76bc 6617 3f3c 2ee0 283d c2bb 453d
000002f0: 129d acbd 6c1d e5bd 683e 17bc 22e4 b43d
00000300: 6c5f 393d 67e5 19bd 5b31 843a c6c3 9c3d
00000310: 7c9d 87bc 808d 393c d3e0 68bc 2087 9a3c
00000320: a54a ccbd 44cb e3bb 6cd8 593d 19c8 d33d
00000330: 8889 d53d f936 2e3d f35f 8c3d 7710 53bd
00000340: 2eb8 bdbd c4ee 27bd a3dc 84bb fd7a 543d
00000350: f1ef 33bc 84c9 1b3e 1bcf 963d 7ce5 663c
00000360: 852b 36bc d600 d33c a902 58bd 6fcf 523d
00000370: bff3 c93d 69f4 373d 15b8 a63d 4aaa e53c
00000380: 275d e73d 4fbd 9dbd 17ba 2d3d 9744 4f3e
00000390: 7116 42bd 495d fbbb d156 16be 2f2f d2bd
000003a0: 6d0d 6a3d 18ad 523d 348c 283d 4523 a6bc
000003b0: 06ba 2b3e d6b9 f43d 99d5 d0bd 7710 7bbd
000003c0: 1dee b5bb 0356 91bc f845 043e a90e 31be
000003d0: 3e67 413d a6b0 10bd d34e 05bc 7f82 adbd
000003e0: cf8f ad3c 041c 7d3d 5f7a d13d 5864 833d
000003f0: 4dcc fc3d 0024 573d f70c ee3c 8216 e4bc

action_model._discrete_distribution.branches.0.weight f4 [3, 128]
0.007069681 -0.0015525793 0.0016454173 -0.011631909 0.008142127 -0.0027130067 0.010827726 -0.0039001598
0.0030513178 0.008470228 -0.009954105 -0.0066152075 0.0006982902 -0.012888703 -0.0021383483 0.004575917
0.0056770127 0.009048602 -0.011880919 0.00036329418 0.0035197493 0.0057408386 5.8375008e-05 -0.00040273144
0.0051221848 0.005084403 -0.0080855815 0.0020172268 0.01004803 -0.011369287 0.010804857 0.0015536665
0.0035180866 -0.007497144 -0.021454848 -0.012452602 0.00672646 0.01161877 -0.009450382 0.012992195
0.009685415 -0.006584493 -0.0018030601 0.0076391273 0.006671216 -0.022361761 -0.00841961 0.006607895
-0.0072037587 0.002177062 0.00433662 0.010139649 -0.0046690553 0.015208413 -0.01940292 -0.0022916468
0.010818697 0.008294475 0.013591722 0.00474118 0.014929916 0.0030964413 0.0064161806 0.012270447
-0.008577101 -0.0049559935 0.0027318445 -0.00020920199 0.0026058946 0.0061159115 0.0037198686 -0.007034953
-0.004485254 -0.004015329 0.00462543 0.004545193 0.0027731748 0.008119511 -0.005421688 -0.0067330794
-0.0022475978 -0.0060974048 0.01820392 0.017720466 -0.008888057 0.0011948257 -0.010057007 -3.1525782e-05
-0.01324828 -0.012158065 0.005835856 0.018668102 -0.013334888 0.003137424 0.0019733838 0.0054663015
-0.0025203868 -0.0136510255 0.013484441 0.0062069786 -0.0064678625 0.01466776 -0.008224438 -0.007953949
-0.0100185415 -0.009227569 -0.0028597126 -0.011011368 0.007390659 -0.024706502 0.0008520962 -0.0064707245
0.0075249793 0.0030349249 0.0077449963 0.008309766 0.008847707 0.0077586113 -0.0034289043 -0.01449881
-0.021737756 -0.0018463305 0.007515646 0.0012518283 0.000845545 0.0088601345 -0.0012388417 0.0121005485
0.007745668 0.002010688 -0.006406311 0.0017604659 0.0016002435 -0.013476717 0.0030570715 -0.018730914
0.013409123 0.0021560655 -7.280151e-05 0.0007321027 0.008468544 0.01043542 -0.005972214 0.0012575197
0.010762206 0.010695401 0.009022962 -0.010478697 0.0007600661 -0.0043829815 0.00041452525 0.0018726307
-0.018342411 0.003196189 0.008578542 9.500385e-05 -0.006055112 -9.6756215e-05 -0.0026493126 -0.00991646
0.0091071995 -0.0030652208 -0.010722388 -0.002253058 -0.0018120634 -0.007974113 0.004346024 0.0081621185
0.0144004 0.0018965992 -0.0072738426 0.009835936 0.00055225386 -0.022127895 -0.004225734 -0.0020720575
0.0054263417 -0.003260734 -0.0032296025 0.0006615251 0.003955696 0.013428042 -0.0005810017 -0.0001928852
0.00047041193 -0.00054359325 -0.00113495 -0.009111165 -0.014761808 -0.01239347 -0.013753267 0.0031419215
-0.0011956892 -0.008712673 0.007499162 0.0025931345 0.0052083135 -0.018232781 -0.006676607 0.0027945228
0.009871027 -0.007546641 -0.0055272016 -0.0077514024 0.0005407067 -0.004414596 0.01877793 -0.0040020496
-0.009050302 -0.0056987084 0.0002221103 0.011323769 -0.0033711777 0.0014229686 0.0041692145 0.0021109965
-0.0070882994 -0.0048221 0.0048638643 -0.009986891 -0.0074678287 0.00021627969 0.0017426849 0.006866117
0.016867505 -0.0011673752 0.006733153 0.020334654 0.0026377265 -0.0014536248 0.0006047792 0.0034260382
-0.002750937 -0.0061979215 0.00062531437 0.01245474 0.016271528 0.0045240154 -0.0114921685 0.006650228
-0.003115296 -0.009997452 0.002553812 -0.0050990246 -0.007817094 -0.0020341198 -0.012357384 0.009858237
0.0068491586 -0.011164165 0.0155764 -0.011201792 -0.0117808385 0.0071893097 -0.0022608745 0.0022912945
00000000: c8a8 e73b eb7f cbba 0bab d73a c393 3ebc
00000010: 8e66 053c b3cc 31bb c666 313c d399 7fbb
00000020: 9ef8 473b b6c6 0a3c 8b16 23bc 62c4 d8bb
00000030: 760d 373a 232b 53bc 8823 0cbb 93f1 953b
00000040: 3c06 ba3b 9640 143c 30a8 42bc 8578 be39
00000050: 98ab 663b a51d bc3b b0d7 7438 b325 d3b9
00000060: 00d8 a73b 109b a63b 6379 04bc 7333 043b
00000070: 7ea0 243c 3f46 3abc db06 313c 66a4 cb3a
00000080: b38f 663b 9aaa f5bb 14c2 afbc 0006 4cbc
00000090: a369 dc3b a75c 3e3c c6d5 1abc 37dd 543c
000000a0: 93af 1e3c bbc2 d7bb a854 ecba a551 fa3b
000000b0: 379a da3b 0330 b7bc 67f2 09bc 0a87 d83b
000000c0: 820d ecbb 0aad 0e3b 351a 8e3b c520 263c
000000d0: e0fe 98bb b52c 793c dff2 9ebc 742f 16bb
000000e0: e740 313c 8de5 073c d0af 5e3c e75b 9b3b
000000f0: 9b9c 743c aaed 4a3b d33e d23b fc09 493c
00000100: f886 0cbc e365 a2bb bf08 333b 3b5d 5bb9
00000110: a8c7 2a3b fc67 c83b 0ac9 733b 7785 e6bb
00000120: 0af9 92bb 0593 83bb eb90 973b d8ef 943b
00000130: 27be 353b b307 053c 6aa8 b1bb 2aa1 dcbb
00000140: 6f4c 13bb bdcc c7bb 6320 953c 832a 913c
00000150: 379f 11bc b39b 9c3a 25c6 24bc 8d3a 04b8
00000160: 500f 59bc 9f32 47bc b53a bf3b d9ed 983c
00000170: 937a 5abc 3d9d 4d3b e353 013b a91e b33b
00000180: 132d 25bb 8da8 5fbc d8ed 5c3c e963 cb3b
00000190: 5df0 d3bb 0b51 703c cbbf 06bc 4851 02bc
000001a0: cf24 24bc 3b2f 17bc 046a 3bbb 0669 34bc
000001b0: 572d f23b 4a65 cabc 355f 5f3a 5f08 d4bb
000001c0: 1a94 f63b 97e5 463b bdc9 fd3b af25 083c
000001d0: f9f5 103c f33b fe3b 78b7 60bb 6b8c 6dbc
000001e0: 6113 b2bc 9200 f2ba cf45 f63b 6314 a43a
000001f0: 90a7 5d3a 192a 113c a160 a2ba 6141 463c
00000200: 5fcf fd3b bfc5 033b 08ec d1bb 6fbf e63a
00000210: 43bf d13a 73cd 5cbc 2659 483b 9371 99bc
00000220: f0b1 5b3c c74c 0d3b 03ad 98b8 95ea 3f3a
00000230: a6bf 0a3c 53f9 2a3c 90b2 c3bb 5cd3 a43a
00000240: f753 303c c33b 2f3c 0cd5 133c d7ae 2bbc
00000250: 2c3f 473a 1d9f 8fbb a354 d939 0f73 f53a
00000260: d342 96bc 2777 513b 038d 0c3c ce3c c738
00000270: f669 c6bb 99e9 cab8 17a0 2dbb a678 22bc
00000280: 5d36 153c dfe1 48bb f4ac 2fbc 0aa8 13bb
00000290: c282 edba dba5 02bc 1769 8e3b 68ba 053c
000002a0: a8ef 6b3c 4f97 f83a 6a59 eebb e826 213c
000002b0: 21c5 103a 8f45 b5bc 0778 8abb 5bcb 07bb
000002c0: 74cf b13b 0ab2 55bb bda7 53bb 336a 2d3a
000002d0: c89e 813b 4a01 5c3c 5d4e 18ba 3a41 4ab9
000002e0: 9fa1 f639 ed7f 0eba 9ac2 94ba ff46 15bc
000002f0: 83db 71bc fb0d 4bbc 6255 61bc b2e8 4d3b
00000300: acb8 9cba 99bf 0ebc 88bb f53b 94f1 293b
00000310: 80aa aa3b ea5c 95bc 70c7 dabb 5024 373b
00000320: 17ba 213c d049 f7bb 871d b5bb 7aff fdbb
00000330: 36be 0d3a 51a8 90bb 2cd4 993c a023 83bb
00000340: b847 14bc 3bbc babb 48e6 6839 5487 393c
00000350: faee 5cbb e782 ba3a e89d 883b a558 0a3b
00000360: f744 e8bb b502 9ebb 0d61 9f3b 0fa0 23bc
00000370: b0b4 f4bb 23c9 6239 cd6a e43a 2afd e03b
00000380: b92d 8a3c 9d02 99ba c8a1 dc3b dc94 a63c
00000390: b5dd 2c3b 8e87 beba 0c8a 1e3a 6287 603b
000003a0: 1049 34bb ef17 cbbb 23ec 233a f70e 4c3c
000003b0: de4b 853c 313e 943b a649 3cbc 28ea d93b
000003c0: fe29 4cbb 5acc 23bc db5d 273b b815 a7bb
000003d0: 4513 00bc de4e 05bb a076 4abc 7184 213c
000003e0: e86e e03b e7e9 36bc 2834 7f3c b987 37bc
000003f0: 6b04 41bc 4d94 eb3b 2e2b 14bb 8b29 163b

action_model._discrete_distribution.branches.0.bias f4 [3]
0.0 0.0 0.0
00000000: 0000 0000 0000 0000 0000 0000
