src/CyberHero/Assets/RL/AgentNeuralNetwork/OLD/MeleeAgent.onnx (onnx, 78222 bytes, 5 tensors)

network_body._body_endoder.seq_layers.0.weight f4 [128, 11]
0	0x3e0328cc	0.12808532
1	0xbe84f315	-0.25966707
2	0xbe0984c0	-0.13429546
3	0x3e25de92	0.16198185
4	0x3d16d87a	0.036827542
5	0xbed07cb3	-0.40720138
6	0xbe7de9c3	-0.24796204
7	0x3d8d4f83	0.06899931
8	0xbf143a00	-0.57901
9	0xbf605464	-0.8762877
10	0xbed1aac0	-0.40950584
11	0xbde88100	-0.1135273
12	0x3ee08d40	0.43857765
13	0x3e5c17aa	0.21493402
14	0x3d995d6d	0.07488523
15	0x3ec39dab	0.3820623
16	0x3e0dceb3	0.1384838
17	0xbeda2a37	-0.42610332
18	0xbec4a425	-0.38406482
19	0x3e1986a1	0.14992763
20	0x3e975523	0.29557142
21	0xbf3886e9	-0.72080857
22	0xbe260e87	-0.16216479
23	0xbe55ff7f	-0.20898245
24	0xbdcf4f88	-0.10122591
25	0x3f455a3f	0.7709083
26	0xbc3b7882	-0.0114423055
27	0x3cc12e94	0.02358178
28	0x3ea14fd5	0.3150622
29	0x3ddcf975	0.10789768
30	0x3e0af158	0.13568628
31	0xbec5ef02	-0.3865891
32	0x3c03c1e9	0.008041837
33	0xbf19b411	-0.60040385
34	0xbee773ee	-0.45205635
35	0xbe681b98	-0.22666776
36	0x3e5a9e81	0.21349527
37	0xbe058848	-0.13040268
38	0x3f48b4c8	0.7840085
39	0x3eb1913c	0.34681118
40	0x3ec931ca	0.392958
41	0x3d966658	0.07343739
42	0xbe402c74	-0.18766958
43	0xbe83dd91	-0.2575498
44	0x3bd30e06	0.0064408807
45	0xbbc55f8e	-0.006023354
46	0x3cb8a389	0.022538917
47	0xbd4d9f85	-0.050200958
48	0x3e82241b	0.2541817
49	0x3ed19ea5	0.4094135
50	0x3da76b0d	0.08174715
51	0x3d2436ad	0.040091205
52	0xbe826044	-0.2546407
53	0xbe5500d8	-0.20801103
54	0xbe748900	-0.23880386
55	0xbf0cf431	-0.55060107
56	0x3dbb212c	0.091371864
57	0xbdebae57	-0.11507862
58	0xbe54ef31	-0.2079437
59	0xbd89021f	-0.06689858
60	0x3e84a5a1	0.25907615
61	0x3eb24ebc	0.34825695
62	0x3e91c69b	0.28471836
63	0x3e5dec24	0.21672112
64	0x3f16af5f	0.58861345
65	0xbed9698e	-0.42463344
66	0xbc25eb54	-0.010126907
67	0x3e4b422b	0.1984946
68	0x3ebb6834	0.36602938
69	0xbe58f606	-0.211876
70	0xbed84f0b	-0.42247805
71	0xbec3ec9c	-0.38266456
72	0xbe6246ec	-0.22097367
73	0x3f065999	0.52480465
74	0x3dc84e2d	0.09780536
75	0x3af9461e	0.0019018089
76	0xbdf85a80	-0.121266365
77	0x3e55f1e3	0.20893054
78	0xbe3dfc52	-0.18553284
79	0x3caa4a2e	0.020787325
80	0xbea0e9eb	-0.31428465
81	0xbe8284ac	-0.25491846
82	0x3e8ace7f	0.2711067
83	0x3ed2eebd	0.41197768
84	0xbe590d07	-0.21196376
85	0xbd9fbcdc	-0.07799694
86	0x3e195132	0.1497238
87	0x3e4b6b5d	0.19865175
88	0x3e41ef77	0.18939005
89	0x3d7abc43	0.061214697
90	0xbdca02a0	-0.09863782
91	0xbee4d765	-0.44695583
92	0x3e9e25ed	0.3088831
93	0x3da29aca	0.0793968
94	0xbee5640b	-0.4480289
95	0x3dbfead5	0.093709625
96	0x3e22b754	0.15890247
97	0x3ef6361e	0.48088163
98	0x3e33ec78	0.17570674
99	0xbd7888d0	-0.06067735
100	0xbf39e264	-0.7261107
101	0x3d40c326	0.047061108
102	0x3dc52725	0.09626607
103	0xbe7e605e	-0.24841449
104	0x3f0587f4	0.52160573
105	0xbe10d4b2	-0.14143637
106	0xbcb7dc82	-0.022444014
107	0x3dcff949	0.10154969
108	0x3d41c71e	0.047309034
109	0x3eef3b99	0.46725157
110	0xbe9c21d6	-0.30494565
111	0xbeddbd6a	-0.43308574
112	0xbd774368	-0.060367018
113	0x3c29228b	0.010323177
114	0x3dd12bea	0.10213454
115	0xbe4ad59b	-0.19808047
116	0xbee5db11	-0.44893697
117	0xbde36ecf	-0.111051194
118	0x3e978bbf	0.29598805
119	0xbda0918d	-0.078402616
120	0x3d97caa7	0.074117
121	0x3df01157	0.11722057
122	0xbe78d4a1	-0.24299861
123	0xbf0736af	-0.52817816
124	0xbe2e3f0a	-0.17016235
125	0xbd77894a	-0.060433663
126	0x3dfc91a7	0.123324685
127	0xbeb914dc	-0.36148727
128	0x3ed29c3e	0.41134828
129	0xbef0a131	-0.4699798
130	0x3ea62a45	0.32454124
131	0xbedfbe0a	-0.43699676
132	0x3d8ea14a	0.06964357
133	0x3eab4c2c	0.33456552
134	0xbce33e71	-0.027739735
135	0xbe9e24c2	-0.3088742
136	0xbe6aeb97	-0.22941433
137	0xbe75e8e1	-0.24014618
138	0x3dce7083	0.10080054
139	0xbcc39abf	-0.0238775
140	0xbead5279	-0.33851984
141	0xbec39713	-0.38201198
142	0xbee42c51	-0.4456506
143	0xbda14196	-0.07873838
144	0x3e7651ea	0.24054685
145	0x3ecbc7f2	0.39800984
146	0x3deaa241	0.11456729
147	0xbe06602d	-0.13122626
148	0x3e3195c8	0.17342293
149	0x3e4f10ff	0.20221327
150	0xbed71c00	-0.4201355
151	0xbd4cdff6	-0.050018273
152	0xbdae3d68	-0.08507806
153	0xbf004bd5	-0.5011571
154	0xbd83bf15	-0.064329304
155	0xbf23d33a	-0.6399418
156	0x3dce7e32	0.100826636
157	0x3e9374bc	0.288
158	0x3d4878e7	0.048943426
159	0xbe843332	-0.2582031
160	0x3ba1cbf5	0.0049376437
161	0xbee237d1	-0.4418321
162	0xbe91c729	-0.2847226
163	0xbcf4cab3	-0.02988181
164	0x3e3a6806	0.18203744
165	0x3eaf22f1	0.34206346
166	0x3edfe50d	0.4372944
167	0x3e3d1bac	0.18467587
168	0x3dc7a57c	0.097483605
169	0xbe62d941	-0.22153188
170	0x3de14daf	0.11001145
171	0x3ca59400	0.020212173
172	0xbe47255b	-0.19447844
173	0x3f61c4b2	0.8819076
174	0xbeae0e78	-0.33995414
175	0x3dfd0893	0.12355151
176	0xbed43365	-0.4144546
177	0x3e3cf67f	0.18453406
178	0x3e6e775e	0.23287722
179	0x3e8a7b68	0.27047276
180	0x3dd76d10	0.10518849
181	0x3eb2f6ea	0.34954005
182	0x3f0f37db	0.55944604
183	0x3cdbc5ee	0.026827779
184	0xbe84e681	-0.2595711
185	0x3dd7c04e	0.10534726
186	0x3e38f554	0.18062335
187	0xbf20e1e0	-0.6284466
188	0x3d9e07f4	0.07716361
189	0x3ea4fa5f	0.32222268
190	0xbe9aac81	-0.30209735
191	0x3f2fcec2	0.6867486
192	0x3e318560	0.17336035
193	0xbe1d1479	-0.15339841
194	0x3e29a85a	0.16568127
195	0x3c1e084a	0.009645531
196	0xbf08c046	-0.53418386
197	0xbdc81980	-0.09770489
198	0x3c05127d	0.008122084
199	0xbde641bd	-0.11243007
200	0x3e357f9d	0.17724462
201	0xbd4ab7d6	-0.049491726
202	0x3c3742a2	0.01118532
203	0x3f3e8430	0.7442045
204	0x3ecf7713	0.40520534
205	0xbdb591e5	-0.08865718
206	0x3d01b3c9	0.031665597
207	0x3ebc28c3	0.3674985
208	0x3d02cee9	0.031935606
209	0x3dc5594b	0.09636172
210	0xbed42c69	-0.41440132
211	0x3d7bba02	0.061456688
212	0x3ece089e	0.4024095
213	0x3f1d91ce	0.61550605
214	0xbe51fbab	-0.2050616
215	0xbd8aef6c	-0.06783947
216	0x3ebf3c3d	0.37350646
217	0xbd08143d	-0.033222426
218	0xbe6b5c91	-0.2298453
219	0xbd7ff6a2	-0.062491067
220	0xbd67693a	-0.056496836
221	0x3dee8b91	0.11647714
222	0xbe798fed	-0.2437131
223	0xbebe3dbb	-0.37156472
224	0x3ea287a6	0.31744117
225	0x3e172b74	0.1476267
226	0x3f02ed94	0.51143765
227	0xbe761e1c	-0.24034923
228	0xbe42bfbd	-0.19018455
229	0x3dbc97ff	0.092086785
230	0x3eb3366c	0.35002458
231	0xbdafc0e1	-0.085817106
232	0xbe916ed2	-0.28404862
233	0xbd4e0186	-0.05029442
234	0xbde8d0ec	-0.11367974
235	0x3e13e6c8	0.14443505
236	0xbe0b6740	-0.13613605
237	0x3ec538eb	0.38519987
238	0xbd028e2a	-0.03187386
239	0xbb9207c0	-0.0044564903
240	0xbd390ae2	-0.045176394
241	0xbdb0752e	-0.086161
242	0x3b9a5ee7	0.0047110203
243	0x3dd781b3	0.10522785
244	0x3e635f22	0.22204259
245	0x3dd3761d	0.10325263
246	0xbed902dc	-0.42384994
247	0x3e385ad1	0.18003394
248	0xbeb7c1a0	-0.35889912
249	0x3ee90556	0.45511883
250	0xbe494cc3	-0.19658189
251	0x3ef2e340	0.47439003
252	0xbe523886	-0.20529374
253	0xbf1bcc76	-0.6085886
254	0x3e33f09b	0.17572252
255	0x3e8133cf	0.2523484

network_body._body_endoder.seq_layers.0.bias f4 [128]
0	0x00000000	0.0
1	0x00000000	0.0
2	0x00000000	0.0
3	0x00000000	0.0
4	0x00000000	0.0
5	0x00000000	0.0
6	0x00000000	0.0
7	0x00000000	0.0
8	0x00000000	0.0
9	0x00000000	0.0
10	0x00000000	0.0
11	0x00000000	0.0
12	0x00000000	0.0
13	0x00000000	0.0
14	0x00000000	0.0
15	0x00000000	0.0
16	0x00000000	0.0
17	0x00000000	0.0
18	0x00000000	0.0
19	0x00000000	0.0
20	0x00000000	0.0
21	0x00000000	0.0
22	0x00000000	0.0
23	0x00000000	0.0
24	0x00000000	0.0
25	0x00000000	0.0
26	0x00000000	0.0
27	0x00000000	0.0
28	0x00000000	0.0
29	0x00000000	0.0
30	0x00000000	0.0
31	0x00000000	0.0
32	0x00000000	0.0
33	0x00000000	0.0
34	0x00000000	0.0
35	0x00000000	0.0
36	0x00000000	0.0
37	0x00000000	0.0
38	0x00000000	0.0
39	0x00000000	0.0
40	0x00000000	0.0
41	0x00000000	0.0
42	0x00000000	0.0
43	0x00000000	0.0
44	0x00000000	0.0
45	0x00000000	0.0
46	0x00000000	0.0
47	0x00000000	0.0
48	0x00000000	0.0
49	0x00000000	0.0
50	0x00000000	0.0
51	0x00000000	0.0
52	0x00000000	0.0
53	0x00000000	0.0
54	0x00000000	0.0
55	0x00000000	0.0
56	0x00000000	0.0
57	0x00000000	0.0
58	0x00000000	0.0
59	0x00000000	0.0
60	0x00000000	0.0
61	0x00000000	0.0
62	0x00000000	0.0
63	0x00000000	0.0
64	0x00000000	0.0
65	0x00000000	0.0
66	0x00000000	0.0
67	0x00000000	0.0
68	0x00000000	0.0
69	0x00000000	0.0
70	0x00000000	0.0
71	0x00000000	0.0
72	0x00000000	0.0
73	0x00000000	0.0
74	0x00000000	0.0
75	0x00000000	0.0
76	0x00000000	0.0
77	0x00000000	0.0
78	0x00000000	0.0
79	0x00000000	0.0
80	0x00000000	0.0
81	0x00000000	0.0
82	0x00000000	0.0
83	0x00000000	0.0
84	0x00000000	0.0
85	0x00000000	0.0
86	0x00000000	0.0
87	0x00000000	0.0
88	0x00000000	0.0
89	0x00000000	0.0
90	0x00000000	0.0
91	0x00000000	0.0
92	0x00000000	0.0
93	0x00000000	0.0
94	0x00000000	0.0
95	0x00000000	0.0
96	0x00000000	0.0
97	0x00000000	0.0
98	0x00000000	0.0
99	0x00000000	0.0
100	0x00000000	0.0
101	0x00000000	0.0
102	0x00000000	0.0
103	0x00000000	0.0
104	0x00000000	0.0
105	0x00000000	0.0
106	0x00000000	0.0
107	0x00000000	0.0
108	0x00000000	0.0
109	0x00000000	0.0
110	0x00000000	0.0
111	0x00000000	0.0
112	0x00000000	0.0
113	0x00000000	0.0
114	0x00000000	0.0
115	0x00000000	0.0
116	0x00000000	0.0
117	0x00000000	0.0
118	0x00000000	0.0
119	0x00000000	0.0
120	0x00000000	0.0
121	0x00000000	0.0
122	0x00000000	0.0
123	0x00000000	0.0
124	0x00000000	0.0
125	0x00000000	0.0
126	0x00000000	0.0
127	0x00000000	0.0

network_body._body_endoder.seq_layers.2.weight f4 [128, 128]
0	0x3e32ab86	0.17448243
1	0x3e3c1913	0.1836894
2	0xbd953afb	-0.0728664
3	0x3d2d0dc0	0.04224944
4	0xbdebb51e	-0.11509155
5	0xbe14f261	-0.14545585
6	0xbda59d42	-0.08086635
7	0xbb7be682	-0.0038436954
8	0xbd8cfad2	-0.06883778
9	0x3c90d6e0	0.017680585
10	0x3dde64e8	0.1085909
11	0x3d97e195	0.07416073
12	0xbdd069b4	-0.10176411
13	0x3cdebf82	0.027190927
14	0x3dde7456	0.10862033
15	0xbcc49b6c	-0.023999892
16	0xbcc7543d	-0.02433216
17	0xbd2ee598	-0.042699426
18	0xbd04bcb5	-0.032406528
19	0x3dad18d8	0.08452004
20	0x3dcdb10c	0.10043535
21	0x3e114ccd	0.14189453
22	0xbcd6f325	-0.026238987
23	0x3bb1eb5b	0.005429668
24	0xbdba8dc0	-0.09109068
25	0x3c5819c2	0.013189735
26	0xbe535448	-0.2063762
27	0xbc228062	-0.009918304
28	0xbd19f70f	-0.03758913
29	0x3c53c219	0.012924694
30	0x3da6d627	0.08146315
31	0x3dbc653f	0.09198999
32	0xbe445ec1	-0.19176771
33	0x3d13281b	0.03592692
34	0x3d08b235	0.033373076
35	0xbd5bb59d	-0.053639997
36	0xbdf0bd85	-0.11754898
37	0x3db213a6	0.08695154
38	0xbca7acce	-0.020468142
39	0xbdad23a4	-0.084540635
40	0x3db389e0	0.08766532
41	0x3c5893de	0.013218848
42	0x3bcfda96	0.006343196
43	0xbc279a7d	-0.010229704
44	0xbde4e2e6	-0.1117609
45	0xbca24487	-0.019808067
46	0xbdced467	-0.10099106
47	0x3d14a210	0.036287367
48	0xbd9d8a36	-0.07692377
49	0x3df52609	0.11970145
50	0x3e2ecf4d	0.17071266
51	0x3db03a08	0.086048186
52	0x3db03304	0.086034805
53	0xbd5b6a7b	-0.053568345
54	0x3dafdfd2	0.08587612
55	0xbd040f46	-0.03224113
56	0xbc7077e9	-0.014677026
57	0xbe015542	-0.1263018
58	0xbd28b3c1	-0.04118705
59	0x3c1ae38c	0.009453665
60	0x3ce7ac33	0.028280353
61	0x3d446f77	0.047957864
62	0xbd927998	-0.071520984
63	0x3c55ddec	0.013053399
64	0x3cd4024e	0.025880005
65	0xbdd42561	-0.10358692
66	0x3d78b856	0.06072267
67	0x3cbc3782	0.022975687
68	0x3cf480e3	0.029846614
69	0xbb5b0289	-0.003341826
70	0xbd45ee2b	-0.048322838
71	0xbe05b707	-0.130581
72	0x3d8552b8	0.06509918
73	0x3d11ce01	0.03559685
74	0x3d0529e7	0.032510664
75	0xbdcbe0fd	-0.099550225
76	0xbe7a4fe9	-0.24444546
77	0x3df71f9b	0.12066575
78	0x3ce69f21	0.02815205
79	0xbd0c70a2	-0.034287103
80	0xbd91a1ca	-0.07110937
81	0xbc0c34aa	-0.008557478
82	0x3ce0622f	0.027390568
83	0xbcb4fb29	-0.022092419
84	0xbaa7673c	-0.0012771855
85	0xbdc99872	-0.0984353
86	0xbda07ba1	-0.0783608
87	0xbd03314f	-0.032029446
88	0x3d1c4fe8	0.038162142
89	0xbd979b93	-0.0740272
90	0xbda180d6	-0.07885902
91	0x3c9d6db7	0.019217355
92	0xbcfc464e	-0.030795243
93	0x3e1cb22d	0.15302344
94	0x3d47aa8b	0.048746627
95	0xbdd61463	-0.10453107
96	0xbe000e2a	-0.12505403
97	0xbd85b3eb	-0.06528457
98	0xbd937e32	-0.07201804
99	0xbe1645af	-0.1467502
100	0xbad2fca8	-0.0016097026
101	0x3cdbedaa	0.026846725
102	0x3bb45836	0.0055036796
103	0xbd0c7446	-0.034290574
104	0xbdfcd6fc	-0.123456925
105	0x3d820ac8	0.063497126
106	0xbd168051	-0.036743466
107	0x3d846372	0.0646428
108	0xbe8e06db	-0.27739605
109	0x3dbb3d33	0.09142532
110	0xbd6156f0	-0.05501455
111	0xbc922067	-0.017837716
112	0xbe04314a	-0.12909427
113	0xbdd753f9	-0.105140634
114	0xbd9f5ffd	-0.0778198
115	0x3ca2feb6	0.019896846
116	0x3dfca2fb	0.123357736
117	0xbd481cc1	-0.048855547
118	0xbdb44fae	-0.0880426
119	0x3dad7e38	0.0847134
120	0xbdcc4c6c	-0.09975514
121	0xbd2e343a	-0.042530276
122	0xbd99e04f	-0.075134866
123	0x3d446eca	0.04795722
124	0x3cd39a69	0.025830464
125	0x3c013e09	0.0078883255
126	0xbc1659a2	-0.009176644
127	0xbd4bc152	-0.04974491
128	0x3d4a991c	0.049462423
129	0xbe0ccd9c	-0.13750309
130	0x3bf86a8f	0.007581062
131	0xbc844b06	-0.016149055
132	0x3d97b3fa	0.07407375
133	0x3dfddc9a	0.12395592
134	0x3aca7edd	0.0015449185
135	0xbda34dda	-0.079738334
136	0x3d2479fe	0.040155403
137	0xba01af0e	-0.00049470447
138	0xbdb18b69	-0.086691685
139	0x3d6e24db	0.058140617
140	0x3d45cfcb	0.04829387
141	0x3c901da4	0.017592259
142	0x3ce46832	0.027881715
143	0xbdc2fa86	-0.0952044
144	0x3bfb6d1f	0.0076729204
145	0xbd39851c	-0.04529296
146	0xbd9e5430	-0.07730901
147	0x3cb86560	0.022509277
148	0xbd0f46d3	-0.034979653
149	0x3bbb6cb7	0.005719747
150	0x3d927001	0.07150269
151	0x3e1a1d2e	0.15050194
152	0x3dac3300	0.08408165
153	0xbcb1767e	-0.021662947
154	0x3e1f8209	0.15576948
155	0x3c5503f2	0.013001429
156	0x3c768539	0.015046411
157	0x3bbb8c9e	0.00572355
158	0xbd064a5d	-0.032785762
159	0x3d1ff9ac	0.039056465
160	0x3d9667ff	0.073440544
161	0xbd710441	-0.058841947
162	0xbd539553	-0.05165608
163	0x3d71e744	0.059058443
164	0xbd8111c6	-0.06302218
165	0xbda65d13	-0.08123221
166	0xbe0168a2	-0.1263757
167	0x3da9df35	0.082945265
168	0x3d5873af	0.0528447
169	0xbd26585d	-0.040611614
170	0x3da6712a	0.08127053
171	0x3e35a564	0.17738873
172	0xbcc4e10a	-0.024033088
173	0x3d9f8898	0.07789725
174	0x3b01a256	0.0019780598
175	0x3ca53b86	0.020169985
176	0xbd34db0f	-0.044154223
177	0x3d553862	0.052055724
178	0x3e193406	0.14961252
179	0xbd789442	-0.060688265
180	0xbbe44a6a	-0.0069668787
181	0xbdc89470	-0.09793937
182	0x3d81297d	0.063067414
183	0x3dabc750	0.08387625
184	0x3c4aa0d8	0.01236745
185	0x3cdf2495	0.027239123
186	0xbb188cb2	-0.002327722
187	0xbdd48208	-0.10376364
188	0x3be29ada	0.0069154324
189	0x3dab840b	0.083747946
190	0x3bbc02ad	0.0057376237
191	0x3dc1b392	0.094580784
192	0xbdf5bb28	-0.11998588
193	0xbda63ae3	-0.081167005
194	0xbd2bb046	-0.041916154
195	0x3e1dfeb2	0.1542919
196	0xbc62656c	-0.013818126
197	0xbdf97d66	-0.12182121
198	0x3c29c145	0.01036102
199	0xbd0dbd75	-0.03460451
200	0x3da3775c	0.0798175
201	0x3d09f78f	0.033683356
202	0x3e1e3d43	0.15453057
203	0x3c0ba16a	0.008522371
204	0x3e4d95bf	0.20076655
205	0x3d8376f3	0.06419172
206	0xbd8e4152	-0.069460526
207	0xbdfb230b	-0.12262543
208	0x3df60c96	0.12014119
209	0xbdde65e9	-0.108592816
210	0xbcf996f7	-0.030467493
211	0x3d2bc5ee	0.041936807
212	0x3d73763a	0.05943892
213	0x3d3bda29	0.04586235
214	0xbddee786	-0.10884003
215	0xbd97b911	-0.074083455
216	0x3d45b8ca	0.04827193
217	0xbced464e	-0.028964188
218	0x3d53487f	0.05158281
219	0x3b9e9099	0.0048390147
220	0xbd8a713c	-0.06759879
221	0xbc8f06d8	-0.017459318
222	0x3c6ee10c	0.014580023
223	0x3dd15eb3	0.102231406
224	0xbd7cffe9	-0.061767492
225	0x3e3cae8c	0.1842596
226	0xbd18c1a8	-0.03729406
227	0xbd4d0b14	-0.050059393
228	0x3c89e2ba	0.016831744
229	0x3ccf0484	0.025270708
230	0x3e21ac1a	0.15788308
231	0xbe2501ba	-0.1611394
232	0x3ccbf273	0.024895882
233	0xbdd6d62a	-0.10490067
234	0xbd19ae4a	-0.03751973
235	0x3d0aa9a0	0.033853173
236	0xbbcaa88a	-0.006184642
237	0x3d56c541	0.05243421
238	0x3d99390f	0.07481586
239	0x3da620a4	0.081116945
240	0x3d8cf8bb	0.06883379
241	0xbe021969	-0.12705006
242	0x3d0ca9ea	0.03434173
243	0x3e0d85f0	0.13820624
244	0x3e5f7816	0.21823153
245	0xbca2803c	-0.019836538
246	0x3e215136	0.15753636
247	0x3a928b99	0.0011180519
248	0x3d843ed2	0.064572945
249	0x3d572bf9	0.05253217
250	0xbc2e7796	-0.010648629
251	0x3e024d45	0.12724788
252	0xbd0e94ec	-0.03480999
253	0x3d7d5c91	0.061855856
254	0x3e01f233	0.12690048
255	0x3e0b0818	0.13577306

action_model._discrete_distribution.branches.0.weight f4 [3, 128]
0	0x3aee02bf	0.0018158777
1	0x3b6d7798	0.0036234614
2	0x3c03912f	0.00803022
3	0xbc0d8176	-0.008636823
4	0x3b44f372	0.0030052331
5	0x3b87eeb5	0.004148329
6	0xbc61b673	-0.013776409
7	0x3bd102b7	0.0063784975
8	0x3b883929	0.0041572046
9	0x3c1162d9	0.008873665
10	0xbadff4dd	-0.0017086525
11	0x3c38491f	0.011247902
12	0xbb8b4d99	-0.0042511937
13	0xbbfa31fd	-0.0076353536
14	0xbc8d52ff	-0.01725149
15	0x3c7bb627	0.015363253
16	0x3c12fc7d	0.008971331
17	0x3a0e36d9	0.0005425043
18	0xbb4bb196	-0.0031081191
19	0x3c483a20	0.012220889
20	0x3b95f50e	0.004576332
21	0x3c4bbb5b	0.012434806
22	0x3b314b21	0.0027052837
23	0x3c0684df	0.00821039
24	0xba7bd3e5	-0.0009606465
25	0x3c60faab	0.013731639
26	0x3c362c7f	0.011119007
27	0xbb23b9a6	-0.0024982481
28	0x3c3db805	0.011579518
29	0xbb6508a3	-0.0034947775
30	0x3c16b6f3	0.009198892
31	0xba0bdbb8	-0.000533517
32	0xbc6acdc5	-0.014331286
33	0x3b818aad	0.003953299
34	0xbc98cd7a	-0.018652666
35	0xbc482b8a	-0.012217412
36	0x3c0e100c	0.008670818
37	0xbc0df0df	-0.008663385
38	0xbcabfd85	-0.020994911
39	0x3b63d86f	0.0034766456
40	0x3b6278bd	0.003455683
41	0x3af1f212	0.0018458983
42	0x3ba2e68e	0.004971332
43	0xbb963717	-0.004584204
44	0x3b6da4db	0.0036261592
45	0xba1305f4	-0.0005608492
46	0x3c5096e8	0.012731291
47	0xbc6370bd	-0.013881859
48	0xbbe875d3	-0.007094124
49	0xbc3bbae4	-0.011458132
50	0xb9df8afd	-0.0004263743
51	0x3bae37d6	0.0053167148
52	0x3c84e7e7	0.01622386
53	0xbc4a20b2	-0.012336897
54	0xbc3a940c	-0.011387836
55	0x3b9762bb	0.004619924
56	0x3c20f542	0.009824099
57	0xbc1b4037	-0.009475759
58	0xbbec1060	-0.0072041005
59	0x3b03b5b4	0.0020097317
60	0x3bfdd16a	0.0077459114
61	0x3ba1633e	0.0049251607
62	0x3ae318e3	0.0017326142
63	0xbc01ba9a	-0.007918024
64	0x3bc01df6	0.0058629466
65	0xbce8c662	-0.028414909
66	0xbb221ecb	-0.0024737592
67	0x3cb44b5b	0.022008589
68	0xbca1bdd3	-0.019743836
69	0xbc2e4fff	-0.01063919
70	0xbb7c042d	-0.0038454637
71	0xbc0d7cce	-0.008635713
72	0x3c10c774	0.008836616
73	0xbbb7b191	-0.0056058844
74	0x3b8e75af	0.004347525
75	0x3c3196d1	0.01083918
76	0xbc8b3ae1	-0.01699585
77	0xbc64422d	-0.013931793
78	0x3bcd933d	0.0062736557
79	0x3b1eb400	0.0024216175
80	0xbbb22c8b	-0.005437439
81	0xbbfbb58f	-0.0076815556
82	0x3bbe8fcd	0.005815482
83	0x3a4731cf	0.00075986696
84	0xbc3eb9e1	-0.011640997
85	0x3b101788	0.0021986682
86	0xbc045f79	-0.008079403
87	0x3b4d7e4b	0.0031355794
88	0xbbd8b2da	-0.0066131176
89	0xbc88b17a	-0.01668619
90	0x3aaef6ef	0.0013348738
91	0x3b12c7af	0.0022396853
92	0xbac72157	-0.0015192431
93	0x3b369ad4	0.002786328
94	0xbaaf0b97	-0.0013354894
95	0x3b35bc64	0.0027730698
96	0x3acf4aca	0.0015815136
97	0x3c70b4fa	0.014691586
98	0xbc48728f	-0.012234344
99	0x3c48b1e9	0.012249448
100	0x3bd10428	0.0063786693
101	0xbbe5c165	-0.00701158
102	0x3acb8484	0.0015527164
103	0xbba98ae8	-0.0051740296
104	0x3c03908b	0.008030067
105	0x3b5bd2f8	0.0033542495
106	0xbc3e7cbc	-0.011626419
107	0xbbdd50ea	-0.0067540305
108	0xbc8d9887	-0.017284645
109	0x3c5c8288	0.013458855
110	0x3b1f5b96	0.0024316064
111	0xbc07b425	-0.008282696
112	0x3b240cf0	0.0025032125
113	0xbc9a9e98	-0.018874452
114	0x39c8e96c	0.00038320886
115	0xbaad91d4	-0.0013242313
116	0x3b8faf36	0.0043849004
117	0xbc1639b4	-0.009169031
118	0xbbefabeb	-0.0073141954
119	0xbca2d20b	-0.019875547
120	0xbb53533b	-0.0032245654
121	0xbb06af52	-0.0020551276
122	0xb9c925c2	-0.0003836584
123	0xbc85443f	-0.016267894
124	0xbbcd6c32	-0.0062690014
125	0x3a704022	0.000916483
126	0xbc5b25bd	-0.013375697
127	0x3bfca9ff	0.007710695
128	0xbc698e98	-0.014255188
129	0xbb840ccb	-0.0040298454
130	0x3c31416b	0.0108188195
131	0x3b78184a	0.0037856274
132	0x38cb329e	9.6892225e-05
133	0x3a2542d6	0.000630421
134	0xbb417c30	-0.0029523484
135	0x3b897f53	0.0041960864
136	0x3c2ed917	0.010671875
137	0xb9b7d477	-0.0003506278
138	0x3ba33839	0.0049810675
139	0xbc1ecea7	-0.009692824
140	0x3befae1b	0.007314456
141	0x3c1d926f	0.009617432
142	0x3a3ee7af	0.00072824484
143	0x3b154693	0.0022777661
144	0xbc98e6e2	-0.018664781
145	0xbc039668	-0.008031465
146	0x3b8bcb88	0.004266206
147	0x3bbf8683	0.0058448925
148	0x3c2ff472	0.010739433
149	0x3b3ebbbc	0.0029103598
150	0x3a9cf549	0.0011974956
151	0x3c94fbc7	0.018186463
152	0x3b1933f8	0.0023376923
153	0x3b42e49a	0.0029738308
154	0xbc4c2ef8	-0.01246237
155	0x3c299ca7	0.01035229
156	0x3c341aaf	0.01099269
157	0x3922f727	0.00015541595
158	0xbc3434b4	-0.0109988935
159	0x3aaa6037	0.0012998645
160	0x3c9fa870	0.019489497
161	0x3c3f1a79	0.011664026
162	0xbc1057be	-0.008809982
163	0x3a0ea7c3	0.00054418686
164	0xbba37772	-0.004988604
165	0x3b4e105f	0.0031442863
166	0x3c42a8f5	0.011881103
167	0xbc9ba4fe	-0.018999573
168	0xb9ce55e3	-0.00039355372
169	0x3c783f3f	0.015151798
170	0x3bab994b	0.00523678
171	0xbc550bfb	-0.013003345
172	0x3c0ea55a	0.008706415
173	0xb90cda0b	-0.00013432668
174	0x3aa20d22	0.0012363533
175	0x3c8966c0	0.016772628
176	0x3b254120	0.002521582
177	0xbb93a6e3	-0.0045059784
178	0x3b765283	0.0037585802
179	0xbbdb8537	-0.00669923
180	0xbb7828c7	-0.0037866102
181	0x3c834b98	0.016027257
182	0xbb8ebc33	-0.004355931
183	0xbb554600	-0.0032542944
184	0x3ba8ba93	0.0051491945
185	0xb9f57952	-0.00046820432
186	0xbbbf064f	-0.0058296095
187	0x3c126109	0.008934268
188	0xbc345919	-0.011007571
189	0x3b31bbeb	0.0027120064
190	0xbc5f640f	-0.013634696
191	0xbbbf3d8e	-0.0058361953
192	0x3c71e515	0.01476409
193	0xbb4ca027	-0.0031223388
194	0xbc5c653f	-0.013451873
195	0x39fdc1e2	0.00048400374
196	0xbc98b410	-0.018640548
197	0xbbb4eadd	-0.005521162
198	0xbb644490	-0.0034830905
199	0x397ecd68	0.00024299847
200	0x3c9152f1	0.017739745
201	0xbbe09ebd	-0.0068548606
202	0xbc04bcec	-0.008101683
203	0xbc111999	-0.008856201
204	0xbc794192	-0.015213387
205	0xb836b59e	-4.3561326e-05
206	0xbba44a6b	-0.005013754
207	0x3b9d0557	0.0047918963
208	0x3b04360f	0.0020173823
209	0x3c356ab8	0.011072807
210	0x3baf72e1	0.005354271
211	0xbc9d0044	-0.019165166
212	0xbba82b07	-0.0051320824
213	0xbb659355	-0.0035030444
214	0xbba49e37	-0.0050237435
215	0x3c205d56	0.009787878
216	0x3a973e64	0.001153898
217	0xba57d5fd	-0.0008233486
218	0xbc2da6cd	-0.01059885
219	0xbaed6e0d	-0.0018114463
220	0x3a1ee516	0.0006061358
221	0x3c10bb6e	0.008833749
222	0xbc41412a	-0.0117953215
223	0xbc58efed	-0.0132407965
224	0x3aa183a0	0.0012322553
225	0x3b17c887	0.0023160295
226	0xbb02e29b	-0.0019971493
227	0x3c887e47	0.016661776
228	0xbc3dd2c0	-0.011585891
229	0x3c2dad48	0.0106003955
230	0x3c43440f	0.011918082
231	0x3b94c89e	0.004540517
232	0x3bc023e5	0.005863654
233	0x3bdcabff	0.0067343707
234	0xbc6bc990	-0.014391318
235	0x3acd59f2	0.0015667065
236	0xbb3333b0	-0.002734404
237	0x3bf66bfd	0.0075201974
238	0x3b542c0a	0.0032374882
239	0x3c13177e	0.008977769
240	0x3c237105	0.009975676
241	0x3bd8536f	0.006601743
242	0x3b045b21	0.0020195919
243	0xbc163d45	-0.009169881
244	0xbc04f244	-0.008114401
245	0x3a37d6c9	0.00070129015
246	0x3b89768b	0.0041950396
247	0x3b90d15b	0.0044194884
248	0xb9584972	-0.00020626726
249	0xbbbae043	-0.0057030036
250	0xba2376a1	-0.00062356336
251	0xbbdf59e3	-0.0068161353
252	0xbab0c95b	-0.0013487743
253	0x3be93c9b	0.0071178204
254	0xba903fe4	-0.0011005369
255	0x3b375100	0.0027971864

action_model._discrete_distribution.branches.0.bias f4 [3]
0	0x00000000	0.0
1	0x00000000	0.0
2	0x00000000	0.0
