src/CyberHero/Assets/RL/AgentNeuralNetwork/OLD/MidBossAgent1.onnx (onnx, 80270 bytes, 5 tensors)

network_body._body_endoder.seq_layers.0.weight f4 [128, 15]
0	0x3e4174ab	0.18892162
1	0x3dcdd352	0.10050072
2	0x3e3aa395	0.18226464
3	0x3c2f20f5	0.01068901
4	0xbe0a2669	-0.13491215
5	0x3de95637	0.11393397
6	0xbe9f0bb9	-0.3106363
7	0xbe3dc60c	-0.1853258
8	0x3e873404	0.26406872
9	0xbe02d55d	-0.12776704
10	0x3db002c3	0.08594277
11	0x3c17c2c4	0.009262744
12	0x3e557c29	0.20848145
13	0x3ece9e68	0.4035523
14	0x3e058ebd	0.13042732
15	0x3eda259d	0.42606822
16	0x3cfaf8fd	0.030636305
17	0xbe345524	-0.17610604
18	0xbce55d79	-0.027998673
19	0x3e19fb58	0.15037286
20	0xbd011fe8	-0.03152457
21	0xbdcaa5b9	-0.0989489
22	0xbdf72064	-0.12066725
23	0x3e18d4b5	0.14924891
24	0x3da0dd9e	0.0785477
25	0x3d240df2	0.04005236
26	0x3d2edb4a	0.0426896
27	0xbe64292d	-0.22281332
28	0x3e835391	0.25649694
29	0x3d8193ef	0.06327044
30	0x3cfb599d	0.03068238
31	0x3e2a4b51	0.16630293
32	0x3d9438b2	0.07237376
33	0x3e66ba6c	0.22532052
34	0x3d570360	0.052493453
35	0x3d96dd1a	0.073663905
36	0x3e96b02b	0.2943128
37	0x3d71d949	0.05904511
38	0x3dff1812	0.12455763
39	0x3e015c0c	0.1263277
40	0x3e27602f	0.16345285
41	0xbe750a88	-0.23929799
42	0xbd84e365	-0.064886846
43	0xbddd8037	-0.10815471
44	0x3e1f0dae	0.15532562
45	0x3eabb571	0.33536866
46	0xbe96f717	-0.2948539
47	0xbcf2cee3	-0.029639667
48	0xbd97d599	-0.074137874
49	0x3d8ac24b	0.0677534
50	0xbbe39b0e	-0.006945974
51	0xbe166fab	-0.14691035
52	0x3ea1d781	0.3160973
53	0x3d18ee8e	0.03733688
54	0xbe81ca73	-0.2534977
55	0xbe9826de	-0.29717153
56	0x3e1b936e	0.15192959
57	0xbc92ddea	-0.017928082
58	0x3dd3a951	0.10335029
59	0x3d4ba98e	0.049722247
60	0xbeb0c979	-0.3452871
61	0xbdb4acba	-0.088220075
62	0x3ea91da5	0.3303043
63	0xbe48f763	-0.1962562
64	0x3ec6eff7	0.38854954
65	0xbd59f64c	-0.053213403
66	0xbe3d306c	-0.18475503
67	0x3f02dba6	0.51116407
68	0x3bf7423c	0.0075457375
69	0xbd75c3d2	-0.060001202
70	0x3da3da06	0.08000569
71	0x3e6ae31b	0.22938196
72	0xbd3c4203	-0.04596139
73	0xbf1c7cb8	-0.61127806
74	0xbe07f71b	-0.13277857
75	0x3d251a2a	0.040308155
76	0x3e544364	0.20728832
77	0x3d0a87aa	0.033820786
78	0x3c96e331	0.01841888
79	0xbe24e6d6	-0.16103682
80	0x3e3969e9	0.18106808
81	0x3e8dda36	0.27705544
82	0xbecc26d4	-0.39873374
83	0x3ea41bc5	0.32052436
84	0x3f0f02a8	0.5586343
85	0x3de71711	0.112836964
86	0x3f092c03	0.5358278
87	0xbe44e4b4	-0.19227868
88	0x3d8ee743	0.069777034
89	0x3d1966e0	0.037451625
90	0xbe99c4d4	-0.3003298
91	0x3e655e8e	0.22399351
92	0xbc483094	-0.012218613
93	0x3caa74c7	0.020807637
94	0x3d0a0886	0.033699535
95	0x3e4a4daa	0.19756189
96	0xbe12852f	-0.14308618
97	0x3dfb700a	0.12277229
98	0xbddb7b10	-0.10716832
99	0xbc2e2ca2	-0.0106307585
100	0x3e39efe8	0.18157923
101	0xbe71d81a	-0.23617592
102	0xbd15b4fe	-0.03654956
103	0x3ee9f8f4	0.4569775
104	0x3e975123	0.2955409
105	0xbe386fb8	-0.18011367
106	0x3e2a9ec0	0.16662121
107	0x3ecb07ee	0.39654487
108	0xbe43de02	-0.19127658
109	0x3d51fdff	0.05126762
110	0x3e27d117	0.16388355
111	0xbe846c23	-0.25863752
112	0x3db7e062	0.089783445
113	0xbe0d9974	-0.13828069
114	0x3e7f1f39	0.24914254
115	0x3ee9692a	0.45588046
116	0x3ec2c0ec	0.38037813
117	0xbeabeb50	-0.33577967
118	0x3e6c0c29	0.23051514
119	0xbcc72471	-0.024309369
120	0xbeaa03ab	-0.33205923
121	0x3db063cd	0.086127855
122	0x3d71ceb2	0.05903501
123	0xbdcf5102	-0.10122873
124	0x3e1261e3	0.14295153
125	0x3dd6712b	0.10470804
126	0xbd6c7b45	-0.057734746
127	0xbdc5a64f	-0.096508615
128	0x3e14b65a	0.14522687
129	0xbe8b5e21	-0.27220252
130	0xbf078aa1	-0.52945906
131	0x3d75bb6d	0.059993196
132	0xbc5a64da	-0.013329709
133	0xbf2e25ad	-0.6802624
134	0x3f340aa0	0.7032871
135	0x3c423a8f	0.011854782
136	0xbe70a812	-0.23501614
137	0xbdcff14d	-0.10153446
138	0xbe5107b0	-0.20413089
139	0xbd9a9c5d	-0.07549355
140	0xbe8e5e8a	-0.27806503
141	0xbd8931c9	-0.06698949
142	0x3e469d0b	0.19395845
143	0x3d87c285	0.066288985
144	0xbee2ceb2	-0.4429832
145	0x3eb5cbd6	0.35507077
146	0x3e63af90	0.2223494
147	0x3dd1ed29	0.10250313
148	0xbdf0de7b	-0.11761185
149	0x3e403577	0.18770395
150	0x3e129498	0.14314497
151	0x3a3d95ba	0.0007232089
152	0x3cd5a015	0.02607731
153	0xbd050abb	-0.032480936
154	0x3e2910f3	0.16510372
155	0x3ec5e836	0.38653725
156	0xbb37ab25	-0.0028025594
157	0xbdf83a80	-0.12120533
158	0x3f05caa4	0.5226233
159	0xbd65b7f0	-0.05608362
160	0xbecd43b0	-0.40090704
161	0xbef4924f	-0.47767875
162	0xbee679f7	-0.45014927
163	0x3e43107b	0.19049256
164	0xbe8810bb	-0.26575264
165	0x3df81f6d	0.12115369
166	0xbe90561c	-0.28190696
167	0x3e38d6d5	0.18050702
168	0xbeca02cd	-0.39455262
169	0x3e9e7b22	0.30953318
170	0x3ca85169	0.020546632
171	0xbe9b03a1	-0.30276206
172	0x3e175752	0.14779404
173	0xbe8dc836	-0.2769181
174	0xbea30a77	-0.31843922
175	0x3d3122f3	0.04324622
176	0x3e2b7158	0.16742456
177	0xbeacb5df	-0.33732507
178	0x3e0fbd1b	0.14036982
179	0x3bf25501	0.007395387
180	0x3f0c97c7	0.54919094
181	0xbe7c1f7f	-0.2462139
182	0x3df01c58	0.11724156
183	0xbe618f51	-0.22027327
184	0x3e61b9f7	0.22043596
185	0x3f02f8a9	0.51160675
186	0xbe4c1ebc	-0.19933599
187	0x3d41a74b	0.047278684
188	0xbd8cc4e5	-0.06873492
189	0x3f185e80	0.59519196
190	0xbe639549	-0.22224917
191	0x3e7d875a	0.24758664
192	0x3e66f423	0.22554068
193	0x3edb2b3d	0.42806426
194	0xbf39095f	-0.72279924
195	0x3ddcd6bd	0.107831456
196	0xbe8c8a9c	-0.274495
197	0xbda5f2d6	-0.08102958
198	0xbe31d55f	-0.17366551
199	0x3f3839ad	0.71963006
200	0xbedda489	-0.43289593
201	0xbe03f029	-0.12884583
202	0x3e78852d	0.24269553
203	0xbe5a86b3	-0.21340446
204	0xbf094164	-0.53615403
205	0xbe0371f1	-0.12836434
206	0xbd325aad	-0.043543506
207	0x3e0873cc	0.13325423
208	0x3e7c089f	0.24612664
209	0xbf170e2f	-0.5900602
210	0x3e98baef	0.2983012
211	0x3ea9a657	0.3313472
212	0x3f317d71	0.69332033
213	0x3e26f0df	0.16302823
214	0xbef315b8	-0.47477508
215	0x3e8fe0a2	0.2810107
216	0x3df7a734	0.12092438
217	0xba4db1e7	-0.0007846639
218	0x3d5e58e7	0.054284003
219	0x3e476263	0.19471125
220	0x3e8768b5	0.26447073
221	0x3d9dd4cf	0.07706606
222	0x3dab9243	0.083775066
223	0x3e11307f	0.14178656
224	0xbeb58740	-0.3545475
225	0x3d7b76a0	0.061392426
226	0x3a36ea0a	0.00069776236
227	0x3e776b92	0.24162129
228	0x3e8db668	0.27678227
229	0xbe5942a7	-0.21216832
230	0xbdd3f91e	-0.1035025
231	0xbd0b73a2	-0.034045823
232	0xbe3e504e	-0.18585321
233	0x3e05caa7	0.13065587
234	0xbe94460f	-0.289597
235	0x3e0ce32d	0.13758536
236	0x3ed7a28c	0.421162
237	0xbea37cca	-0.31931144
238	0xbe189835	-0.14901812
239	0xbe2b172c	-0.16708058
240	0x3e048008	0.12939465
241	0x3d71792d	0.058953453
242	0x3ef4acb8	0.47788024
243	0xbd33aa93	-0.043863844
244	0xbe465eed	-0.19372149
245	0xbe94e7e3	-0.29083166
246	0xbd27fbba	-0.04101155
247	0xbec021e0	-0.37525845
248	0x3e422940	0.18961048
249	0x3eac1e2f	0.33616778
250	0xbdc0287f	-0.09382724
251	0xbd93aa5a	-0.07210226
252	0x3e2143ba	0.15748492
253	0xbf0c8fb2	-0.5490676
254	0xbece96cd	-0.40349427
255	0xbef22f30	-0.47301626

network_body._body_endoder.seq_layers.0.bias f4 [128]
0	0x00000000	0.0
1	0x00000000	0.0
2	0x00000000	0.0
3	0x00000000	0.0
4	0x00000000	0.0
5	0x00000000	0.0
6	0x00000000	0.0
7	0x00000000	0.0
8	0x00000000	0.0
9	0x00000000	0.0
10	0x00000000	0.0
11	0x00000000	0.0
12	0x00000000	0.0
13	0x00000000	0.0
14	0x00000000	0.0
15	0x00000000	0.0
16	0x00000000	0.0
17	0x00000000	0.0
18	0x00000000	0.0
19	0x00000000	0.0
20	0x00000000	0.0
21	0x00000000	0.0
22	0x00000000	0.0
23	0x00000000	0.0
24	0x00000000	0.0
25	0x00000000	0.0
26	0x00000000	0.0
27	0x00000000	0.0
28	0x00000000	0.0
29	0x00000000	0.0
30	0x00000000	0.0
31	0x00000000	0.0
32	0x00000000	0.0
33	0x00000000	0.0
34	0x00000000	0.0
35	0x00000000	0.0
36	0x00000000	0.0
37	0x00000000	0.0
38	0x00000000	0.0
39	0x00000000	0.0
40	0x00000000	0.0
41	0x00000000	0.0
42	0x00000000	0.0
43	0x00000000	0.0
44	0x00000000	0.0
45	0x00000000	0.0
46	0x00000000	0.0
47	0x00000000	0.0
48	0x00000000	0.0
49	0x00000000	0.0
50	0x00000000	0.0
51	0x00000000	0.0
52	0x00000000	0.0
53	0x00000000	0.0
54	0x00000000	0.0
55	0x00000000	0.0
56	0x00000000	0.0
57	0x00000000	0.0
58	0x00000000	0.0
59	0x00000000	0.0
60	0x00000000	0.0
61	0x00000000	0.0
62	0x00000000	0.0
63	0x00000000	0.0
64	0x00000000	0.0
65	0x00000000	0.0
66	0x00000000	0.0
67	0x00000000	0.0
68	0x00000000	0.0
69	0x00000000	0.0
70	0x00000000	0.0
71	0x00000000	0.0
72	0x00000000	0.0
73	0x00000000	0.0
74	0x00000000	0.0
75	0x00000000	0.0
76	0x00000000	0.0
77	0x00000000	0.0
78	0x00000000	0.0
79	0x00000000	0.0
80	0x00000000	0.0
81	0x00000000	0.0
82	0x00000000	0.0
83	0x00000000	0.0
84	0x00000000	0.0
85	0x00000000	0.0
86	0x00000000	0.0
87	0x00000000	0.0
88	0x00000000	0.0
89	0x00000000	0.0
90	0x00000000	0.0
91	0x00000000	0.0
92	0x00000000	0.0
93	0x00000000	0.0
94	0x00000000	0.0
95	0x00000000	0.0
96	0x00000000	0.0
97	0x00000000	0.0
98	0x00000000	0.0
99	0x00000000	0.0
100	0x00000000	0.0
101	0x00000000	0.0
102	0x00000000	0.0
103	0x00000000	0.0
104	0x00000000	0.0
105	0x00000000	0.0
106	0x00000000	0.0
107	0x00000000	0.0
108	0x00000000	0.0
109	0x00000000	0.0
110	0x00000000	0.0
111	0x00000000	0.0
112	0x00000000	0.0
113	0x00000000	0.0
114	0x00000000	0.0
115	0x00000000	0.0
116	0x00000000	0.0
117	0x00000000	0.0
118	0x00000000	0.0
119	0x00000000	0.0
120	0x00000000	0.0
121	0x00000000	0.0
122	0x00000000	0.0
123	0x00000000	0.0
124	0x00000000	0.0
125	0x00000000	0.0
126	0x00000000	0.0
127	0x00000000	0.0

network_body._body_endoder.seq_layers.2.weight f4 [128, 128]
0	0x3dc2d31c	0.09512922
1	0xbc16617d	-0.009178516
2	0xbc3e2105	-0.011604552
3	0xbdb30756	-0.087416336
4	0x3d098c36	0.03358098
5	0xbb0bf92d	-0.0021358237
6	0x3d4e2b2e	0.050334148
7	0x3cab3d98	0.020903394
8	0x3daafb85	0.08348755
9	0xbc813afe	-0.0157752
10	0xbd55f107	-0.052231815
11	0x3da26519	0.07929439
12	0x3cea73a7	0.0286196
13	0xbc7afd84	-0.015319232
14	0xbe47c664	-0.19509274
15	0x3cd8f6bf	0.026484845
16	0x3d03f584	0.032216564
17	0x3d5eed7e	0.05442571
18	0x3d232c87	0.039837386
19	0x3c09f24f	0.008419587
20	0xbc157b57	-0.009123645
21	0x3ce69bf7	0.028150542
22	0xbe21b220	-0.15790606
23	0xbcbe9b8b	-0.023267528
24	0xbdb1f4ec	-0.08689293
25	0xbda15c18	-0.078788936
26	0xbe37fe5c	-0.17968124
27	0x3c974c83	0.0184691
28	0x3dee384c	0.116318315
29	0x3d7aa9d4	0.061197117
30	0xbbbc7e98	-0.005752396
31	0x3ca39cd6	0.019972246
32	0x3d5a9bb9	0.053371165
33	0xbcf2a1c9	-0.02961816
34	0xbd1080f5	-0.035279233
35	0xbcc9aabd	-0.024617547
36	0x3d5efdf3	0.054441404
37	0xbdba65db	-0.09101459
38	0xbd9d86bb	-0.076917134
39	0x3b2ac1f4	0.0026055546
40	0xbcdbbf86	-0.026824724
41	0xbddf2de9	-0.108974285
42	0xbd0735e4	-0.03301038
43	0xbd7f5ce9	-0.062344465
44	0xbd8af85e	-0.067856535
45	0x3de2a41b	0.11066457
46	0xbd2b75f3	-0.041860532
47	0xbddbb2d9	-0.10727472
48	0xbcfc9b06	-0.03083564
49	0x3d8c888e	0.06861983
50	0x3e0d639a	0.13807526
51	0xbc0bd9d2	-0.008535819
52	0x3d875c85	0.066094436
53	0xbb559f08	-0.003259601
54	0x3e653517	0.22383533
55	0x3d8c35ac	0.068461746
56	0xbd37caca	-0.04487113
57	0xbd8b1181	-0.06790448
58	0xbe3a5c94	-0.18199378
59	0x3ce1cde0	0.02756399
60	0x3d405af1	0.04696173
61	0xbd95d418	-0.07315844
62	0xbddab37a	-0.10678764
63	0xbd5522d8	-0.052035183
64	0x3d1d03de	0.038333766
65	0xbe6fbc47	-0.23411666
66	0xbe16cd88	-0.14726841
67	0x3daf68e4	0.08564928
68	0x3e082594	0.13295585
69	0x3b56a5e0	0.0032752678
70	0xbd5215eb	-0.051290434
71	0x3d1466c4	0.036230817
72	0xbc94fa2e	-0.018185701
73	0x3d238f35	0.039931495
74	0x3d51dd3d	0.05123638
75	0x3cb19054	0.021675266
76	0xbe339aff	-0.17539595
77	0x3c0d3f0c	0.008620989
78	0x3ccbef25	0.024894306
79	0xbddc1427	-0.10746031
80	0xbc51d85f	-0.012807935
81	0x3bce21c2	0.0062906453
82	0x3ca4b4bf	0.020105718
83	0xbcb71aa9	-0.02235158
84	0x3d87b502	0.066263214
85	0xbd9ff785	-0.078108825
86	0xbdf06138	-0.11737293
87	0x3d278011	0.040893618
88	0x3d76f057	0.0602878
89	0x3cfb1f86	0.03065468
90	0x3daadef7	0.083433084
91	0x3de96f5f	0.113981955
92	0x3c0f4888	0.00874532
93	0x3d90873e	0.070570454
94	0xbd0e817c	-0.034791455
95	0x3c806ead	0.015677774
96	0xbceb7c44	-0.028745778
97	0xbd3d795a	-0.046258308
98	0xbdb3eb4d	-0.087851144
99	0x3dbba217	0.091617756
100	0xbd726040	-0.059173822
101	0xbe353f43	-0.17699914
102	0xbc2952c9	-0.010334679
103	0xbd1ff404	-0.03905107
104	0xbe7ee44e	-0.24891779
105	0x3c8fc419	0.017549561
106	0x3c2e35de	0.01063296
107	0xbce956f6	-0.028483849
108	0xbd7d5047	-0.061844137
109	0xbd0a00a0	-0.033692002
110	0x3da06149	0.07831056
111	0xbd4dab4d	-0.050212193
112	0x3c96f9e9	0.018429713
113	0x3e3b9877	0.1831988
114	0xbd1ceccd	-0.03831177
115	0x3d8015d0	0.062541604
116	0x3d458814	0.048225477
117	0xbdee6b6f	-0.11641585
118	0x3ce7710d	0.028252149
119	0xbe179f3d	-0.14806838
120	0x3dcc4a0e	0.09975062
121	0x3e24f48f	0.16108917
122	0x3cd2fbac	0.025754772
123	0xbc88138c	-0.016610883
124	0x3d1f3194	0.03886564
125	0xbc791a90	-0.015204087
126	0x3dfac89b	0.12245294
127	0x3e17fee7	0.14843331
128	0xbdc0e052	-0.09417786
129	0xbe02f0b9	-0.12787141
130	0xbd0c80d2	-0.03430254
131	0xbc00ab06	-0.007853275
132	0xbd505cdd	-0.05086981
133	0x3c5bce38	0.013415866
134	0x3e07ced2	0.1326249
135	0x3dbf724d	0.09347973
136	0x3e02b577	0.12764536
137	0x3dde5698	0.1085636
138	0x3d896f4f	0.067106836
139	0x3d85e07a	0.06536956
140	0x3d0eb12c	0.034836933
141	0x3ba8b00f	0.005147941
142	0x3d3f025b	0.046633106
143	0x3cba027b	0.02270626
144	0x3cde19a7	0.027111841
145	0xbd5385ba	-0.051641203
146	0x3d268c13	0.04066093
147	0x3cea164f	0.02857509
148	0x3a97e876	0.0011589665
149	0xbdfad39c	-0.122473925
150	0x3d759d6d	0.059964586
151	0xbd1a0586	-0.037602924
152	0x3dcf2f8b	0.1011649
153	0xbddfb634	-0.10923424
154	0xbc83a64b	-0.016070506
155	0x3d60464d	0.054754544
156	0x3e529c1b	0.20567362
157	0xbdc94416	-0.098274395
158	0xbc9d057e	-0.019167658
159	0xbe1853da	-0.14875737
160	0x3d3b7e2c	0.045774624
161	0x3d4521dd	0.048127998
162	0x3d0288d5	0.031868774
163	0xbd36e85b	-0.044655185
164	0x3d333750	0.043753922
165	0x3ca4980e	0.020092037
166	0xbcff53a3	-0.03116781
167	0xbc20bbeb	-0.009810428
168	0x3bdb05ef	0.006684057
169	0xbe05875c	-0.13039917
170	0xbd36c1c2	-0.044618376
171	0xbd9b8aae	-0.075948104
172	0xbdd838ba	-0.10557695
173	0x3d8413ee	0.06449114
174	0xba6c60f7	-0.00090171344
175	0x3cd42448	0.025896206
176	0xbc87d529	-0.016581135
177	0xbd3d52bc	-0.04622148
178	0x3d9a203b	0.07525679
179	0xbe0bb7a3	-0.1364427
180	0xbd013a48	-0.031549722
181	0x3d4bf8ff	0.049798008
182	0x3da90847	0.08253532
183	0xbd3f2f35	-0.04667588
184	0x3e1f08be	0.15530679
185	0xbcf070c8	-0.029350653
186	0xbd3456c6	-0.044028066
187	0x3d6663b1	0.056247417
188	0xbd519acb	-0.051173013
189	0xbbd735e7	-0.006567705
190	0x3cfe8496	0.031069081
191	0xbd8e8d27	-0.069605164
192	0x3d822be2	0.06356026
193	0xbdd54140	-0.10412836
194	0xbe5b59d8	-0.21420991
195	0xbda9fa42	-0.08299686
196	0x3dde3e80	0.10851765
197	0x3c1f85d4	0.009736497
198	0xbc8e37e6	-0.017360639
199	0xbdba97cb	-0.091109835
200	0x3d8d4990	0.068987966
201	0xbda224b1	-0.079171546
202	0x3d2bd572	0.041951604
203	0x3d85afcd	0.06527672
204	0x3d3d0db1	0.046155635
205	0x3dab5bc0	0.08367109
206	0x3c9058d0	0.017620474
207	0x3d531db5	0.051542003
208	0xbdcc725f	-0.09982752
209	0x3d2eb626	0.04265418
210	0x3d4e68e0	0.050392985
211	0xbc85b53c	-0.01632177
212	0x3c9ad70f	0.018901376
213	0xbdbb7106	-0.09152417
214	0xbd66e57e	-0.056371205
215	0xbdc82b10	-0.097738385
216	0x3ce7ff16	0.028319877
217	0x3b822f47	0.003972921
218	0x3d3be456	0.045872055
219	0x3d847022	0.064667
220	0x3c85b7d6	0.016323011
221	0x3cbe8019	0.023254441
222	0xbe2abf61	-0.16674568
223	0xbdf90ba6	-0.12160425
224	0xbe59faed	-0.21287127
225	0xbda80ebf	-0.082059376
226	0xbcbe6be0	-0.023244798
227	0xbd1e38d4	-0.038628414
228	0xbdf8f0f7	-0.121553354
229	0xbdb7d80f	-0.08976757
230	0xbbb572bd	-0.0055373595
231	0x3dcee531	0.101023085
232	0xbc069556	-0.008214315
233	0xbbed946b	-0.007250359
234	0xbc22ba7c	-0.009932157
235	0x3dacf5f1	0.08445347
236	0x3d219ebc	0.03945802
237	0x3ca08af6	0.019597512
238	0x3dd96952	0.106157914
239	0x3e078673	0.13234882
240	0x3d9d11a3	0.076693796
241	0x3e028ade	0.12748286
242	0xbd0bd50c	-0.034138724
243	0x39fcbfa5	0.00048207972
244	0x3d26bcef	0.040707525
245	0x3db7b9e1	0.089710005
246	0x3b39bc80	0.0028341115
247	0x3dd1876c	0.10230908
248	0x3c20dc87	0.009818203
249	0xbd058817	-0.03260049
250	0xbbe1c23d	-0.00688961
251	0x3d337b0b	0.043818515
252	0xbe84223a	-0.25807363
253	0xbe3e8ffa	-0.1860961
254	0xbe09e888	-0.1346761
255	0xbe0f2009	-0.13977064

action_model._discrete_distribution.branches.0.weight f4 [3, 128]
0	0x3bf17310	0.007368453
1	0x3b8e3b53	0.004340568
2	0xbb2bc6e4	-0.0026211077
3	0x3bd1ccf5	0.0064026066
4	0xbcc7f3db	-0.024408272
5	0x3afe0085	0.0019378817
6	0xbbd291ab	-0.0064260564
7	0xbc73a988	-0.014871962
8	0xbb8efda5	-0.004363733
9	0xbc773677	-0.015088669
10	0x3af1508f	0.0018410849
11	0xbc1056af	-0.0088097295
12	0x3c320f96	0.010867974
13	0xbc0437b7	-0.008069924
14	0xbbdbcf35	-0.0067080506
15	0xba49a9d3	-0.0007692847
16	0x3c3913e8	0.01129625
17	0x3c7e6993	0.015528101
18	0x3bb6f2f0	0.0055831596
19	0x3b824414	0.0039754007
20	0x3b9032c5	0.0044005834
21	0x3c78b272	0.015179263
22	0xbb03bac0	-0.0020100325
23	0xbb285b47	-0.002568917
24	0x3c2b1c76	0.010443797
25	0xbc02037c	-0.007935401
26	0x3c8ecc6f	0.017431466
27	0xbbd7de0f	-0.0065877507
28	0x3bcbfb47	0.006225023
29	0xbc88a2cf	-0.016679196
30	0x3c366bb6	0.011134079
31	0xbc551468	-0.0130053535
32	0x3c27caa0	0.010241181
33	0xba4bbd4e	-0.0007772044
34	0x39e6a0ed	0.00043988918
35	0x3b694922	0.003559657
36	0x3b01599f	0.0019737256
37	0xbb00c3c2	-0.001964793
38	0xbad2837f	-0.0016060917
39	0xbcaef214	-0.021355666
40	0xbc949d3f	-0.018141387
41	0xbb6b6f1a	-0.0035924376
42	0xbb8dcbb4	-0.004327262
43	0x3ad961a0	0.0016584881
44	0xbc50d970	-0.012747154
45	0xbc6eaa38	-0.0145669505
46	0x3c3084f7	0.010773889
47	0x3be5a3a8	0.0070080347
48	0xbb840c97	-0.004029821
49	0x3b8fae8b	0.004384821
50	0x3c05d029	0.008167305
51	0xbb89d5c2	-0.00420639
52	0x3b11d273	0.0022250682
53	0xbb4170b5	-0.0029516642
54	0x3c0136a0	0.007886559
55	0x3bcfc355	0.006340424
56	0x3ba9f8b2	0.0051871175
57	0x3c277b6e	0.010222299
58	0x3b63880a	0.0034718537
59	0x3c1420fb	0.009041066
60	0x3c605fd8	0.013694726
61	0xbc81c33a	-0.015840162
62	0x3afa05ab	0.0019075176
63	0xbc424d25	-0.011859213
64	0x3c1d6086	0.0096055325
65	0xbbf82cbd	-0.0075736926
66	0x3c3785eb	0.011201362
67	0xbb432a35	-0.0029779796
68	0x3c49ae1e	0.012309579
69	0x3b8cb3e9	0.004293908
70	0x3c27bd4b	0.010238002
71	0x3b1c99ff	0.00238955
72	0xb8b78193	-8.750255e-05
73	0x3be12f2b	0.006872078
74	0xbc860259	-0.016358541
75	0xbb51dff2	-0.003202435
76	0x3bd29da5	0.006427484
77	0x3c5641f5	0.013077249
78	0x3cd3e2e5	0.025865028
79	0x3c57eba8	0.013178743
80	0xbbb1df1d	-0.0054282085
81	0xba820233	-0.0009918868
82	0x3b9531ec	0.0045530703
83	0x3c198be7	0.009371734
84	0xbc699e23	-0.014258894
85	0x3bbfcc81	0.005853236
86	0x3c1c1dab	0.009528558
87	0x3b0bbf5b	0.0021323774
88	0x3b89b5bf	0.004202574
89	0xbae34cb3	-0.0017341584
90	0x3c5f6c58	0.013636671
91	0xbb350668	-0.0027622227
92	0xbc256993	-0.010095972
93	0xbbaad2fd	-0.00521314
94	0x3c05d5f7	0.008168689
95	0x3c89985e	0.016796287
96	0xbbab3060	-0.0052242726
97	0xb86661f2	-5.4927492e-05
98	0x3c673613	0.014112013
99	0xbb3a229f	-0.0028401983
100	0xbb8c7195	-0.004286001
101	0x3c55cddf	0.013049572
102	0x3c60f74a	0.013730833
103	0xbb8ea26c	-0.0043528583
104	0x3bad0fb7	0.0052814144
105	0x3b480c5f	0.0030524952
106	0x3996c85f	0.00028759518
107	0xbbea8835	-0.0071573504
108	0x3b8ee507	0.0043607983
109	0x3a92a283	0.0011187348
110	0x3ba7822f	0.0051119546
111	0xbc85c052	-0.016327057
112	0xbb17b1f9	-0.0023146851
113	0xba97af71	-0.0011572671
114	0x3ca76f3f	0.020438788
115	0x3ba46e81	0.005018056
116	0x3bb653cd	0.005564189
117	0x3c0e9a37	0.00870376
118	0xbbf0885a	-0.007340473
119	0xbc6b60b0	-0.014366314
120	0xbc2686c4	-0.010163967
121	0x3ba942d5	0.0051654377
122	0x3b74f9a3	0.003738024
123	0xbb8dc257	-0.0043261456
124	0xba70e7a2	-0.00091897894
125	0x399bcd77	0.00029716987
126	0xbb9c2998	-0.0047657005
127	0x3c0e9a67	0.008703805
128	0xbb8bf4a9	-0.004271109
129	0xbba2327b	-0.0049498654
130	0xbb556b9b	-0.0032565359
131	0x3b58c992	0.003307913
132	0xbca4a94a	-0.020100255
133	0x3bc1b6ad	0.005911669
134	0xbbf02fcf	-0.007329918
135	0xbbe4d8a2	-0.0069838325
136	0xbbb83cff	-0.0056225057
137	0x3aaab9bf	0.0013025327
138	0xbbd7c105	-0.006584289
139	0xbba71a85	-0.005099597
140	0xbaedf0f8	-0.0018153479
141	0xb93b3702	-0.00017854202
142	0x3c111842	0.008855881
143	0x3b36d28b	0.002789649
144	0x3c1028ef	0.008798822
145	0xbc2a9a9d	-0.010412839
146	0x3b28f82b	0.0025782685
147	0xbbc7e05a	-0.006099743
148	0xbb9e3b64	-0.0048288573
149	0xbc4f5898	-0.0126554
150	0xbc027009	-0.007961282
151	0x3bb3368f	0.0054691504
152	0xb9ef478f	-0.00045638948
153	0xbbd4c718	-0.0064934604
154	0xbbef1367	-0.007296014
155	0x3b035b64	0.0020043487
156	0xbb956ced	-0.004560104
157	0x3c8e4f2f	0.017371742
158	0xbbb9a3fb	-0.0056653
159	0x3c0df8b3	0.008665252
160	0xbc0b29f1	-0.008493886
161	0x3b1eff8d	0.0024261207
162	0x3b26a531	0.0025428052
163	0x3b5bbfe5	0.0033531126
164	0x3b54d97b	0.0032478261
165	0x3c446f1b	0.01198938
166	0x3aec3723	0.0018021803
167	0x3b908ab9	0.0044110683
168	0xbc39bb17	-0.01133611
169	0xbc517463	-0.012784096
170	0xbb0b67e7	-0.0021271647
171	0xbbd3e3a0	-0.006466344
172	0x3c1e419d	0.009659198
173	0x3adf9b72	0.0017059876
174	0xb9435047	-0.00018626555
175	0x3ac086a6	0.0014688566
176	0x3c2baca7	0.010478175
177	0xbc24684b	-0.010034631
178	0x3b844ef8	0.004037734
179	0xbb119386	-0.0022213175
180	0xbc38fcff	-0.011290788
181	0xbbf53c60	-0.007484004
182	0xbc5a591d	-0.01332691
183	0x39c6bc5f	0.0003790585
184	0xbc01e647	-0.007928438
185	0xbc20ff00	-0.009826422
186	0x3ca319b3	0.019909715
187	0xba85e84b	-0.0010216323
188	0x3a99e9f6	0.00117427
189	0xbbd8f7eb	-0.006621351
190	0x3b318196	0.0027085296
191	0xbb99cd16	-0.0046936376
192	0xbcb296a1	-0.021800341
193	0xbc0e57d1	-0.008687929
194	0xbc08a0ef	-0.008339151
195	0x3b8a0e8e	0.004213161
196	0xbb001418	-0.0019543227
197	0x3bce26fb	0.006291268
198	0x3ccbbe8d	0.024871135
199	0xbac93e6f	-0.001535369
200	0xbc0018d3	-0.007818419
201	0x3bb90917	0.0056468355
202	0xbc0cc763	-0.008592459
203	0xbc09a777	-0.008401743
204	0xb9293b13	-0.00016139103
205	0x3bd78255	0.006576816
206	0x3cac120b	0.021004697
207	0x3c9ca8fb	0.019123545
208	0xbbb312b7	-0.0054648775
209	0xbab1f179	-0.0013575993
210	0x3bbc5c43	0.005748303
211	0xbb62c835	-0.0034604196
212	0xba37d622	-0.0007012804
213	0x3b0f9a45	0.002191202
214	0xbb9f855c	-0.0048681926
215	0xbbadd537	-0.005304958
216	0x3b9a7883	0.004714073
217	0xbc5c3b03	-0.013441804
218	0x3a64ef1d	0.00087331404
219	0xbc1b83b8	-0.009491853
220	0x3c59a598	0.0132841095
221	0x3c2156f3	0.00984739
222	0x3bdc8c4b	0.0067305914
223	0xbc05d9e3	-0.008169624
224	0x3bcf4915	0.0063258507
225	0xbb82bbb9	-0.0039896634
226	0xbc2ef8e5	-0.010679458
227	0x3a9305b3	0.0011216908
228	0x3c2ebd5c	0.010665264
229	0xbb8a504e	-0.004220999
230	0x3a2070af	0.0006120307
231	0xbc928aa8	-0.017888382
232	0x3bce2ac2	0.006291718
233	0xbbd2b045	-0.0064297044
234	0xbbee5d23	-0.0072742864
235	0x3cd838f2	0.026394341
236	0xbbc3b3a7	-0.005972344
237	0x3bc0e9e3	0.0058872565
238	0xbc3a8deb	-0.011386375
239	0x3bf8cb5b	0.0075926012
240	0x3c933a8e	0.017972257
241	0xbc85c263	-0.016328042
242	0x3a6b2c8a	0.00089711754
243	0x3c4a08b7	0.012331179
244	0x3c80c03f	0.01571667
245	0xbc0a2e3b	-0.008433874
246	0xbbd43af5	-0.006476755
247	0xbb091a11	-0.0020920078
248	0x3c078a76	0.008272758
249	0xba538e60	-0.0008070227
250	0xbb36ecff	-0.0027912257
251	0x3c493140	0.0122798085
252	0x3b529067	0.0032129528
253	0xbb0565c6	-0.002035485
254	0xbc665022	-0.014057191
255	0xba8382bb	-0.0010033468

action_model._discrete_distribution.branches.0.bias f4 [3]
0	0x00000000	0.0
1	0x00000000	0.0
2	0x00000000	0.0
