src/CyberHero/Assets/RL/results/MidBossTrain/MidBossAgent/MidBossAgent-3078.pt (torch, 157644 bytes, 13 tensors)

discrete_act_size_vector f4 [1, 2]
2.0 1.0
00000000: 0000 0040 0000 803f

network_body._body_endoder.seq_layers.0.weight f4 [128, 13]
0.06409383 -0.23719868 -0.053409647 -0.35668278 0.53515214 0.36722407 -0.18070124 -0.0060510268
-0.3171159 -0.05040832 -0.54696894 -0.04325997 -0.15217295 -0.15943182 0.11148547 -0.04120215
-0.19968718 0.20882323 -0.07222946 -0.101681635 0.18945281 0.44729635 0.11115701 0.12621683
0.20991403 0.27294093 0.020211764 0.08517215 -0.039446138 0.2146336 -0.06789347 -0.11469755
-0.24928968 0.2757928 -0.5350502 -0.36738104 -0.10775774 0.10663542 0.1263163 0.46204874
-0.07292921 -0.17559578 -0.12857391 -0.026858686 0.14976253 -0.11099035 0.6038171 0.14789644
0.11785905 0.2363408 0.078952 0.19801868 0.05314552 0.25414225 0.3614259 0.22398928
-0.24786997 0.07435469 0.2838347 -0.11561454 0.57254356 0.49447587 0.076726764 -0.26072717
-0.31555942 -0.0871241 -0.26546836 -0.4277227 -0.0020400323 -0.10528463 0.13231263 -0.036004983
-0.16037574 -0.46826935 -0.2554502 0.03895451 -0.16673668 -0.21951003 -0.3430831 0.38459638
0.07600497 0.15470278 -0.012993368 0.52739054 0.30876645 0.5647539 0.40775114 -0.13964543
0.37010357 -0.083718546 0.27113432 -0.016148873 0.16386865 0.1852438 0.40214908 -0.18333839
0.1022385 -0.4267855 -0.1780282 -0.14559582 0.53906214 0.1629146 0.27393427 0.15760233
0.5021657 0.18088458 0.055061135 -0.1775032 0.070402995 -0.53132045 -0.17495741 -0.10595562
-0.108804785 0.13949944 0.052318677 -0.017761495 0.28931403 0.02016845 -0.24918945 0.22867459
-0.104020044 0.04542777 0.11978365 0.082434714 -0.23569986 0.23373413 0.27218467 -0.2039805
0.33806673 -0.05229422 0.0036316318 0.058673166 0.1506944 0.32880828 -0.26070732 -0.75218785
0.0915862 0.1387526 0.12826723 0.22630145 0.22224028 0.768737 0.750649 -0.2841146
-0.106394656 -0.057935543 0.047152255 -0.05931346 0.24547035 -0.8396342 -0.6944302 -0.35698766
-0.7097809 0.10127415 -0.192759 -0.14481239 0.3251226 -0.09053052 -0.19671708 -0.41678265
-0.15480334 -0.14139731 -0.13280906 -0.057715755 0.06231223 -0.27625483 -0.07713261 -0.32836804
0.16004111 0.28922945 0.0638157 0.15173794 -0.068350494 -0.06864921 0.06943505 -0.3184721
-0.889451 0.052387644 0.7752983 0.6228302 0.18687451 -0.066871904 -0.30553788 -0.0355938
-0.12035132 -0.09589221 -0.26937118 0.45293358 0.1414154 -0.19717152 -0.0033239573 -0.04979525
0.48971292 0.041590646 0.4043569 -0.14187962 -0.062105183 0.409374 -0.19636136 -0.08515223
0.52091104 0.3104249 -0.18847695 -0.50905246 -0.006744119 -0.20849523 -0.23777366 -0.14867087
-0.40944192 0.34559137 0.31341848 0.5910303 0.023321131 -0.057846833 -0.10913435 -0.15370306
-0.21119294 0.2799845 -0.4259789 0.34837085 -0.03709004 -0.13889633 0.111693636 0.030490022
-0.116722666 0.036220994 -0.14393064 -0.19639677 -0.30520004 0.20531057 0.22594912 -0.21028014
0.064611465 0.45543265 -0.050812665 -0.35058352 -0.52219325 0.20904323 -0.02580777 -0.22889788
0.24311423 -0.05216635 0.20667744 0.33931875 -0.09753867 -0.059110086 -0.14302821 -0.36352098
-0.20841278 -0.039187174 -0.33333683 0.587703 0.12681906 -0.2533585 -0.19597068 -0.37666976
00000000: a043 833d 36e4 72be 13c4 5abd 209f b6be
00000010: bbff 083f cb04 bc3e bf09 39be b147 c6bb
00000020: 045d a2be f478 4ebd 2806 0cbf 5e31 31bd
00000030: 3ad3 1bbe 1842 23be 7e52 e43d 96c3 28bd
00000040: cc7a 4cbe c2d5 553e 0aed 93bd 763e d0bd
00000050: ebff 413e 0704 e53e 49a6 e33d fc3e 013e
00000060: b4f3 563e eabe 8b3e 2493 a53c bc6e ae3d
00000070: 4692 21bd e9c8 5b3e bb0b 8bbd 8de6 eabd
00000080: cb45 7fbe b734 8d3e 0df9 08bf 5e19 bcbe
00000090: 17b0 dcbd ac63 da3d 0f59 013e a791 ec3e
000000a0: e95b 95bd 61cf 33be e1a8 03be bf06 dcbc
000000b0: 595b 193e e94e e3bd c293 1a3f 2a72 173e
000000c0: 1660 f13d 5303 723e 96b1 a13d 69c5 4a3e
000000d0: 1eaf 593d ef1e 823e d10c b93e 725d 653e
000000e0: a0d1 7dbe 4647 983d c852 913e 51c7 ecbd
000000f0: 3792 123f f12b fd3e ec22 9d3d 087e 85be
00000100: 0191 a1be 1f6e b2bd 78eb 87be 78fe dabe
00000110: 10b2 05bb 789f d7bd f67c 073e f679 13bd
00000120: 8a39 24be 00c1 efbe 5eca 82be c48e 1f3d
00000130: 05bd 2abe 3dc7 60be 97a8 afbe d1e9 c43e
00000140: 7ea8 9b3d 686a 1e3e 23e2 54bc 1103 073f
00000150: a316 9e3e b693 103f c2c4 d03e 36ff 0ebe
00000160: 377e bd3e a174 abbd 1ed2 8a3e a44a 84bc
00000170: 2fcd 273e 8db0 3d3e 7ce6 cd3e 0fbd 3bbe
00000180: 6b62 d13d a183 dabe 064d 36be 1217 15be
00000190: faff 093f 16d3 263e 1d41 8c3e 8162 213e
000001a0: ee8d 003f cf39 393e c987 613d 66c3 35be
000001b0: 722f 903d 9e04 08bf 0928 33be 43ff d8bd
000001c0: 0bd5 debd f1d8 0e3e 1c4c 563d 8e80 91bc
000001d0: f820 943e 4e38 a53c 852b 7fbe ac29 6a3e
000001e0: 7608 d5bd 7812 3a3d 2151 f53d 88d3 a83d
000001f0: 4e5b 71be 0058 6f3e ca5b 8b3e 44e0 50be
00000200: 1517 ad3e 7732 56bd ac00 6e3b 4653 703d
00000210: a24f 1a3e 8f59 a83e 6e7b 85be 628f 40bf
00000220: 8c91 bb3d 2915 0e3e 7c58 033e 91bb 673e
00000230: f592 633e f3cb 443f 882a 403f 7877 91be
00000240: 71e5 d9bd d24d 6dbd b922 413d acf2 72bd
00000250: 945c 7b3e 44f2 56bf 2dc6 31bf 16c7 b6be
00000260: 33b4 35bf d268 cf3d 9e62 45be b349 14be
00000270: 7876 a63e 1168 b9bd 3470 49be 8964 d5be
00000280: c484 1ebe 75ca 10be 19ff 07be 5b67 6cbd
00000290: 1c3b 7f3d 4671 8dbe b4f7 9dbd db1f a8be
000002a0: d1e1 233e e215 943e ceb1 823d 3161 1b3e
000002b0: 58fb 8bbd f597 8cbd f733 8e3d c60e a3be
000002c0: 10b3 63bf 6d94 563d f379 463f cd71 1f3f
000002d0: 085c 3f3e 23f4 88bd 766f 9cbe ceca 11bd
000002e0: c17a f6bd 2363 c4bd 05eb 89be e9e6 e73e
000002f0: 33cf 103e 55e7 49be c0d6 59bb 1bf6 4bbd
00000300: a7bb fa3e f45a 2a3d de07 cf3e e448 11be
00000310: 0162 7ebd 7899 d13e f412 49be 4b64 aebd
00000320: 6d5a 053f 03f0 9e3e 1a00 41be 4351 02bf
00000330: c5fd dcbb c67f 55be f07a 73be 2d3d 18be
00000340: 5fa2 d1be 5af1 b03e 6378 a03e c34d 173f
00000350: f50b bf3c cdf0 6cbd d581 dfbd 5664 1dbe
00000360: f642 58be 215a 8f3e e819 dabe aa5d b23e
00000370: baeb 17bd d73a 0ebe a2bf e43d 36c6 f93c
00000380: 4b0c efbd 775c 143d 8e62 13be 3c1c 49be
00000390: 2e43 9cbe ef3c 523e 355f 673e ad53 57be
000003a0: 0453 843d 782e e93e f120 50bd af7f b3be
000003b0: 75ae 05bf 6e0f 563e d16a d3bc 3564 6abe
000003c0: f0f2 783e 62ac 55bd 40a3 533e 30bb ad3e
000003d0: 5bc2 c7bd 6b1d 72bd fd75 12be 6c1f babe
000003e0: 296a 55be bb82 20bd 20ab aabe b473 163f
000003f0: dbdc 013e 35b8 81be 8aac 48be dcda c0be

network_body._body_endoder.seq_layers.0.bias f4 [128]
0.0 0.0 0.0 0.0 0.0 0.0 0.0 0.0
0.0 0.0 0.0 0.0 0.0 0.0 0.0 0.0
0.0 0.0 0.0 0.0 0.0 0.0 0.0 0.0
0.0 0.0 0.0 0.0 0.0 0.0 0.0 0.0
0.0 0.0 0.0 0.0 0.0 0.0 0.0 0.0
0.0 0.0 0.0 0.0 0.0 0.0 0.0 0.0
0.0 0.0 0.0 0.0 0.0 0.0 0.0 0.0
0.0 0.0 0.0 0.0 0.0 0.0 0.0 0.0
0.0 0.0 0.0 0.0 0.0 0.0 0.0 0.0
0.0 0.0 0.0 0.0 0.0 0.0 0.0 0.0
0.0 0.0 0.0 0.0 0.0 0.0 0.0 0.0
0.0 0.0 0.0 0.0 0.0 0.0 0.0 0.0
0.0 0.0 0.0 0.0 0.0 0.0 0.0 0.0
0.0 0.0 0.0 0.0 0.0 0.0 0.0 0.0
0.0 0.0 0.0 0.0 0.0 0.0 0.0 0.0
0.0 0.0 0.0 0.0 0.0 0.0 0.0 0.0
00000000: 0000 0000 0000 0000 0000 0000 0000 0000
00000010: 0000 0000 0000 0000 0000 0000 0000 0000
00000020: 0000 0000 0000 0000 0000 0000 0000 0000
00000030: 0000 0000 0000 0000 0000 0000 0000 0000
00000040: 0000 0000 0000 0000 0000 0000 0000 0000
00000050: 0000 0000 0000 0000 0000 0000 0000 0000
00000060: 0000 0000 0000 0000 0000 0000 0000 0000
00000070: 0000 0000 0000 0000 0000 0000 0000 0000
00000080: 0000 0000 0000 0000 0000 0000 0000 0000
00000090: 0000 0000 0000 0000 0000 0000 0000 0000
000000a0: 0000 0000 0000 0000 0000 0000 0000 0000
000000b0: 0000 0000 0000 0000 0000 0000 0000 0000
000000c0: 0000 0000 0000 0000 0000 0000 0000 0000
000000d0: 0000 0000 0000 0000 0000 0000 0000 0000
000000e0: 0000 0000 0000 0000 0000 0000 0000 0000
000000f0: 0000 0000 0000 0000 0000 0000 0000 0000
00000100: 0000 0000 0000 0000 0000 0000 0000 0000
00000110: 0000 0000 0000 0000 0000 0000 0000 0000
00000120: 0000 0000 0000 0000 0000 0000 0000 0000
00000130: 0000 0000 0000 0000 0000 0000 0000 0000
00000140: 0000 0000 0000 0000 0000 0000 0000 0000
00000150: 0000 0000 0000 0000 0000 0000 0000 0000
00000160: 0000 0000 0000 0000 0000 0000 0000 0000
00000170: 0000 0000 0000 0000 0000 0000 0000 0000
00000180: 0000 0000 0000 0000 0000 0000 0000 0000
00000190: 0000 0000 0000 0000 0000 0000 0000 0000
000001a0: 0000 0000 0000 0000 0000 0000 0000 0000
000001b0: 0000 0000 0000 0000 0000 0000 0000 0000
000001c0: 0000 0000 0000 0000 0000 0000 0000 0000
000001d0: 0000 0000 0000 0000 0000 0000 0000 0000
000001e0: 0000 0000 0000 0000 0000 0000 0000 0000
000001f0: 0000 0000 0000 0000 0000 0000 0000 0000

network_body._body_endoder.seq_layers.2.weight f4 [128, 128]
0.10101621 0.017767783 -0.0061555887 0.15679665 0.11689785 -0.08558321 0.013687518 -0.016953807
0.13731152 0.11481973 -0.15357074 0.101276286 -0.081502184 0.024404395 -0.16351256 -0.20421475
-0.06975501 -0.030073944 0.035483003 0.1889189 0.038879193 -0.055631116 -0.043049928 -0.026222784
0.047341064 -0.04924729 -0.037819337 0.024065189 -0.05417234 0.057020813 -0.1395575 0.05389288
-0.022787144 -0.06563374 0.16463539 -0.045604818 -0.075585075 0.07086592 0.11252499 0.10163044
-0.24163269 -0.059444256 -0.066587836 0.061182097 0.09811055 0.20962813 -0.108433664 0.026259627
-0.109 -0.104569905 0.12461875 -0.027394598 0.20039733 0.20194274 0.061106745 0.005398613
-0.04516329 0.05609593 0.11602672 0.010231673 0.03883589 -0.053866 -0.018656187 -0.00025420325
0.13015777 0.13298754 0.022754008 0.16870636 -0.009581425 -0.11769343 -0.09050709 0.13699347
0.053429637 -0.021147864 -0.18484394 -0.00027348424 -0.017556274 -0.021214115 0.01637611 -0.1583814
0.09342283 -0.019511178 -0.03584766 -0.089260586 0.053793304 -0.0378617 0.1932088 -0.078274995
0.031107785 -0.04503853 -0.035164252 0.027468286 -0.058310784 -0.05700611 0.03442952 -0.24165441
0.118627615 -0.0681412 0.065666266 -0.269035 -0.13726136 0.08833452 -0.024490414 -0.00524519
0.052260537 -0.021993944 -0.05012115 -0.16311473 0.007059398 -0.0423405 -0.099878 0.20940693
0.022535466 -0.111282 -0.024685346 -0.08776786 -0.024430713 -0.041931737 -0.19347626 0.20161062
-0.049847957 0.009685588 0.14620443 -0.14184473 -0.15690593 -0.11957551 -0.009789993 0.090875864
-0.032262146 -0.10053026 -0.042094965 0.031061718 -0.13931961 0.060241006 -0.18782555 -0.016782267
0.12861775 0.017768707 -0.00478255 -0.09442475 -0.068346895 -0.057381738 -0.060778968 -0.051473044
0.095295005 0.05061936 0.1820864 0.0031574648 0.19046818 -0.005940731 0.096801996 -0.06502147
0.010078195 -0.040926002 0.025103116 0.027773406 -0.035022452 0.002997639 0.0060445317 0.010103093
-0.045027878 0.111308716 0.061001163 0.03096094 -0.10339141 0.008816389 -0.08538928 -0.20273633
-0.010921536 0.08243786 -0.15291576 0.014351474 0.044035044 -0.014438757 0.06266444 -0.11561644
0.0007957651 0.0066035953 -0.050889727 0.048680563 0.14183016 -0.16098636 0.07865478 0.17441596
-0.10170442 -0.069204584 0.0898991 0.06949044 0.07483341 -0.11537854 -0.1338778 0.075872704
0.11073199 0.05371589 -0.08665622 -0.044704054 -0.11995985 -0.02379624 -0.008985408 -0.06727016
-0.10718129 0.12094941 0.14668533 0.11550323 0.08734732 -0.037101384 0.04019147 -0.0855506
0.037363514 -0.016080903 -0.008903317 0.06963812 -0.054219406 0.029122313 0.061200473 -0.040845834
-0.066876814 -0.018860595 0.02324127 0.0989762 0.016666712 0.063457794 -0.08221852 -0.11170091
0.0840377 -0.14084393 0.01607248 -0.025351183 0.053629052 0.09216007 -0.06876261 0.017848486
0.009490382 -0.0369539 -0.18985559 -0.053196315 -0.038221363 0.0035790373 -0.017371345 -0.1664785
-0.060450085 0.22043313 -0.02117951 0.06797382 -0.03945004 0.06947633 0.07639934 0.08708788
0.010539373 0.061571367 -0.052753013 0.05932476 0.19584106 0.032250963 0.017448265 0.118276775
00000000: 96e1 ce3d be8d 913c d2b4 c9bb 4d8f 203e
00000010: 2468 ef3d 4046 afbd 9d41 603c b6e2 8abc
00000020: 649b 0c3e 9b26 eb3d a641 1dbe f169 cf3d
00000030: 9eea a6bd baeb c73c d66f 27be ac1d 51be
00000040: b7db 8ebd a25d f6bc a056 113d f573 413e
00000050: ca3f 1f3d 74dd 63bd 1f55 30bd 2ad1 d6bc
00000060: b4e8 413d 87b7 49bd 73e8 1abd 5c24 c53c
00000070: d1e3 5dbd a88e 693d 29e8 0ebe c8be 5c3d
00000080: 1bac babc fb6a 86bd 2e96 283e 1ecc 3abd
00000090: 59cc 9abd 2722 913d 8173 e63d 9f23 d03d
000000a0: 8f6e 77be d27b 73bd 345f 88bd 149a 7a3d
000000b0: 2fee c83d c2a8 563e 7812 debd 6e1e d73c
000000c0: 643b dfbd bf28 d6bd 1d38 ff3d a36a e0bc
000000d0: f534 4d3e 14ca 4e3e 114b 7a3d d9e6 b03b
000000e0: 24fd 38bd d9c4 653d 6b9f ed3d bfa2 273c
000000f0: 6212 1f3d 98a2 5cbd dcd4 98bc 9546 85b9
00000100: 1448 053e e32d 083e 9d66 ba3c 5cc1 2c3e
00000110: 69fb 1cbc 4109 f1bd c85b b9bd 0448 0c3e
00000120: 09d9 5a3d 493e adbc bb47 3dbe 6f62 8fb9
00000130: 2dd2 8fbc 39c9 adbc 3127 863c bc2e 22be
00000140: 7854 bf3d e8d5 9fbc ffd4 12bd 41ce b6bd
00000150: 5e56 5c3d df14 1bbd 87d8 453e a44e a0bd
00000160: c1d5 fe3c 527a 38bd 6408 10bd 2c05 e13c
00000170: 4ad7 6ebd 3d7f 69bd f805 0d3d 4174 77be
00000180: 09f3 f23d 9d8d 8bbd 097c 863d f5be 89be
00000190: 3e8e 0cbe bbe8 b43d 1fa0 c8bc d8df abbb
000001a0: 250f 563d a52c b4bc d64b 4dbd 8c07 27be
000001b0: 8652 e73b 3b6d 2dbd d68c ccbd c56e 563e
000001c0: 4c9c b83c d1e7 e3bd ec38 cabc a3bf b3bd
000001d0: eb22 c8bc 9dc0 2bbd a41e 46be 0473 4e3e
000001e0: 5f2d 4cbd 4db0 1e3c 9db6 153e bf3f 11be
000001f0: f3ab 20be 01e4 f4bd 3566 20bc 201d ba3d
00000200: 5025 04bd cfe2 cdbd c56b 2cbd 2575 fe3c
00000210: cda9 0ebe 46bf 763d 5755 40be f77a 89bc
00000220: 5fb4 033e ae8f 913c f0b6 9cbb c361 c1bd
00000230: 75f9 8bbd 1d09 6bbd 5ef3 78bd 66d5 52bd
00000240: 072a c33d 3f56 4f3d db74 3a3e 78ed 4e3b
00000250: 170a 433e 77aa c2bb 2040 c63d fa29 85bd
00000260: 031f 253c 06a2 27bd 0da5 cd3c 0e85 e33c
00000270: b473 0fbd 0974 443b 3511 c63b 7287 253c
00000280: 276f 38bd d3f5 e33d 5bdc 793d cca1 fd3c
00000290: e0be d3bd 9e72 103c 93e0 aebd 1d9a 4fbe
000002a0: 3ef0 32bc 2ed5 a83d f395 1cbe 7222 6b3c
000002b0: 175e 343d 8990 6cbc 3756 803d 50c8 ecbd
000002c0: e49a 503a f962 d83b bf71 50bd 4565 473d
000002d0: ed3b 113e 9cd9 24be c215 a13d 199a 323e
000002e0: 684a d0bd 22bb 8dbd 051d b83d 0151 8e3d
000002f0: 4242 993d 954b ecbd 4317 09be 2663 9b3d
00000300: 74c7 e23d 3105 5c3d d178 b1bd 991b 37bd
00000310: 83ad f5bd 55f0 c2bc 8837 13bc f0c4 89bd
00000320: dd81 dbbd 53b4 f73d ae34 163e f58c ec3d
00000330: 27e3 b23d 9ff7 17bd d09f 243d 2735 afbd
00000340: 7c0a 193d 19bc 83bc 38df 11bc 6e9e 8e3d
00000350: 2b15 5ebd eb91 ee3c 59ad 7a3d f64d 27bd
00000360: b6f6 88bd 8981 9abc 7a64 be3c 09b4 ca3d
00000370: a188 883c 29f6 813d 2f62 a8bd 72c3 e4bd
00000380: f51b ac3d 6439 10be 6faa 833c 49ad cfbc
00000390: 23aa 5b3d 6bbe bc3d 69d3 8cbd fd36 923c
000003a0: 8c7d 1b3c f95c 17bd 8169 42be 61e4 59bd
000003b0: 018e 1cbd 488e 6a3b 5a4e 8ebc 5779 2abe
000003c0: 829a 77bd 39b9 613e a780 adbc dc35 8b3d
000003d0: 5d96 21bd 9b49 8e3d 4277 9c3d 215b b23d
000003e0: 56ad 2c3c 4232 7c3d 8b13 58bd 85fe 723d
000003f0: 8f8a 483e 9619 043d aaef 8e3c 183b f23d

network_body._body_endoder.seq_layers.2.bias f4 [128]
0.0 0.0 0.0 0.0 0.0 0.0 0.0 0.0
0.0 0.0 0.0 0.0 0.0 0.0 0.0 0.0
0.0 0.0 0.0 0.0 0.0 0.0 0.0 0.0
0.0 0.0 0.0 0.0 0.0 0.0 0.0 0.0
0.0 0.0 0.0 0.0 0.0 0.0 0.0 0.0
0.0 0.0 0.0 0.0 0.0 0.0 0.0 0.0
0.0 0.0 0.0 0.0 0.0 0.0 0.0 0.0
0.0 0.0 0.0 0.0 0.0 0.0 0.0 0.0
0.0 0.0 0.0 0.0 0.0 0.0 0.0 0.0
0.0 0.0 0.0 0.0 0.0 0.0 0.0 0.0
0.0 0.0 0.0 0.0 0.0 0.0 0.0 0.0
0.0 0.0 0.0 0.0 0.0 0.0 0.0 0.0
0.0 0.0 0.0 0.0 0.0 0.0 0.0 0.0
0.0 0.0 0.0 0.0 0.0 0.0 0.0 0.0
0.0 0.0 0.0 0.0 0.0 0.0 0.0 0.0
0.0 0.0 0.0 0.0 0.0 0.0 0.0 0.0
00000000: 0000 0000 0000 0000 0000 0000 0000 0000
00000010: 0000 0000 0000 0000 0000 0000 0000 0000
00000020: 0000 0000 0000 0000 0000 0000 0000 0000
00000030: 0000 0000 0000 0000 0000 0000 0000 0000
00000040: 0000 0000 0000 0000 0000 0000 0000 0000
00000050: 0000 0000 0000 0000 0000 0000 0000 0000
00000060: 0000 0000 0000 0000 0000 0000 0000 0000
00000070: 0000 0000 0000 0000 0000 0000 0000 0000
00000080: 0000 0000 0000 0000 0000 0000 0000 0000
00000090: 0000 0000 0000 0000 0000 0000 0000 0000
000000a0: 0000 0000 0000 0000 0000 0000 0000 0000
000000b0: 0000 0000 0000 0000 0000 0000 0000 0000
000000c0: 0000 0000 0000 0000 0000 0000 0000 0000
000000d0: 0000 0000 0000 0000 0000 0000 0000 0000
000000e0: 0000 0000 0000 0000 0000 0000 0000 0000
000000f0: 0000 0000 0000 0000 0000 0000 0000 0000
00000100: 0000 0000 0000 0000 0000 0000 0000 0000
00000110: 0000 0000 0000 0000 0000 0000 0000 0000
00000120: 0000 0000 0000 0000 0000 0000 0000 0000
00000130: 0000 0000 0000 0000 0000 0000 0000 0000
00000140: 0000 0000 0000 0000 0000 0000 0000 0000
00000150: 0000 0000 0000 0000 0000 0000 0000 0000
00000160: 0000 0000 0000 0000 0000 0000 0000 0000
00000170: 0000 0000 0000 0000 0000 0000 0000 0000
00000180: 0000 0000 0000 0000 0000 0000 0000 0000
00000190: 0000 0000 0000 0000 0000 0000 0000 0000
000001a0: 0000 0000 0000 0000 0000 0000 0000 0000
000001b0: 0000 0000 0000 0000 0000 0000 0000 0000
000001c0: 0000 0000 0000 0000 0000 0000 0000 0000
000001d0: 0000 0000 0000 0000 0000 0000 0000 0000
000001e0: 0000 0000 0000 0000 0000 0000 0000 0000
000001f0: 0000 0000 0000 0000 0000 0000 0000 0000

action_model._discrete_distribution.branches.0.weight f4 [2, 128]
0.00062219566 -0.003609717 -0.00088382204 0.0066108867 0.005062125 0.0091943955 -0.0053567174 0.006205424
0.0082083 0.007776031 -0.007429411 -0.007411875 0.02024628 -0.0056283986 0.0067746337 -0.001193128
0.002887218 -0.014409411 -0.0036058668 -0.004474395 0.0025222327 0.009186762 0.0060538007 0.0018300072
-0.0037403926 -0.00096510333 0.009497257 -0.014827201 0.0097130025 0.0015016607 -0.0057229525 0.002021892
-0.0016951464 -0.0011290204 -0.016255511 0.0039993813 -0.013544428 -0.004526783 -0.0006564612 0.003728826
0.0038253267 -0.00033206737 0.0023899437 0.004278636 -0.014416923 0.008186051 0.005574885 0.0041842824
-1.5543122e-06 0.00032645636 0.0120445 0.007227967 -0.011863251 -0.005701021 0.006345874 0.016963447
-0.0010623222 -0.004855986 0.0062010265 -0.01187685 -0.0020995259 -0.00549096 0.007643938 0.010302372
-0.009753997 -0.004385292 -0.012115892 0.009785394 -0.0018771334 -0.008875663 0.017662963 0.0052884314
-0.0022475447 0.0043489225 0.0009856451 0.0033402431 0.0054154373 -0.006569702 -0.013814159 -0.0018458813
-0.009266171 -0.00026900484 0.009956007 -0.00674484 0.0033194216 -0.0036126978 0.009402639 -0.010724804
-0.0057307766 -0.0054388633 -0.0012455477 0.0005521075 0.01031662 -0.010466684 -0.0073528425 0.005212037
-0.005057903 -0.0035126444 0.020926194 -0.0012014172 -0.0063157226 -0.008080578 -0.0034577977 -0.0014375041
-0.004638799 -0.0016180322 -0.0016202622 -0.0021363222 0.00069644646 -0.0076754126 -0.0026089733 -0.004051059
-0.009032707 0.0029899322 -0.0026692261 0.005289843 -0.0053993626 -0.019748278 -0.014027486 0.0024392528
-0.003931529 0.003888725 0.016504558 -0.0023159343 -0.0152400285 -0.007378192 -0.005011506 0.013885452
0.0045491843 0.012717962 0.0015706919 -0.0007526338 0.010023641 0.010998085 -0.0063451314 -0.0035616637
0.0015732128 -0.004352202 0.010555807 0.0041209864 0.0018045787 0.005551557 0.012162758 -0.0039829067
0.0064689997 -0.0056478246 0.008545906 -0.0024724049 0.011771626 -0.008879846 -0.0051965266 -0.008767332
0.007129299 0.001961844 -0.0039021228 -0.014024402 -0.0001977427 0.00784118 -0.004115259 -0.0022934843
0.0058456087 -0.014088129 0.0034841336 -0.0104733845 0.012824483 0.009158413 -0.0054810834 -0.010391478
0.001705066 0.0130274845 0.024346754 -0.006114606 -0.0028648847 -0.0046522273 0.010696806 -0.0047149207
0.0030532046 0.011766917 -0.007965861 -0.010278632 -0.009024818 -0.001067803 0.011903844 -0.0041219792
0.005683692 -0.0025849338 0.0043454296 -0.0025503912 -0.02140084 0.008306441 -0.0049073924 -0.008193883
-0.0021464555 -0.012835348 -0.005106419 -0.0154199675 -0.0075215846 0.011418693 0.005946485 -0.0060381046
-0.0015599139 0.008938692 -0.007736911 0.005069585 -0.0059742015 0.011864907 -0.017112812 -0.0046305656
0.003918435 -0.019603545 0.0067825215 -0.0056536696 0.007161911 0.0051764906 0.01726315 0.0045551616
-0.0017678597 -0.0044009294 0.013100127 0.0021682035 -0.003898335 0.0011955538 0.0057364483 0.0078371875
0.006459217 0.009792106 0.0011491728 0.0107409265 0.0031555684 0.013422767 0.0035499313 -0.018676395
-0.011856587 -0.015241059 0.0091240425 0.00040663878 0.0055602132 -0.012283688 0.0050633317 -0.0097973235
-0.026573515 -7.291627e-05 0.00479821 0.0036156476 0.0015663387 0.0033573054 -0.014036407 -0.0044789524
-0.0067212447 -0.016245095 0.0016495716 0.0014915653 0.003372871 0.008104939 0.0063590626 -0.009276161
00000000: d81a 233a 0091 6cbb 4bb0 67ba 23a0 d83b
00000010: 2fe0 a53b 17a4 163c 6787 afbb df56 cb3b
00000020: 1b7c 063c 13ce fe3b 6b72 f3bb 50df f2bb
00000030: 87db a53c 6e6e b8bb bffd dd3b bb62 9cba
00000040: 7b37 3d3b 7315 6cbc 6850 6cbb f29d 92bb
00000050: 0b4c 253b 1384 163c f65e c63b dadc ef3a
00000060: 6021 75bb fdfe 7cba 629a 1b3c caed 72bc
00000070: 4923 1f3c 5fd3 c43a 9b87 bbbb b881 043b
00000080: ad2f deba a3fb 93ba 472a 85bc 3e0d 833b
00000090: 73e9 5dbc 6855 94bb 5e16 2cba 525f 743b
000000a0: 55b2 7a3b 5419 aeb9 9aa0 1c3b cd33 8c3b
000000b0: f534 6cbc c91e 063c 86ad b63b 4e1c 893b
000000c0: c39d d0b5 3b28 ab39 4b56 453c 95d8 ec3b
000000d0: 155e 42bc a1cf babb 0df1 cf3b edf6 8a3c
000000e0: 9e3d 8bba f71e 9fbb fb31 cb3b 1f97 42bc
000000f0: 3398 09bb 83ed b3bb 007a fa3b 48cb 283c
00000100: 3bcf 1fbc 7fb2 8fbb bc81 46bc eb52 203c
00000110: 250a f6ba 3b6b 11bc ebb1 903c 944a ad3b
00000120: 8b4b 13bb 6881 8e3b c330 813a fbe7 5a3b
00000130: fb73 b13b a846 d7bb c854 62bc 80f1 f1ba
00000140: 23d1 17bc 3809 8db9 851e 233c d203 ddbb
00000150: a78a 593b 03c3 6cbb 870d 1a3c 17b7 2fbc
00000160: 3dc9 bbbb 7e38 b2bb a541 a3ba 4fbb 103a
00000170: 0a07 293c 747c 2bbc 1df0 f0bb bcc9 aa3b
00000180: c4bc a5bb 6534 66bb 696d ab3c df78 9dba
00000190: 1ff4 cebb 6764 04bc 389c 62bb a26a bcba
000001a0: 1101 98bb 2714 d4ba fa5e d4ba 8a01 0cbb
000001b0: bb91 363a 0782 fbbb 4ffb 2abb bfbe 84bb
000001c0: ebfd 13bc bdf2 433b 2fee 2ebb 6b56 ad3b
000001d0: 23ed b0bb 24c7 a1bc 8ad3 65bc dfdb 1f3b
000001e0: 0ed4 80bb fbd9 7e3b 9134 873c eec6 17bb
000001f0: 50b1 79bc c3c4 f1bb 8f37 a4bb cf7f 633c
00000200: 5311 953b 005f 503c addf cd3a 664c 45ba
00000210: 333a 243c 5031 343c d2ea cfbb cd6a 69bb
00000220: 4334 ce3a eb9c 8ebb 43f2 2c3c 5709 873b
00000230: 9d87 ec3a d6e9 b53b 4e46 473c 0b83 82bb
00000240: e7f9 d33b 6311 b9bb 2104 0c3c 1208 22bb
00000250: c7dd 403c c67c 11bc a047 aabb dba4 0fbc
00000260: e59c e93b 4892 003b c2ba 7fbb 9bc6 65bc
00000270: 2759 4fb9 4b78 003c 4bd9 86bb 484e 16bb
00000280: 858c bf3b e5d1 66bc 1056 643b 8f98 2bbc
00000290: c81d 523c 2b0d 163c a99a b3bb 0541 2abc
000002a0: 857c df3a 3b71 553c d872 c73c 085d c8bb
000002b0: cac0 3bbb b671 98bb a841 2f3c 9f7f 9abb
000002c0: 4618 483b 07ca 403c 3e83 02bc b567 28bc
000002d0: d5dc 13bc 86f5 8bba 5708 433c ab11 87bb
000002e0: 443e ba3b fe67 29bb 1b64 8e3b 7724 27bb
000002f0: d050 afbc bd17 083c 31ce a0bb a33f 06bc
00000300: 8cab 0cbb 5a4b 52bc bf53 a7bb 08a4 7cbc
00000310: a077 f6bb 7815 3b3c bbda c23b 4bdb c5bb
00000320: 0676 ccba 9773 123c ea85 fdbb c31e a63b
00000330: 3cc3 c3bb 0765 423c 2b30 8cbc 00bc 97bb
00000340: 3766 803b 9d97 a0bc ea3f de3b 6b42 b9bb
00000350: 77ae ea3b 8d9f a93b 736b 8d3c 7743 953b
00000360: 87b7 e7ba ac35 90bb eaa1 563c 6b18 0e3b
00000370: 357b 7fbb 21b4 9c3a d1f8 bb3b 8c67 003c
00000380: d7a7 d33b 126f 203c d79f 963a b6fa 2f3c
00000390: a7cd 4e3b 2aeb 5b3c f7a5 683b 3dff 98bc
000003a0: 2142 42bc a2b5 79bc 027d 153c 2232 d539
000003b0: 7332 b63b 8641 49bc 4eea a53b f484 20bc
000003c0: b3b0 d9bc a0ea 98b8 4e3a 9d3b 80f4 6c3b
000003d0: 9b4d cd3a 3d06 5c3b f5f8 65bc 2dc4 92bb
000003e0: e33d dcbb 6f14 85bc 7036 d83a a080 c33a
000003f0: 630b 5d3b 94ca 043c af5f d03b 0afb 17bc

action_model._discrete_distribution.branches.0.bias f4 [2]
0.0 0.0
00000000: 0000 0000 0000 0000

action_model._discrete_distribution.branches.1.weight f4 [1, 128]
0.005175196 0.016595831 0.0017357547 0.0054753195 0.0058300328 0.0016724806 0.007693493 0.009357302
0.012934572 0.0016887392 0.0032508112 -0.0055515775 0.010341491 -0.009186935 -0.0072547793 -0.009161779
-0.0057654805 0.017907545 -0.0009105216 2.4459383e-05 -0.008807111 0.015418172 0.0037743363 0.0048959386
-0.027821217 -0.010655249 -0.0028112025 0.008849486 -0.0057060192 0.0065981443 -0.008926083 -0.003857253
0.014799661 -0.0071720467 0.008024889 -0.012663597 -0.018791925 0.008478699 0.016352406 -0.0059990366
-0.007962495 0.008017196 0.020176595 -0.0009463259 0.0049157254 0.00039525004 -0.008782729 0.007257598
0.0013702086 -0.0019034416 -0.006563665 0.00653926 0.00786659 -8.0270824e-05 0.0050383992 0.013444853
0.0014679587 0.00048238863 0.01126296 -0.0043566944 0.009895689 -0.015983455 0.016443787 -0.006659942
0.008255945 -0.0005778726 0.016252004 0.0023943672 0.0055096913 0.005252442 0.020473195 0.0062561454
0.00988747 -0.0059347725 -0.015097017 0.012071493 0.0040535317 0.01005068 0.0025379742 0.0006582801
0.0058554746 0.006842097 -0.01810751 -0.0019825601 0.006094962 0.003028024 0.0027348404 -0.0020767392
0.007400673 -0.0062515656 -0.004079239 -0.007956375 -0.008109023 0.009845407 0.0024161292 0.00075055513
-0.007925216 -0.0125273345 0.0005322466 0.0018936404 0.0071797348 -0.011198888 -0.009901105 0.0004113073
0.0073090605 -0.0071263686 0.0014229008 0.004425814 -0.006804126 -0.0066593587 0.0004887331 -0.0051949336
-0.0063807904 0.0007248324 0.014167853 -0.0102853365 -0.004002914 -0.006995454 0.010727773 -0.002920919
0.00046769224 -0.0031079517 0.004726134 0.00058579136 0.0043389867 0.0013114763 -0.016033761 0.0037100017
00000000: b194 a93b fbf3 873c 4382 e33a 4f6a b33b
00000010: dc09 bf3b 2337 db3a b219 fc3b 5f4f 193c
00000020: 87eb 533c af58 dd3a 900b 553b 02ea b5bb
00000030: 5b6f 293c cc84 16bc 80b9 edbb 491b 16bc
00000040: 5bec bcbb d8b2 923c 12b0 6eba 202e cd37
00000050: b34b 10bc 809c 7c3c db5a 773b 1c6e a03b
00000060: 52e9 e3bc 5a93 2ebc 273c 38bb 6ffd 103c
00000070: 8ff9 babb 3f35 d83b b53e 12bc f7c9 7cbb
00000080: 477a 723c 7d03 ebbb d37a 033c fa7a 4fbc
00000090: 86f1 99bc 3eea 0a3c 7bf5 853c 9193 c4bb
000000a0: 2075 02bc 8f5a 033c 6349 a53c db12 78ba
000000b0: 1814 a13b 9039 cf39 6fe5 0fbc 25d1 ed3b
000000c0: 9298 b33a e77c f9ba 0314 d7bb 4a47 d63b
000000d0: dfe2 003c 1257 a8b8 2819 a53b cd47 5c3c
000000e0: 8568 c03a 1be9 fc39 4788 383c 9ac2 8ebb
000000f0: 8721 223c bcef 82bc 1fb5 863c a53b dabb
00000100: f143 073c 607c 17ba ec22 853c d1ea 1c3b
00000110: a48a b43b ad1c ac3b 67b7 a73c 5a00 cd3b
00000120: 0eff 213c 7b78 c2bb 7b59 77bc 83c7 453c
00000130: 7dd3 843b 9bab 243c 2454 263b 6e90 2c3a
00000140: 48df bf3b ab33 e03b 3356 94bc d7ed 01bb
00000150: 3fb8 c73b d071 463b 023b 333b e719 08bb
00000160: 5881 f23b efd9 ccbb 23ab 85bb 755b 02bc
00000170: b5db 04bc a14e 213c ec57 1e3b e7c0 443a
00000180: c4d8 01bc 733f 4dbc 7786 0b3a 0734 f83a
00000190: fb43 eb3b 8a7b 37bc 3f38 22bc bba4 d739
000001a0: d880 ef3b 5084 e9bb a180 ba3a 6b06 913b
000001b0: 25f5 debb c036 dabb 531e 003a 433a aabb
000001c0: f315 d1bb ae02 3e3a 4820 683c d483 28bc
000001d0: e02a 83bb 1f3a e5bb 8bc3 2f3c e46c 3fbb
000001e0: 9734 f539 c7ae 4bbb afdd 9a3b cb8f 193a
000001f0: 0f2e 8e3b d8e5 ab3a 3c59 83bc 8023 733b

network_body._body_endoder.seq_layers.0.weight f4 [128, 13]
0.027663574 -0.05057782 0.028661592 0.21155536 -0.54297745 0.20496598 0.025168413 0.061634783
0.6330057 0.19300155 0.1943235 0.063508414 0.17497994 0.11146257 -0.03790958 0.46203735
0.107201226 0.20061234 0.2778601 -0.21639408 -0.20415805 0.19510384 0.042225197 0.17605582
0.28997716 0.18095924 -0.5275636 0.29965377 0.18912536 -0.06399313 0.19127415 0.17417015
0.15582514 0.071925156 0.086449556 -0.14087166 -0.40137422 0.08042442 0.06440256 0.25253403
-0.4489867 0.41789582 0.596663 -0.36351472 0.015774753 0.02342075 -0.097232856 0.51245993
-0.084155984 -0.060854882 -0.0023230605 -0.3995259 -0.045804325 0.18424477 0.106300674 -0.28728554
-0.3423253 -0.12252588 -0.2764382 -0.0390897 0.23877782 0.0021412887 -0.011916925 0.15432562
-0.13775815 0.1814345 0.026144307 -0.14192374 -0.11098594 -0.8295723 0.053466108 -0.1950435
0.1631116 0.24996471 0.0056678117 0.07481952 0.004171809 0.18539605 -0.3444423 0.21249239
-0.109110326 0.5252567 0.19623621 0.27148688 0.019602133 0.1684516 -0.027288694 0.16128287
0.06978044 0.39600906 0.20154642 -0.0865838 0.1960698 0.09755226 0.19921347 0.42083496
0.48718935 0.08148306 -0.2526655 -0.5222125 0.16205606 -0.37283975 0.11432124 -0.2928722
0.23910737 0.1141409 0.3032536 -0.040122755 0.32970884 0.1033312 0.44814947 -0.22908865
0.013406724 -0.23164198 0.5272658 0.14794093 -0.17948315 -0.3940904 0.11464654 0.11380999
0.18521346 -0.23485965 -0.3911657 -0.29233918 -0.49099734 0.29298937 0.062050045 -0.2489084
-0.12563016 0.5056535 -0.24515197 -0.08742986 0.039075192 -0.11108989 -0.06352664 -0.34062123
-0.14648873 0.024330474 -0.42202678 -0.047753904 -0.19541149 0.36537808 -0.33693868 0.19078942
-0.23730735 0.03447896 0.048299767 0.0061715925 0.45206255 0.18081035 -0.21917441 0.694501
0.2236278 -0.08817185 0.20336701 -0.017694796 0.4347681 0.32070258 0.22564399 -0.109628595
0.54625565 0.36147413 0.25652272 -0.19203839 0.109200515 -0.10555429 -0.320715 -0.123277895
0.15143101 0.03536435 0.3721021 -0.31068498 -0.3017246 0.15248579 -0.091211386 -0.18088295
-0.39078352 0.11836649 0.41982254 0.3935107 -0.4201624 0.114361435 -0.55511683 -0.14312662
-0.07115629 0.71189135 0.16825947 0.16390002 0.54772943 -0.30550584 0.18398923 0.20279469
0.24954902 -0.04510325 -0.42782217 -0.015999941 0.3138428 0.1661455 -0.17443632 0.29063168
-0.10475244 -0.07357363 -0.018601552 0.390295 -0.02178772 -0.10988014 0.10075227 0.018267702
0.30418184 -0.27399907 0.16596031 0.15583587 -0.06759613 0.15821582 -0.111000754 0.2986514
0.2428538 -0.115347795 0.26596007 -0.17269355 -0.03765048 0.25610065 0.2125013 0.4618318
0.31583285 0.09700977 -0.33532283 -0.4001335 0.38034815 -0.13310577 0.0902727 0.16292286
-0.30078363 -0.21621904 0.050840072 -0.011963165 -0.46292266 -0.21334654 0.17445761 0.31241116
0.22278424 -0.14377175 0.05899381 0.162794 0.027468449 -0.29168478 -0.21380465 -0.017112207
0.19839698 0.29497322 -0.12663051 0.06147099 0.5947948 0.61452824 -0.17957698 0.3769435
00000000: b89e e23c b02a 4fbd b7cb ea3c f8a1 583e
00000010: 9200 0bbf 9ae2 513e fd2d ce3c c174 7c3d
00000020: a90c 223f 33a2 453e bdfc 463e b310 823d
00000030: f12d 333e 7d46 e43d 1347 1bbd 2990 ec3e
00000040: 518c db3d 526d 4d3e ae43 8e3e 6996 5dbe
00000050: cf0e 51be 4dc9 473e 54f4 2c3d fa47 343e
00000060: e377 943e 614d 393e 680e 07bf 386c 993e
00000070: 14aa 413e d50e 83bd 5fdd 433e a959 323e
00000080: a090 1f3e 7f4d 933d 770c b13d a940 10be
00000090: ec80 cdbe 8fb5 a43d 7de5 833d 244c 813e
000000a0: 96e1 e5be 71f6 d53e e8be 183f 9a1e babe
000000b0: 0e3a 813c dfdc bf3c 0522 c7bd 9330 033f
000000c0: f959 acbd f842 79bd 7d3e 18bb a98e ccbe
000000d0: 519d 3bbd a9aa 3c3e 2bb4 d93d 1717 93be
000000e0: 4345 afbe d9ee fabd 4f89 8dbe 851c 20bd
000000f0: 2c82 743e dd54 0c3b 353f 43bc 8907 1e3e
00000100: 7910 0dbe f7c9 393e 962c d63c 7554 11be
00000110: 994c e3bd da5e 54bf 47ff 5a3d 7cb9 47be
00000120: ba06 273e c0f6 7f3e 0db9 b93b fa3a 993d
00000130: acb3 883b 76d8 3d3e be5a b0be 9b97 593e
00000140: 3c75 dfbd 3977 063f 25f2 483e 5400 8b3e
00000150: a794 a03c 947e 2c3e 8a8c dfbc 5627 253e
00000160: 0ce9 8e3d b3c1 ca3e 2f62 4e3e d952 b1bd
00000170: 86c6 483e 7bc9 c73d 9efe 4b3e ae77 d73e
00000180: e270 f93e 97e0 a63d 5f5d 81be b8af 05bf
00000190: 06f2 253e dae4 bebe 4121 ea3d 58f3 95be
000001a0: 90d8 743e b4c2 e93d 0e44 9b3e c257 24bd
000001b0: 99cf a83e 4f9f d33d d973 e53e 3796 6abe
000001c0: e0a7 5b3c 8e33 6dbe e4fa 063f d47d 173e
000001d0: 6eca 37be 38c6 c9be cecb ea3d 3615 e93d
000001e0: 99a8 3d3e 0c7f 70be df46 c8be 7bad 95be
000001f0: 0164 fbbe b402 963e 3028 7e3d d8e1 7ebe
00000200: 31a5 00be 8272 013f 1e09 7bbe 6d0e b3bd
00000210: 4f0d 203d 1983 e3bd 411a 82bd e865 aebe
00000220: 2401 16be b450 c73c e513 d8be 9999 43bd
00000230: f319 48be d612 bb3e 3a83 acbe 4d5e 433e
00000240: b300 73be cf39 0d3d fad5 453d 123b ca3b
00000250: be74 e73e 5926 393e 426f 60be d1ca 313f
00000260: b0fe 643e 7193 b4bd 713f 503e adf4 90bc
00000270: ed99 de3e 2133 a43e 380f 673e f584 e0bd
00000280: 69d7 0b3f 2313 b93e f256 833e b6a5 44be
00000290: 85a4 df3d d92c d8bd c234 a4be 1f79 fcbd
000002a0: bb10 1b3e 35da 103d 2b84 be3e 1a12 9fbe
000002b0: a67b 9abe 3c25 1c3e 09cd babd 6139 39be
000002c0: c714 c8be 216a f23d fbf2 d63e 3c7a c93e
000002d0: 871f d7be 5436 ea3d 231c 0ebf c98f 12be
000002e0: 64ba 91bd 833e 363f 364c 2c3e 68d5 273e
000002f0: ff37 0c3f 436b 9cbe ac67 3c3e 69a9 4f3e
00000300: c789 7f3e 2fbe 38bd 820b dbbe 4f12 83bc
00000310: 01b0 a03e 0c22 2a3e 6f9f 32be adcd 943e
00000320: 7288 d6bd c5ad 96bd 4862 98bc bfd4 c73e
00000330: 297c b2bc d708 e1bd 3557 ce3d 26a6 953c
00000340: b9bd 9b3e 9b49 8cbe 80f1 293e 7093 1f3e
00000350: d76f 8abd 5403 223e 5d54 e3bd d6e8 983e
00000360: abae 783e 773b ecbd eb2b 883e 94d6 30be
00000370: 6437 1abd a01f 833e f199 593e 3875 ec3e
00000380: d8b4 a13e 0fad c63d 6faf abbe 4cde ccbe
00000390: febc c23e e14c 08be e5e0 b83d 40d5 263e
000003a0: 5000 9abe 8668 5dbe ae3d 503d 2701 44bc
000003b0: 3304 edbe 8477 5abe 04a5 323e 5bf4 9f3e
000003c0: 8d21 643e e738 13be 7ea3 713d 78b3 263e
000003d0: 8305 e13c b557 95be 9bef 5abe e62e 8cbc
000003e0: 9428 4b3e bb06 973e 6eab 01be 01c9 7b3d
000003f0: 7944 183f b951 1d3f 07e3 37be bdfe c03e

network_body._body_endoder.seq_layers.0.bias f4 [128]
0.0 0.0 0.0 0.0 0.0 0.0 0.0 0.0
0.0 0.0 0.0 0.0 0.0 0.0 0.0 0.0
0.0 0.0 0.0 0.0 0.0 0.0 0.0 0.0
0.0 0.0 0.0 0.0 0.0 0.0 0.0 0.0
0.0 0.0 0.0 0.0 0.0 0.0 0.0 0.0
0.0 0.0 0.0 0.0 0.0 0.0 0.0 0.0
0.0 0.0 0.0 0.0 0.0 0.0 0.0 0.0
0.0 0.0 0.0 0.0 0.0 0.0 0.0 0.0
0.0 0.0 0.0 0.0 0.0 0.0 0.0 0.0
0.0 0.0 0.0 0.0 0.0 0.0 0.0 0.0
0.0 0.0 0.0 0.0 0.0 0.0 0.0 0.0
0.0 0.0 0.0 0.0 0.0 0.0 0.0 0.0
0.0 0.0 0.0 0.0 0.0 0.0 0.0 0.0
0.0 0.0 0.0 0.0 0.0 0.0 0.0 0.0
0.0 0.0 0.0 0.0 0.0 0.0 0.0 0.0
0.0 0.0 0.0 0.0 0.0 0.0 0.0 0.0
00000000: 0000 0000 0000 0000 0000 0000 0000 0000
00000010: 0000 0000 0000 0000 0000 0000 0000 0000
00000020: 0000 0000 0000 0000 0000 0000 0000 0000
00000030: 0000 0000 0000 0000 0000 0000 0000 0000
00000040: 0000 0000 0000 0000 0000 0000 0000 0000
00000050: 0000 0000 0000 0000 0000 0000 0000 0000
00000060: 0000 0000 0000 0000 0000 0000 0000 0000
00000070: 0000 0000 0000 0000 0000 0000 0000 0000
00000080: 0000 0000 0000 0000 0000 0000 0000 0000
00000090: 0000 0000 0000 0000 0000 0000 0000 0000
000000a0: 0000 0000 0000 0000 0000 0000 0000 0000
000000b0: 0000 0000 0000 0000 0000 0000 0000 0000
000000c0: 0000 0000 0000 0000 0000 0000 0000 0000
000000d0: 0000 0000 0000 0000 0000 0000 0000 0000
000000e0: 0000 0000 0000 0000 0000 0000 0000 0000
000000f0: 0000 0000 0000 0000 0000 0000 0000 0000
00000100: 0000 0000 0000 0000 0000 0000 0000 0000
00000110: 0000 0000 0000 0000 0000 0000 0000 0000
00000120: 0000 0000 0000 0000 0000 0000 0000 0000
00000130: 0000 0000 0000 0000 0000 0000 0000 0000
00000140: 0000 0000 0000 0000 0000 0000 0000 0000
00000150: 0000 0000 0000 0000 0000 0000 0000 0000
00000160: 0000 0000 0000 0000 0000 0000 0000 0000
00000170: 0000 0000 0000 0000 0000 0000 0000 0000
00000180: 0000 0000 0000 0000 0000 0000 0000 0000
00000190: 0000 0000 0000 0000 0000 0000 0000 0000
000001a0: 0000 0000 0000 0000 0000 0000 0000 0000
000001b0: 0000 0000 0000 0000 0000 0000 0000 0000
000001c0: 0000 0000 0000 0000 0000 0000 0000 0000
000001d0: 0000 0000 0000 0000 0000 0000 0000 0000
000001e0: 0000 0000 0000 0000 0000 0000 0000 0000
000001f0: 0000 0000 0000 0000 0000 0000 0000 0000

network_body._body_endoder.seq_layers.2.weight f4 [128, 128]
-0.02302358 0.13143766 0.09306515 -0.04636755 0.099056885 0.05597178 0.046591565 -0.11463502
0.07236085 -0.076915026 -0.051768214 0.068643786 -0.051241994 0.0059424466 0.09851045 0.111037344
0.046917103 0.0009202719 0.04447904 0.15814728 -0.08482602 -0.042024396 0.13125841 0.07161623
-0.033776928 0.0540187 -0.11083466 -0.065467596 -0.06261304 -0.03160704 -0.018581055 -0.14795995
-0.07280712 -0.023424309 0.07822163 -0.021101186 0.05043693 -0.13525759 0.22602014 0.029106367
0.10757781 -0.002300703 0.1663985 -0.14305903 -0.11387438 -0.01421531 -0.020446656 -0.028504599
-0.12347156 -0.002277066 0.014194027 -0.08984566 -0.005424177 -0.0021270937 -0.017574098 0.09197705
0.114137374 0.075981066 -0.012705009 -0.12994765 0.018249953 0.05490839 0.012179355 -0.0753612
0.017386641 0.1383103 0.05309468 0.034690168 -0.083706155 0.016267443 0.05564976 -0.08341928
-0.09673258 0.05383989 -0.0041053784 0.13370077 -0.07325534 -0.0761987 0.09674065 -0.15258206
0.03205978 -0.070940204 0.19938755 0.117515445 -0.024059929 0.020811291 -0.14828967 -0.059543688
-0.067244194 0.093708545 -0.055794407 0.13796736 -0.07034268 -0.039078098 0.063369244 0.10752741
-0.1115104 0.07295245 0.06684839 0.14111575 -0.1722094 -0.092071526 0.021553477 -0.032020476
-0.10186451 -0.09454503 0.051711425 -0.050970513 -0.020380989 -0.014121419 -0.089971684 0.053661577
0.029090818 0.060302354 0.0744586 -0.2160015 -0.1017486 -0.018137734 -0.1369264 0.025648696
-0.052123297 -0.07624998 -0.050025377 0.024602925 -0.11920097 0.010377875 0.11346393 -0.011389327
-0.02831391 0.012762534 0.10397765 -0.13708009 -0.01699589 0.050911423 0.021167649 0.012202487
0.038511146 0.023700703 0.0060979296 -0.074101985 -0.1148867 -0.1720612 -0.093191326 0.024212366
0.016191717 -0.03923658 -0.09205114 -0.07771655 -0.16956198 0.08883364 -0.006848409 -0.15234874
0.08084066 -0.097205706 -0.117337614 0.0868129 0.10232611 0.17195901 0.060450543 0.1330736
0.13756284 -0.03644609 -0.039386164 -0.06359854 0.013146143 0.118794076 0.035315134 -0.021009587
-0.01275318 -0.01638441 0.12737635 0.05323816 0.0052925465 -0.01779989 -0.06693133 -0.048252612
-0.10590486 -0.010508636 -0.015819939 0.042185135 0.010853606 0.022880599 0.09819991 0.006369084
-0.12420773 0.08694313 0.023805957 -0.072589934 -0.0047654477 0.06831667 0.018255094 0.011268475
0.10103436 -0.030493887 0.03364697 -0.124813326 0.1363979 0.10740748 -0.0620427 0.09656551
0.009788431 0.17286858 -0.037863567 -0.07472208 -0.12697719 0.069656916 -0.076823294 -0.107865945
-0.11083791 -0.004937118 -0.023220504 0.022059413 -0.14274076 -0.0394338 0.09198801 0.060522415
0.010518637 0.22765952 0.015107399 0.0040993234 0.06826817 0.016044443 0.005225949 -0.04047114
-0.013919903 -0.094032705 -0.03423584 -0.028701501 0.006729329 -0.05264644 0.0025984978 -0.008815136
0.059770115 -0.047158796 0.00025909962 0.06501124 0.10065881 -0.035244286 -0.12075341 0.027332978
-0.031077344 -0.018013846 0.07295335 0.24956909 -0.049451686 -0.05078907 0.06626052 0.100515015
0.19958898 0.03847582 0.013455765 0.08158831 0.01917369 -0.02335039 0.025950188 -0.01711162
00000000: f29b bcbc 9897 063e f198 be3d e6eb 3dbd
00000010: 56de ca3d aa42 653d ccd6 3e3d c4c5 eabd
00000020: ed31 943d a085 9dbd e80a 54bd 1d95 8c3d
00000030: 20e3 51bd dbb8 c23b d9bf c93d 8c67 e33d
00000040: 262c 403d 673e 713a a72f 363d 5cf1 213e
00000050: 44b9 adbd c621 2cbd 9b68 063e 88ab 923d
00000060: ad59 0abd b642 5d3d 48fd e2bd e013 86bd
00000070: 443b 80bd 6276 01bd 4c37 98bc d082 17be
00000080: e61b 95bd 56e4 bfbc a932 a03d 65dc acbc
00000090: f496 4e3d f780 0abe d371 673e 7a70 ee3c
000000a0: c151 dc3d 64c7 16bb 5e64 2a3e 117e 12be
000000b0: f936 e9bd 55e7 68bc bf7f a7bc 7a82 e9bc
000000c0: a8de fcbd d43a 15bb 108e 683c 0001 b8bd
000000d0: 4bbd b1bb b666 0bbb 8ef7 8fbc 775e bc3d
000000e0: dbc0 e93d f69b 9b3d ac28 50bc ff10 05be
000000f0: ed80 953c 9fe7 603d eb8b 473c f956 9abd
00000100: 6e6e 8e3c 37a1 0d3e cf79 593d 4717 0e3d
00000110: 226e abbd 4d43 853c 01f1 633d bad7 aabd
00000120: bb1b c6bd 3787 5c3d 6986 86bb dbe8 083e
00000130: e506 96bd 100e 9cbd f61f c63d 793e 1cbe
00000140: 1e51 033d 1949 91bd 402c 4c3e f0ab f03d
00000150: 5419 c5bc 717c aa3c 3fd9 17be 15e4 73bd
00000160: 53b7 89bd 44ea bf3d ad88 64bd 5147 0d3e
00000170: d30f 90bd 5b10 20bd bcc7 813d 5537 dc3d
00000180: 915f e4bd 1868 953d cfe7 883d a680 103e
00000190: a957 30be ff8f bcbd eb90 b03c e727 03bd
000001a0: 579e d0bd d3a0 c1bd 5ccf 533d 75c6 50bd
000001b0: 08f6 a6bc 865d 67bc 1343 b8bd 3ecc 5b3d
000001c0: de4f ee3c 9aff 763d c07d 983d 7f2f 5dbe
000001d0: 9261 d0bd 9695 94bc 6f36 0cbe 371d d23c
000001e0: 3d7f 55bd f328 9cbd 69e7 4cbd 138c c93c
000001f0: a31f f4bd f607 2a3c c75f e83d 4d9a 3abc
00000200: 93f2 e7bc f319 513c 3cf2 d43d b95e 0cbe
00000210: f73a 8bbc 7f88 503d c767 ad3c f1ec 473c
00000220: ddbd 1d3d fa27 c23c 24d1 c73b c8c2 97bd
00000230: b849 ebbd d030 30be 18db bebd 0359 c63c
00000240: 7ea4 843c 89b6 20bd 4f85 bcbd db29 9fbd
00000250: a8a1 2dbe 69ee b53d 9e68 e0bb 4f01 1cbe
00000260: ca8f a53d c913 c7bd b44e f0bd f6ca b13d
00000270: 5a90 d13d 0616 303e fd9a 773d 7244 083e
00000280: 46dd 0c3e 7f48 15bd 6353 21bd f43f 82bd
00000290: ec62 573c 4f4a f33d 9aa6 103d 4c1c acbc
000002a0: b7f2 50bc 9938 86bc f26e 023e 4210 5a3d
000002b0: 196d ad3b 13d1 91bc 4b13 89bd 88a4 45bd
000002c0: a6e4 d8bd 6a2c 2cbc d198 81bc 52ca 2c3d
000002d0: 53d3 313c 1870 bb3c 091d c93d c0b3 d03b
000002e0: 9f60 febd 3d0f b23d b604 c33c 08aa 94bd
000002f0: 7927 9cbb 9ce9 8b3d b58b 953c 699f 383c
00000300: 1aeb ce3d 51ce f9bc 68d1 093d 219e ffbd
00000310: e4ab 0b3e 74f8 db3d 7c20 7ebd 23c4 c53d
00000320: a85f 203c 7604 313e d416 1bbd e407 99bd
00000330: 4f06 02be 49a8 8e3d 8855 9dbd d2e8 dcbd
00000340: fcfe e2bd 8cc7 a1bb ed38 bebc f1b5 b43c
00000350: a22a 12be 5685 21bd 3664 bc3d 5ae6 773d
00000360: 5c56 2c3c 941f 693e 0685 773c 9e53 863b
00000370: 2fd0 8b3d a36f 833c 703e ab3b 11c5 25bd
00000380: 4e10 64bc 3894 c0bd e13a 0cbd 691f ebbc
00000390: b481 dc3b cba3 57bd 8f4b 2a3b 5c6d 10bc
000003a0: 82d1 743d 9529 41bd c3d7 8739 9d24 853d
000003b0: 3526 ce3d 505c 10bd 904d f7bd 69e9 df3c
000003c0: ea95 febc c691 93bc 9168 953d 0a8f 7f3e
000003d0: da8d 4abd 3308 50bd 98b3 873d d1da cd3d
000003e0: 0e61 4c3e d298 1d3d 9275 5c3c c617 a73d
000003f0: 2412 9d3c 5149 bfbc 7d95 d43c ab2d 8cbc

network_body._body_endoder.seq_layers.2.bias f4 [128]
0.0 0.0 0.0 0.0 0.0 0.0 0.0 0.0
0.0 0.0 0.0 0.0 0.0 0.0 0.0 0.0
0.0 0.0 0.0 0.0 0.0 0.0 0.0 0.0
0.0 0.0 0.0 0.0 0.0 0.0 0.0 0.0
0.0 0.0 0.0 0.0 0.0 0.0 0.0 0.0
0.0 0.0 0.0 0.0 0.0 0.0 0.0 0.0
0.0 0.0 0.0 0.0 0.0 0.0 0.0 0.0
0.0 0.0 0.0 0.0 0.0 0.0 0.0 0.0
0.0 0.0 0.0 0.0 0.0 0.0 0.0 0.0
0.0 0.0 0.0 0.0 0.0 0.0 0.0 0.0
0.0 0.0 0.0 0.0 0.0 0.0 0.0 0.0
0.0 0.0 0.0 0.0 0.0 0.0 0.0 0.0
0.0 0.0 0.0 0.0 0.0 0.0 0.0 0.0
0.0 0.0 0.0 0.0 0.0 0.0 0.0 0.0
0.0 0.0 0.0 0.0 0.0 0.0 0.0 0.0
0.0 0.0 0.0 0.0 0.0 0.0 0.0 0.0
00000000: 0000 0000 0000 0000 0000 0000 0000 0000
00000010: 0000 0000 0000 0000 0000 0000 0000 0000
00000020: 0000 0000 0000 0000 0000 0000 0000 0000
00000030: 0000 0000 0000 0000 0000 0000 0000 0000
00000040: 0000 0000 0000 0000 0000 0000 0000 0000
00000050: 0000 0000 0000 0000 0000 0000 0000 0000
00000060: 0000 0000 0000 0000 0000 0000 0000 0000
00000070: 0000 0000 0000 0000 0000 0000 0000 0000
00000080: 0000 0000 0000 0000 0000 0000 0000 0000
00000090: 0000 0000 0000 0000 0000 0000 0000 0000
000000a0: 0000 0000 0000 0000 0000 0000 0000 0000
000000b0: 0000 0000 0000 0000 0000 0000 0000 0000
000000c0: 0000 0000 0000 0000 0000 0000 0000 0000
000000d0: 0000 0000 0000 0000 0000 0000 0000 0000
000000e0: 0000 0000 0000 0000 0000 0000 0000 0000
000000f0: 0000 0000 0000 0000 0000 0000 0000 0000
00000100: 0000 0000 0000 0000 0000 0000 0000 0000
00000110: 0000 0000 0000 0000 0000 0000 0000 0000
00000120: 0000 0000 0000 0000 0000 0000 0000 0000
00000130: 0000 0000 0000 0000 0000 0000 0000 0000
00000140: 0000 0000 0000 0000 0000 0000 0000 0000
00000150: 0000 0000 0000 0000 0000 0000 0000 0000
00000160: 0000 0000 0000 0000 0000 0000 0000 0000
00000170: 0000 0000 0000 0000 0000 0000 0000 0000
00000180: 0000 0000 0000 0000 0000 0000 0000 0000
00000190: 0000 0000 0000 0000 0000 0000 0000 0000
000001a0: 0000 0000 0000 0000 0000 0000 0000 0000
000001b0: 0000 0000 0000 0000 0000 0000 0000 0000
000001c0: 0000 0000 0000 0000 0000 0000 0000 0000
000001d0: 0000 0000 0000 0000 0000 0000 0000 0000
000001e0: 0000 0000 0000 0000 0000 0000 0000 0000
000001f0: 0000 0000 0000 0000 0000 0000 0000 0000

value_heads.value_heads.extrinsic.weight f4 [1, 128]
-0.062828414 -0.120482974 -0.1727043 0.17381594 0.19644952 0.03478157 0.16752762 0.18163516
-0.19843002 -0.03828083 -0.16516246 -0.018649295 0.2062148 -0.049806815 0.17984067 -0.13888578
-0.19740148 -0.071736895 0.0014993942 -0.11888665 -0.069599606 -0.19895084 -0.06416787 -0.21261111
-0.21053499 0.07039299 -0.0749157 -0.09563259 0.027809275 -0.19101068 -0.19677797 -0.09618052
-0.14959833 -0.14388564 0.017938973 -0.01651407 0.0506078 -0.13222823 -0.103181824 0.076460235
0.13027304 0.17828469 0.19576675 0.14422655 -0.040430605 0.12472787 0.11355937 0.017125811
-0.18185751 -0.12724277 -0.049704183 -0.1633933 0.16851027 -0.21411684 0.13957141 -0.089793615
-0.0053429143 -0.18722561 0.09313197 -0.12641744 -0.16288938 -0.12883691 -0.13614784 0.08394816
-0.10031584 -0.13265432 0.028742833 -0.08789824 -0.041738234 -0.08615168 -0.12396676 -0.086729884
-0.017130595 -0.019185657 0.0338973 0.14496827 -0.17784743 0.14835136 0.19641164 0.19584759
0.11723733 0.18270043 0.030065296 0.17528562 0.17801538 -0.21376064 -0.051644646 0.0081814565
-0.1330447 0.14204933 -0.14507526 -0.10176548 -0.07290178 -0.038069498 0.019247038 0.0020363852
0.17370127 -0.13588321 -0.071715385 0.12238035 -0.093832575 -0.05861338 0.11612632 -0.20785795
0.16037111 0.0016176315 -0.06878259 0.16822368 0.089266494 0.17283462 0.077478506 0.09041611
0.15538757 -0.17923501 -0.10417303 -0.12493126 0.0348053 0.19886805 0.21378946 0.20004039
-0.048117865 -0.004655498 0.07124476 0.123877406 -0.081869945 -0.0500569 -0.14770074 -0.0045088264
00000000: 2fac 80bd c7bf f6bd 65d9 30be cefc 313e
00000010: 102a 493e 1f77 0e3d 5c8c 2b3e 91fe 393e
00000020: 3d31 4bbe 5ccc 1cbd 5920 29be 68c6 98bc
00000030: f929 533e 3b02 4cbd 2728 383e 1338 0ebe
00000040: 9d23 4abe cbea 92bd 5287 c43a d87a f3bd
00000050: 3d8a 8ebd c5b9 4bbe 726a 83bd bab6 59be
00000060: 7c96 57be 332a 903d 676d 99bd 05db c3bd
00000070: 47d0 e33c 4e98 43be 2a80 49be 4bfa c4bd
00000080: 4e30 19be c256 13be c1f4 923c 8448 87bc
00000090: 204a 4f3d d666 07be fe50 d3bd 2f97 9c3d
000000a0: 4c66 053e 4390 363e 1477 483e 20b0 133e
000000b0: 909a 25bd 5371 ff3d d191 e83d 6e4b 8c3c
000000c0: db38 3abe ee4b 02be 9d96 4bbd 9350 27be
000000d0: f58d 2c3e 7241 5bbe cfeb 0e3e b7e5 b7bd
000000e0: 9d13 afbb 12b8 3fbe f9bb be3d 9373 01be
000000f0: 79cc 26be d3ed 03be 576a 0bbe 03ed ab3d
00000100: 6472 cdbd 89d6 07be 1776 eb3c fe03 b4bd
00000110: b6f5 2abd 4b70 b0bd 49e2 fdbd 709f b1bd
00000120: 7655 8cbc 3d2b 9dbc e5d7 0a3d 9072 143e
00000130: a31d 36be 6be9 173e 2220 493e 458c 483e
00000140: 201a f03d d215 3b3e 7f4b f63c 137e 333e
00000150: aa49 363e 12e4 5abe 5689 53bd 840b 063c
00000160: df3c 08be 6175 113e 9c8e 14be 6c6a d0bd
00000170: 874d 95bd c3ee 1bbd f7ab 9d3c e074 053b
00000180: bfde 313e f824 0bbe 84df 92bd 8da2 fa3d
00000190: 4b2b c0bd 9514 70bd a3d3 ed3d b7d8 54be
000001a0: 5338 243e b506 d43a e3dd 8cbd d442 2c3e
000001b0: 5ad1 b63d 8ffb 303e 0dad 9e3d 152c b93d
000001c0: eb1d 1f3e 6289 37be ab58 d5bd f6db ffbd
000001d0: 0190 0e3d 11a4 4b3e a0eb 5a3e 63d7 4c3e
000001e0: 3d17 45bd 268d 98bb c6e8 913d 70b3 fd3d
000001f0: 6eab a7bd 7708 4dbd dd3e 17be c7be 93bb
