src/CyberHero/Assets/RL/AgentNeuralNetwork/BossAgent1.onnx (onnx, 80274 bytes, 5 tensors)

network_body._body_endoder.seq_layers.0.weight f4 [128, 14]
00000000: 6db6 2fbc 4122 7f3e 3dde a9bd 0d54 713e
00000010: e4d7 07bd e5d5 5c3e 96bc 85be a0b3 163e
00000020: 444b fb3c 7c2b dbbe f8f4 963d ed47 103b
00000030: eda4 88be 44ef 05be d21d b43d 5870 93be
00000040: a4d8 78bd e58f 47be 6ff7 52be 2d5b 933e
00000050: 9cab 1cbe a789 2d3d eb3f 253d a95a 11bc
00000060: 0759 29be da15 44be b876 90be bb09 af3c
00000070: 373c 8a3d 3749 c3be 3a67 f33e b847 bcbe
00000080: e805 653d 52fa f43e 356e e83c 5dc2 b03e
00000090: dd6b 08bf 621a 91bd 33b9 803d c86a 02be
000000a0: 459c dfbe f8ec ef3e 67d5 05be 14e8 61be
000000b0: fc09 bdbe 5be2 543e b063 fc3e f829 033e
000000c0: b890 96be 6643 c9bc d6e6 11bf 655a 11be
000000d0: 7620 c7be e06a 23be 1793 28bc 86ea 9ebd
000000e0: d20f 0c3e 32ee 3a3d d470 e63d 7321 29bd
000000f0: 8085 d4be 153c 5dbe e157 583e b495 56bc
00000100: b7c3 84be f18d 323d 6b93 e7be 3eba 173d
00000110: b29e a23d 374c 443e c197 32be bf20 2abf
00000120: 12d8 933e bc5c 443f 219f 3e3d f495 a9be
00000130: 370c f5be 4590 aabe 4c6b 27be d92d ef3e
00000140: 3981 8f3e f6e8 a2be fac7 bdbd 9c07 6fbe
00000150: 7201 2a3d 43df d53b 94a6 79be 9afa 1dbf
00000160: 8053 623e b7c9 96bd 5bd6 a23e c192 423e
00000170: 6735 253e 351f f6bd cb4c c7be 5fde 813d
00000180: 5dbf a63d 8379 503e e968 833d 06a6 fa3e
00000190: 683c 5dbe 9f56 c03e 46ab b0bd bfb6 053e
000001a0: 752c 12bf 8132 9bbe 180d e8bd c27b 35bd
000001b0: 9a01 573e 0a7f ab3d c29d 443e 8d82 23be
000001c0: 0c5c a83e 8bf2 98be 4959 5c3e 35a6 923e
000001d0: 49d1 8e3e 994f c63e a853 153e 578e 46be
000001e0: a2b6 9a3e f8ab afbc 0f93 12be 61e1 063e
000001f0: a8b8 ef3d 1dbc df3e 0885 48be 0c04 b4be
00000200: 3e24 b03e bd2a 5ab9 318a ad3e 278b 69be
00000210: 0fdb 2c3e b96b 88be 24a8 71bd 7820 0cbf
00000220: 372f 08be 19b3 babb f1f2 d03e 762b 263e
00000230: 4914 06bd ef65 593e a4e0 01bd ba71 9dbe
00000240: 7806 fd3d 5c86 f6bb 2648 613d 7883 4a3e
00000250: b12b 593e b607 88bd 1f0c e13d 1ecb ba3e
00000260: 65c1 293e 0b98 c7be 91a9 64bc 974e b93e
00000270: 53ec c23d 43c7 17be 3dff b53e 93be 3bbe
00000280: a968 4dbe e86f 2e3f 2ed6 843e eaee 323e
00000290: 361a 2b3e 90ab a63e dfd8 8bbe dda2 ce3d
000002a0: 1ee7 2b3e 8470 9dbd eb6b 4dbe 3a94 87be
000002b0: f866 46be cf5a e63d 08bc 07bd 7d7d 593e
000002c0: 5be8 0b3e a4ab a1be e80f 5239 e75b aa3e
000002d0: 9de0 8ebe 6c54 dcbd 0a7d 293e 035a debd
000002e0: 9bdb 8f3e 2392 c23e c37f 133e d9b1 e73e
000002f0: 3284 a63e 89fe a53c 7472 dc3c 5ba6 febe
00000300: 8257 cebe 0179 393e 9045 e23d 231d dc3c
00000310: 96b6 2bbe 3722 dbbe 6711 11be 926c c83e
00000320: 583c 74be 95af 89be 14eb 1abd 19cc 583e
00000330: cfd6 3fbe f79c b23e 2d23 c33e 5af5 98be
00000340: 8fe9 0dbd a052 933e 4e08 1fbe a49b d5bd
00000350: b10e c63d 112b c5be 163e 80be 62f5 963e
00000360: dca9 99be bf41 adbc ba8d d4bd 0f9f b63e
00000370: af32 1c3e af77 6e3e 2439 3f3e dda3 8bbe
00000380: c584 be3e c575 bfbd dbd1 f2be 23d4 523d
00000390: 6f9f dcbd 5df2 ad3e c379 2ebe f9e2 d43d
000003a0: bfcd a7be 0a82 25be d888 08be 86ac 89bd
000003b0: ec34 71bd 7db8 053e 21ec bebd ad0e 64be
000003c0: ce6e bc3e bb0a 863e 3ccf 0f3f b43d 88be
000003d0: 6dca 313e ae0b 1dbd 4974 643e 5efc 68be
000003e0: 63b6 9ebd 0649 15be 269d 4d3d 3879 b7be
000003f0: 41d8 d5bc d788 1fbd 3d61 f13e a6b3 423e
-0.010724646 0.2491541 -0.08294342 0.23567219 -0.033164874 0.2156597 -0.26120442 0.14716959
0.030675538 -0.42806613 0.07370943 0.0022015527 -0.26688328 -0.13079554 0.0879475 -0.2879665
-0.06075348 -0.19488485 -0.20602201 0.287805 -0.15299839 0.042367604 0.04034416 -0.008871713
-0.16537867 -0.1914896 -0.28215575 0.021366945 0.06749766 -0.38141796 0.47539693 -0.36773467
0.055913836 0.4784723 0.028372863 0.34523287 -0.53289586 -0.0708511 0.06285324 -0.12736046
-0.43673912 0.4686048 -0.13069688 -0.22061187 -0.3692168 0.20789473 0.49294806 0.12808979
-0.29407287 -0.02456827 -0.5699285 -0.14194639 -0.38891953 -0.15958738 -0.010288975 -0.077595755
0.1367791 0.045637317 0.11251989 -0.041291665 -0.41508102 -0.2160495 0.21127273 -0.013097215
-0.2593057 0.043592397 -0.45229658 0.03704285 0.07940425 0.19169699 -0.17440702 -0.66456217
0.28875786 0.76704 0.046538476 -0.33122218 -0.47860882 -0.33313194 -0.16349524 0.46714666
0.28028277 -0.3181836 -0.09266658 -0.23342746 0.041505285 0.006526859 -0.24379951 -0.6171051
0.22102165 -0.07362693 0.31804165 0.19001295 0.16133653 -0.12017671 -0.38925776 0.06341242
0.081419684 0.20358853 0.064164944 0.4895479 -0.21605074 0.37566087 -0.08626418 0.13057993
-0.57099086 -0.3031197 -0.113306224 -0.044307478 0.20996705 0.0837384 0.19200805 -0.1596777
0.32882726 -0.29872546 0.21518435 0.2864243 0.27894047 0.38732603 0.14582694 -0.19390236
0.30217463 -0.021444306 -0.14313911 0.13171913 0.11705142 0.43698207 -0.19581997 -0.35159338
0.3440265 -0.00020806021 0.33894494 -0.22806989 0.16880439 -0.26644686 -0.058998242 -0.54737043
-0.13299261 -0.0056976196 0.4081035 0.16227517 -0.03273419 0.21230291 -0.031708375 -0.3075083
0.123547494 -0.007523341 0.055000447 0.19776714 0.21208073 -0.06642096 0.1098864 0.3648309
0.1657768 -0.38983187 -0.013956443 0.36192772 0.095177315 -0.14822106 0.35546294 -0.18334417
-0.20059456 0.68139505 0.25944656 0.17473951 0.16709217 0.32552767 -0.27313897 0.100896575
0.16787383 -0.07687476 -0.20060699 -0.26480275 -0.19375217 0.11247789 -0.033138305 0.21239276
0.13662855 -0.31576264 0.00020033086 0.3327324 -0.2790574 -0.1075829 0.16551605 -0.10857012
0.28097233 0.38002118 0.14404206 0.45252874 0.32522732 0.020262973 0.026910044 -0.49736294
-0.40301138 0.18112566 0.11048424 0.026869362 -0.1676887 -0.4279954 -0.14166795 0.39145333
-0.23851144 -0.2689177 -0.037821844 0.21171607 -0.18734287 0.3488538 0.38112774 -0.29874688
-0.034646567 0.28773975 -0.15530512 -0.10430077 0.09670771 -0.3850942 -0.25047368 0.29484087
-0.30012405 -0.021149514 -0.10378595 0.35668227 0.1525371 0.23287843 0.18674141 -0.27273455
0.3721067 -0.09348635 -0.47425732 0.05147184 -0.10772597 0.3397397 -0.17038636 0.10394854
-0.3277416 -0.16162887 -0.13333452 -0.06722359 -0.05888836 0.13058658 -0.09322382 -0.22271223
0.36803287 0.26180062 0.5617559 -0.26609576 0.17362376 -0.038341217 0.22309984 -0.2275252
-0.07749631 -0.14578637 0.050198697 -0.3583467 -0.026104094 -0.03894886 0.471445 0.19013843

network_body._body_endoder.seq_layers.0.bias f4 [128]
00000000: 0000 0000 0000 0000 0000 0000 0000 0000
00000010: 0000 0000 0000 0000 0000 0000 0000 0000
00000020: 0000 0000 0000 0000 0000 0000 0000 0000
00000030: 0000 0000 0000 0000 0000 0000 0000 0000
00000040: 0000 0000 0000 0000 0000 0000 0000 0000
00000050: 0000 0000 0000 0000 0000 0000 0000 0000
00000060: 0000 0000 0000 0000 0000 0000 0000 0000
00000070: 0000 0000 0000 0000 0000 0000 0000 0000
00000080: 0000 0000 0000 0000 0000 0000 0000 0000
00000090: 0000 0000 0000 0000 0000 0000 0000 0000
000000a0: 0000 0000 0000 0000 0000 0000 0000 0000
000000b0: 0000 0000 0000 0000 0000 0000 0000 0000
000000c0: 0000 0000 0000 0000 0000 0000 0000 0000
000000d0: 0000 0000 0000 0000 0000 0000 0000 0000
000000e0: 0000 0000 0000 0000 0000 0000 0000 0000
000000f0: 0000 0000 0000 0000 0000 0000 0000 0000
00000100: 0000 0000 0000 0000 0000 0000 0000 0000
00000110: 0000 0000 0000 0000 0000 0000 0000 0000
00000120: 0000 0000 0000 0000 0000 0000 0000 0000
00000130: 0000 0000 0000 0000 0000 0000 0000 0000
00000140: 0000 0000 0000 0000 0000 0000 0000 0000
00000150: 0000 0000 0000 0000 0000 0000 0000 0000
00000160: 0000 0000 0000 0000 0000 0000 0000 0000
00000170: 0000 0000 0000 0000 0000 0000 0000 0000
00000180: 0000 0000 0000 0000 0000 0000 0000 0000
00000190: 0000 0000 0000 0000 0000 0000 0000 0000
000001a0: 0000 0000 0000 0000 0000 0000 0000 0000
000001b0: 0000 0000 0000 0000 0000 0000 0000 0000
000001c0: 0000 0000 0000 0000 0000 0000 0000 0000
000001d0: 0000 0000 0000 0000 0000 0000 0000 0000
000001e0: 0000 0000 0000 0000 0000 0000 0000 0000
000001f0: 0000 0000 0000 0000 0000 0000 0000 0000
0.0 0.0 0.0 0.0 0.0 0.0 0.0 0.0
0.0 0.0 0.0 0.0 0.0 0.0 0.0 0.0
0.0 0.0 0.0 0.0 0.0 0.0 0.0 0.0
0.0 0.0 0.0 0.0 0.0 0.0 0.0 0.0
0.0 0.0 0.0 0.0 0.0 0.0 0.0 0.0
0.0 0.0 0.0 0.0 0.0 0.0 0.0 0.0
0.0 0.0 0.0 0.0 0.0 0.0 0.0 0.0
0.0 0.0 0.0 0.0 0.0 0.0 0.0 0.0
0.0 0.0 0.0 0.0 0.0 0.0 0.0 0.0
0.0 0.0 0.0 0.0 0.0 0.0 0.0 0.0
0.0 0.0 0.0 0.0 0.0 0.0 0.0 0.0
0.0 0.0 0.0 0.0 0.0 0.0 0.0 0.0
0.0 0.0 0.0 0.0 0.0 0.0 0.0 0.0
0.0 0.0 0.0 0.0 0.0 0.0 0.0 0.0
0.0 0.0 0.0 0.0 0.0 0.0 0.0 0.0
0.0 0.0 0.0 0.0 0.0 0.0 0.0 0.0

network_body._body_endoder.seq_layers.2.weight f4 [128, 128]
00000000: 54b9 05be 84ad d93c b7d9 41be 5100 393e
00000010: 4c24 d13d 9a5b ecbd 3523 9e3d e437 d53d
00000020: e8dd 41bd d8d2 2cbd 33b2 5abe 3c21 8ebc
00000030: e6f8 9bbd b3d4 40bd 40f8 15bd 58a3 b2bc
00000040: f64d 403d fe32 853d 91aa 423d 5fa8 193b
00000050: 7993 edbd 2049 013d 0de2 79bd e5b2 0abb
00000060: 66e1 463d 9a97 18bc 0a5a 88bd 68ed 523d
00000070: 5c29 a0bd 8222 7cbd 2c9f e13c 2775 4f3d
00000080: fd4f 573d b181 2a3d c73f 5ebd 5f5b 1a3d
00000090: 9668 713d d3ab 5c3d 23ae 66bd 169d f23c
000000a0: f341 833d 9860 2fbd 4106 3a3d 451b 883d
000000b0: 61f3 893c 85d5 e8bd 3d47 47be e8b1 4f3d
000000c0: 6e2f 16be f492 2fbd a0cc 7bbc db1a babb
000000d0: 781f 8cbd 6bf0 cd3c c1f2 3cbc 9689 38bd
000000e0: 35e6 ecbd dcbb 263e 2c9c 123e 4bc9 8ebd
000000f0: c30f 19bc c660 303d dfa3 753e cc19 0dbe
00000100: 746f bdbc 735f fabb 2c9c 953d 0153 313e
00000110: 4899 dbbd c739 00be e0cf a0bc 3388 0f3e
00000120: e2b8 9dbc e0f8 e33d 0904 45bd 52d8 e53d
00000130: 0a60 193d 4dbc 88bc d17b bc3c 85a9 08be
00000140: cb3b 203e db78 603c c345 95bd 6d70 fcbb
00000150: 2ff6 75bd 58ed 48bb bf03 1dbe b72f 38be
00000160: 0188 633d 76b7 963d bce0 0ebe 825d cb3d
00000170: 4bd3 643d 60d6 743d 84c7 1cbe d4e6 13be
00000180: 3034 10be 02cc 953d 35e5 233e 77b6 bebd
00000190: 8cc8 b7bd 4a23 79bc 4cbd 183c 710c 793d
000001a0: 2c03 d0ba 843a 2d3b e93b 4f3d d38f f73c
000001b0: a62c de3d a0dc 44bc bf92 49be b7c5 f3bd
000001c0: b5e7 3c3d 3681 973c 943f 1abc 3ecb 913d
000001d0: cc2f f9bd 81d8 16bc 6de8 8cbc 34e9 693d
000001e0: b9ba ba3c 116a 973d 58df 803d 74b3 70be
000001f0: 7774 6cbc b4de 7bbd 0490 b4bd b6c0 a13d
00000200: c14e 913d d984 13bd 5497 79bd c70f 273e
00000210: 8eb7 88bd 72ab ddbc 569a ef3d ecbe fb3d
00000220: 2d84 d5bc daac c0bd 6feb 14bd 696b ffbd
00000230: 401a d5bd a18d 0dbe a267 88bd 5d0b cd3c
00000240: f40e 6fbd 3175 4a3e c131 13be 1608 1d3d
00000250: a0c5 14bd 3678 d7bd 1f85 3d3e 66c2 723d
00000260: 081d e53c 307b 383d 4cf6 5cbb 92d0 bebc
00000270: 054e b2bd 50b8 c0bd 7f9c 62be 5739 533e
00000280: 46a5 b5bd 8333 973d 0354 8dbd 1851 e9bd
00000290: 1a13 ccbd e89a c5bc 7d04 9d3d 2561 b03d
000002a0: 86ad 4f3d 099a 05be 0473 81bd 4610 1dba
000002b0: 10af d63d 5915 07bb 1378 a9bd 49fb 933d
000002c0: 3376 54bc e7d8 56bc f254 56bd 9c40 b23d
000002d0: 9c27 f3bd 2894 0abd ec3a 1c3d 3382 46bc
000002e0: c875 30bc f9a6 933d 7f5f ea3b 334a 0b3c
000002f0: 4104 f0bc 0025 86bd c876 8d3d bd44 80bb
00000300: 5381 1fbe 3973 f9bc a3e5 85bc 1916 a8bd
00000310: 46f7 8d3d c239 fbbc f910 10be 26c6 c8bd
00000320: dba4 823d 7acb f23d 7f0d 01be ef45 e63d
00000330: 4e29 273d f1d1 073e 8f1e c3bc 70ca 91bd
00000340: 9f5a a23c 130d 1a3e 8d7f 4cbe b68b d63c
00000350: 1321 0b3d ea3b ec3d 4e13 9d3d 2f55 1b3e
00000360: 52cd 783c 3a94 05bd 3bb3 3dbd c870 c4bc
00000370: 1491 03be d4e5 fb3d 6c39 ee3d f29d e1bc
00000380: 384c 21be 2fed 603d 8ec9 983d be57 e4bc
00000390: 4b85 0b3d 8786 d2bc 3292 94bd 851a d93c
000003a0: d465 f03d 11f1 923b 1e69 fb3d a3f4 cabd
000003b0: 0762 febc f84c 1dbe eae4 363d a471 933d
000003c0: d80c b7bd 8892 1c3d fc4b 7ebc c205 e13c
000003d0: b93c 1dbd bcd7 ef3c 9b00 ec3d 2d96 1dbc
000003e0: 4ce2 8cbd e5f3 12bd 9eb8 503c 8285 3d3d
000003f0: 6bfa bd3c b832 fbbc 7f8a 203d 3769 a3bd
-0.13058978 0.026571997 -0.18930708 0.18066527 0.10212001 -0.11540909 0.07721559 0.10411051
-0.047330767 -0.042193264 -0.2135704 -0.017349832 -0.07615833 -0.047077846 -0.036613703 -0.021806404
0.04694935 0.065038666 0.047525946 0.0023446304 -0.11600394 0.031563878 -0.061006594 -0.0021163758
0.0485548 -0.009313488 -0.066577986 0.05149594 -0.07820389 -0.061556347 0.02754172 0.050648835
0.052566517 0.04162759 -0.05426004 0.037684795 0.05893763 0.0538748 -0.056318413 0.02961592
0.06409063 -0.04281673 0.04541612 0.06645826 0.016839685 -0.113688506 -0.19460769 0.050706774
-0.1466653 -0.042864755 -0.015368611 -0.005679471 -0.0684194 0.025139054 -0.011532486 -0.045053087
-0.11567346 0.162826 0.14317387 -0.06971987 -0.009342137 0.04306104 0.23988293 -0.13779372
-0.023124434 -0.007640773 0.07305178 0.1731682 -0.107225955 -0.1252204 -0.019630373 0.140168
-0.019253198 0.111314535 -0.04809955 0.112229005 0.037445106 -0.016691351 0.023008259 -0.13345917
0.15647809 0.013700689 -0.072886966 -0.007703832 -0.060049232 -0.0030659046 -0.1533346 -0.17986952
0.055549625 0.07359211 -0.13952917 0.099299446 0.055865567 0.059774756 -0.15310484 -0.14443523
-0.14082408 0.07314302 0.16005404 -0.09312146 -0.08973798 -0.0152061675 0.009322476 0.06080288
-0.0015870086 0.0026432583 0.050594244 0.030219948 0.1084836 -0.012015492 -0.19684885 -0.119029455
0.04611941 0.01849423 -0.009414572 0.071188435 -0.1216732 -0.009206892 -0.017200673 0.057107165
0.022794114 0.073932774 0.062925994 -0.23505956 -0.014432064 -0.061491683 -0.08816531 0.07898085
0.07095099 -0.036015365 -0.060935333 0.16314612 -0.06675635 -0.02705929 0.11699359 0.12292275
-0.026064003 -0.09407969 -0.03635734 -0.12471659 -0.104053974 -0.13823558 -0.066603914 0.025029832
-0.05836387 0.19771267 -0.14374448 0.03833779 -0.036321282 -0.10520975 0.18507813 0.059267424
0.027967945 0.045039356 -0.003371614 -0.023292813 -0.08706287 -0.09410155 -0.22130011 0.20627342
-0.08869414 0.07382872 -0.069007896 -0.113924205 -0.09964581 -0.024121717 0.07666872 0.08612279
0.050702594 -0.13047041 -0.063207656 -0.00059914996 0.10482609 -0.002061209 -0.082748555 0.07225663
-0.012967634 -0.013113237 -0.052327104 0.087037295 -0.11872789 -0.0338327 0.03814213 -0.012116003
-0.010770269 0.07209582 0.0071524973 0.008501577 -0.029298903 -0.06550026 0.06907421 -0.0039144442
-0.15576677 -0.03045045 -0.01634485 -0.0820734 0.06931929 -0.03066719 -0.14068975 -0.09803419
0.063791 0.11855216 -0.12602805 0.112438075 0.040810876 0.1326368 -0.023818282 -0.0711869
0.019818602 0.1504405 -0.19970532 0.026189666 0.03396709 0.11534865 0.07669698 0.15169214
0.015185671 -0.032612063 -0.046313506 -0.02397956 -0.12848312 0.122996956 0.11632046 -0.027541135
-0.15751731 0.054913696 0.074603185 -0.02787387 0.034062665 -0.025698913 -0.07254447 0.026501903
0.11738172 0.0044843038 0.12275909 -0.09909942 -0.031052602 -0.15361392 0.044651903 0.071994096
-0.089379966 0.03822568 -0.015521046 0.027468566 -0.038387988 0.029277675 0.11523553 -0.009618324
-0.068791 -0.035877127 0.012739329 0.0462699 0.023190698 -0.030663833 0.03919458 -0.079790525

action_model._discrete_distribution.branches.0.weight f4 [4, 128]
00000000: c7ac be3a b2ac 3f39 83de b3bb ea92 41bb
00000010: d8fa 2b3c 055d 0d3c 1dc4 6c3b 6cd7 913b
00000020: 0b4c 8b3c 78c0 52bb 3b6f 2bbc 120a efbb
00000030: 4b9d 47bc df6f 883c 5b67 5dbc b245 f73b
00000040: 1242 53b7 0b3e 283c 793f 8b3b cfc9 f83a
00000050: 02d4 d53b 2f91 a03c cb2e 5c3c 2dd3 973c
00000060: 6775 3bbc 2ac6 eebb 1ae5 dabb 64d3 aa3b
00000070: 5b45 8a3c f2cc 5bbb fea2 053c 82cc 0939
00000080: a91b ab3b 6b61 8bbb d8f2 18bc caf7 ecba
00000090: f312 dbbb 5279 553b 3af8 60bc 3a24 7ebb
000000a0: 7617 b9bb 1b29 86bc c0ba 533b 6645 173b
000000b0: 81d6 163b bfd7 04bc 7974 003b 67f2 c53b
000000c0: 6fbb be39 df13 1abc a7ef 973c b008 4a3c
000000d0: 86cc 2a3b 48a2 0bbc bb35 efba 2e30 3e3a
000000e0: 35d2 013c 87d3 9e3b b04a 243b 48f1 8d3c
000000f0: 1e7e 0c3c 3df9 45bc fba9 6a3c 5310 173b
00000100: c743 3b3c 26e0 863b 5afd 6a3b 471b f0ba
00000110: b0ed 543b ba88 563c 2b60 5aba e4b3 363c
00000120: de6b a43b 5e2b 9e3b 5031 713b 0182 8f3b
00000130: e397 9ebc af1b 83bc 18f6 af3c f6f6 08bc
00000140: 132b 023b 4af7 41ba cdf0 553b 1d40 c6bb
00000150: fba3 87bb 1eab 8b3b 2f09 db3b 72cc 6fbc
00000160: e82e d838 6f89 2fbc 1cef aebb 4221 dbbb
00000170: 27e9 4dbc fb1f a93c e399 66bc 5201 6dbb
00000180: 9397 a63c 47dd 18bb 3faa 423c 435a c83b
00000190: 2a3b d3bb 93c4 f5bb 20a7 df3b b334 363c
000001a0: 196c 36b9 c1c8 0abb c60e 16bc eb62 803b
000001b0: a99f 01bd 00c2 65bb a217 e1bb 07f7 433c
000001c0: 29a2 96bb 6f42 42bc ad13 863c 7f0c b8bb
000001d0: 8f68 343b 0356 aa3c 85ec d6bb 0002 cbbb
000001e0: 4365 80bc 90ef de3a cd5c be3b 4231 b83b
000001f0: 7b53 1cbc 03ab 453c 2c39 48bc ed28 7fbc
00000200: 7ce6 123c 4a78 9ebb 714a 203c 75df 603b
00000210: 7d6c 673b 13e7 de3a 4f5a be39 45e6 913c
00000220: f002 ebbb 4f60 deba 13a3 97bc 15e1 43bc
00000230: 10e1 65bc f32c 89bb 8642 0cbc 8bec 4c38
00000240: b269 9a3b f4b7 2fbc 779a 78bc aae4 573c
00000250: 50a9 0c3c 0ca4 9bbb 6df5 64bc f469 18bc
00000260: ee73 22bc bfd9 8c3a 7397 25bb 8363 07bc
00000270: 25d5 fbbb aebf b6bb 602b 4ebb 03f0 89bc
00000280: 986b 5fbc c778 a3bb 7e70 073b afef 513a
00000290: b593 f7ba 5896 e839 43e0 eebb a4a8 3fbc
000002a0: b475 903a a328 013c dd95 a0bb 4026 b13c
000002b0: a518 193c 8bb4 0cbc 8c19 203b 1baf cdb9
000002c0: a7ff a13b deea bd3c cf40 10bc 0ba3 a03a
000002d0: 8f87 abbb 1210 fc3a 8b5e fabb 69ae a43b
000002e0: f3cd 50bc 427e d8bb b404 2fbb 5b5c a0bb
000002f0: af33 23bb 2f9b 2f3c 7214 cbbb e27c 8c3c
00000300: 9384 84bb 3d0c fb3b 8ffb cd3b 15ce 66bc
00000310: 4bf6 913b 2aaf a2bc 41ad cc3b 10c7 6f3a
00000320: 5820 43bc 77d2 41bc 13d3 a43b 72e9 32bc
00000330: 8b48 02bc 2d46 1abc 8f28 21bb 8b25 6e3b
00000340: 5fd0 d53b 5a6c f13a 6e78 1f3b 2796 3fbb
00000350: 9a54 873a d6be 143c 6a13 37bb e33d d23b
00000360: e292 24bb 72e4 bb3b 4ff3 7db9 ca25 12b8
00000370: 82c6 913b fbd2 cdbb 5bab b53b 71fa 2c3c
00000380: 5b24 033c 37d0 5dbc 93ee 1d3c c1a3 303b
00000390: 7b21 18ba 9097 ecbb 8bbd 82bb 0068 eaba
000003a0: 9c0a 06bb 459e 10bc 9255 5cbb c326 29bc
000003b0: 7cd9 33bc 339f 8a3a 78ec 68bc 67a3 663a
000003c0: 5d24 653c 17fa 5dbc 9ea7 95bb 3077 8e3c
000003d0: 7af0 6abc 30ac 803c 7b23 e73b 780a 14bb
000003e0: ba62 e23b 0b2a b6bb 459f 42bc c7a5 9cba
000003f0: 87af 523c 15c0 d73b ba5b 72bb a3ff 9dbb
0.0014547341 0.00018279513 -0.005489172 -0.002953703 0.0104968175 0.008628135 0.0036127635 0.004450729
0.017004034 -0.0032158177 -0.010463531 -0.0072949016 -0.012183498 0.016654907 -0.013513411 0.00754615
-1.2591963e-05 0.010268698 0.00424951 0.0018981042 0.0065255174 0.019600479 0.013438891 0.018533314
-0.011441565 -0.0072868066 -0.006680143 0.005213188 0.016878774 -0.0033538905 0.008156536 0.00013141523
0.005221803 -0.0042535565 -0.009335242 -0.0018079218 -0.0066856085 0.0032573533 -0.013731057 -0.0038778917
-0.0056485487 -0.016377022 0.0032307357 0.0023082136 0.0023016038 -0.0081080785 0.0019600673 0.0060408595
0.00036379273 -0.009404152 0.018546892 0.012331173 0.0026061847 -0.008522578 -0.0018250266 0.0007255104
0.007923652 0.0048469934 0.0025068931 0.017326966 0.008574991 -0.012083349 0.014322753 0.0023050501
0.011429734 0.004116076 0.0035856576 -0.0018318676 0.0032490306 0.013094122 -0.000833037 0.011151288
0.0050177416 0.004826947 0.0036803074 0.0043795113 -0.019359535 -0.016004412 0.021479651 -0.008359661
0.00198621 -0.00073992147 0.003264475 -0.0060501234 -0.004139421 0.004262342 0.0066844444 -0.014636146
0.000103084196 -0.010713919 -0.0053385627 -0.0066873142 -0.012567795 0.020645132 -0.014074775 -0.0036164117
0.020335948 -0.002332525 0.01188141 0.0061142757 -0.006446262 -0.00750024 0.006825343 0.011120963
-0.00017397142 -0.0021176788 -0.009158796 0.003918042 -0.031646404 -0.003505826 -0.0068692723 0.011960751
-0.0045969677 -0.011856659 0.016366804 -0.005616724 0.0027528142 0.020792967 -0.006558957 -0.006195307
-0.015673285 0.0017008651 0.0058094026 0.0056211064 -0.009541388 0.012064698 -0.012220662 -0.015573722
0.008966085 -0.004836117 0.009783373 0.0034312878 0.0035312467 0.0017006121 0.0003630691 0.017809996
-0.007171981 -0.0016965958 -0.018510377 -0.011955519 -0.01403071 -0.0041862666 -0.008560782 4.8857688e-05
0.004712307 -0.01072501 -0.015173546 0.013177076 0.008585289 -0.0047497805 -0.01397453 -0.009302605
-0.009915335 0.0010746046 -0.0025267273 -0.008263472 -0.007685321 -0.005577049 -0.003145896 -0.01683808
-0.013636492 -0.004988763 0.0020666416 0.0008008433 -0.0018888625 0.00044362503 -0.0072899177 -0.011697922
0.0011021406 0.007883224 -0.0049006776 0.021624684 0.009344255 -0.008587967 0.002442929 -0.0003923111
0.004943806 0.023183282 -0.008804514 0.0012255622 -0.0052346657 0.0019230864 -0.007640665 0.005025674
-0.012744415 -0.006606848 -0.0026705684 -0.004893822 -0.0024902632 0.010718151 -0.0061975056 0.017149393
-0.0040441244 0.007661371 0.0062860916 -0.01408722 0.0044544092 -0.019858915 0.0062462394 0.0009146789
-0.011909567 -0.011829964 0.005030045 -0.0109199155 -0.007951866 -0.009416145 -0.0024590825 0.0036338295
0.006525084 0.0018419132 0.0024333256 -0.0029233785 0.0010324896 0.009078702 -0.0027935156 0.006416069
-0.0025111963 0.00573402 -0.000242186 -3.4844306e-05 0.004448713 -0.0062812543 0.005544109 0.010557757
0.008004273 -0.013538412 0.0096394 0.0026953074 -0.0005803329 -0.007220216 -0.0039898804 -0.0017883778
-0.00204531 -0.008826797 -0.003362034 -0.010324183 -0.010977145 0.001057601 -0.014216535 0.00087981526
0.01398572 -0.013548396 -0.0045671007 0.017390817 -0.014339561 0.015707105 0.00705379 -0.0022589248
0.006908742 -0.005559211 -0.011878793 -0.0011951261 0.012859232 0.0065841773 -0.0036980943 -0.004821734

action_model._discrete_distribution.branches.0.bias f4 [4]
00000000: 0000 0000 0000 0000 0000 0000 0000 0000
0.0 0.0 0.0 0.0
