src/CyberHero/Assets/RL/AgentNeuralNetwork/FlyDroneAgent.onnx (onnx, 77198 bytes, 5 tensors)

network_body._body_endoder.seq_layers.0.weight f4 [128, 9]
0	0xbcb060de	-0.021530565
1	0xbd0ea5bc	-0.034826025
2	0x3f09e96a	0.53871787
3	0x3dba4e78	0.09096998
4	0xbb23b823	-0.002498158
5	0x3d0fbf3d	0.03509449
6	0xbda6ba70	-0.08141029
7	0xbe74b76e	-0.23898098
8	0x3e29c64a	0.16579548
9	0xbde515cf	-0.111858
10	0xbed04127	-0.40674707
11	0xbdf1d524	-0.118082315
12	0xbcb68fc7	-0.022285355
13	0xbde4159c	-0.11136934
14	0x3cab30e7	0.020897342
15	0xbed4bf13	-0.41552028
16	0x3da8c556	0.08240764
17	0xbe7e59f3	-0.24839
18	0x3f6a7b54	0.91594434
19	0x3e3ddb9e	0.18540809
20	0xbd3fc0fc	-0.046814904
21	0xbf4edae4	-0.8080275
22	0xbe5b5c62	-0.2142196
23	0xbee4458a	-0.44584304
24	0x3eb08af2	0.34481007
25	0xbe8b9158	-0.27259326
26	0x3e77129e	0.24128196
27	0xbe8e6fa8	-0.27819562
28	0xbea00b13	-0.3125845
29	0x3ec82fb8	0.39098907
30	0xbe35c1ca	-0.17749706
31	0xbebf16c8	-0.37322068
32	0xbe6fda6f	-0.2342317
33	0xbdf7aa4e	-0.1209303
34	0x3e37181f	0.17880295
35	0x3ead740a	0.33877593
36	0xbe7395a8	-0.23787558
37	0x3cf70a34	0.030156232
38	0xbd4a4453	-0.049381565
39	0xbeaa4a14	-0.33259642
40	0xbf2183ab	-0.63091534
41	0xbf52d51c	-0.8235643
42	0x3e69c893	0.22830419
43	0x3e53ccb8	0.20683563
44	0x3d5a5690	0.05330521
45	0xbeff9c4f	-0.49923941
46	0x3caae65a	0.020861793
47	0x3e5a852b	0.21339862
48	0xbe57cd4a	-0.21074405
49	0x3db9af3e	0.09066628
50	0x3e1305b7	0.14357649
51	0x3dbf1a17	0.09331148
52	0xbe8f2d52	-0.27964264
53	0x3e826edc	0.25475204
54	0x3ea87250	0.32899714
55	0x3f16d156	0.5891317
56	0x3e5168e6	0.20450172
57	0xbe3d283e	-0.18472382
58	0xbe3057fe	-0.17221066
59	0x3f05cc7e	0.52265155
60	0x3dbb28c7	0.09138637
61	0xbe0d482a	-0.1379706
62	0xbeef3832	-0.4672256
63	0x3e07912e	0.13238975
64	0xbe19e41d	-0.15028425
65	0xbd887b96	-0.06664197
66	0xbe164598	-0.14674985
67	0x3f34687c	0.7047193
68	0xbe80028e	-0.2500195
69	0x3f1d37f3	0.61413497
70	0xbcfbff33	-0.030761337
71	0x3e08e872	0.13369921
72	0x3f030b0c	0.5118873
73	0xbedda180	-0.43287277
74	0x3eb1ee6c	0.34752214
75	0xbcb1e59c	-0.021715932
76	0xbeb179ae	-0.34663147
77	0x3de5cfa6	0.112212464
78	0xbe96e1dd	-0.29469195
79	0xbe29595c	-0.16537994
80	0xbe70b557	-0.23506676
81	0xbea8d1da	-0.32972604
82	0xbf221b70	-0.63323116
83	0x3e3bb886	0.18332109
84	0x3f551298	0.83231497
85	0x3f0a4984	0.54018426
86	0xbe6b0472	-0.22950915
87	0x3e3f163f	0.1866083
88	0xbe0b0834	-0.13577348
89	0xbf4aae0c	-0.79171824
90	0x3da8ccd7	0.08242195
91	0xbea311dc	-0.31849563
92	0xbe608ac7	-0.2192794
93	0xbe275bfa	-0.1634368
94	0x3eb61eab	0.35570273
95	0xbe7ad943	-0.24496941
96	0x3d51795c	0.051141128
97	0x3dd69b7a	0.104788736
98	0xbd3afbc2	-0.04565025
99	0xbf0038e5	-0.50086814
100	0xbef98e70	-0.48741484
101	0xbd826912	-0.06367697
102	0x3e22d7c4	0.1590262
103	0x3d32c87e	0.043648235
104	0x3f035287	0.512978
105	0x3f385f47	0.7202038
106	0xbd1a4fe2	-0.03767384
107	0x3f3c900c	0.736573
108	0x3e9b1e87	0.30296728
109	0x3e0837e0	0.13302565
110	0x3dcaee33	0.09908714
111	0xbe03ace6	-0.12858924
112	0x3da16312	0.07880224
113	0x3ec097b0	0.37615728
114	0x3ee63b16	0.44966954
115	0x3e29c2a5	0.16578157
116	0xbee8ee5b	-0.4549435
117	0x3c061cf8	0.008185618
118	0xbda1b7b1	-0.078963645
119	0xbd8de4c2	-0.06928398
120	0xbe65bf0a	-0.22436157
121	0xbe9a7eb4	-0.30174792
122	0x3ee5bad8	0.44869113
123	0x3e8a3128	0.26990628
124	0x3e31d652	0.17366913
125	0xbdc664f6	-0.096872255
126	0xbe9561ca	-0.2917617
127	0xbee9050c	-0.45511663
128	0x3ee948e6	0.4556343
129	0x3edf478a	0.43609267
130	0x3f11fd64	0.5702727
131	0xbd2ed6cb	-0.04268531
132	0xbec262d3	-0.37966022
133	0xbd8afb68	-0.06786233
134	0x3ddaa7ee	0.10676561
135	0xbedff0d4	-0.43738425
136	0xbe4d1173	-0.20026188
137	0xbe2117a7	-0.15731679
138	0x3b923204	0.0044615287
139	0xbf0f37fd	-0.55944806
140	0x3e20c4aa	0.15700021
141	0x3dc7c5e2	0.0975454
142	0xbdc8029f	-0.09766125
143	0xbe9aeecb	-0.3026031
144	0xbd590b74	-0.05298944
145	0xbecf1b46	-0.40450495
146	0x3ea3ae72	0.3196903
147	0x3e9296f0	0.2863078
148	0x3edb59ee	0.42842048
149	0xbf14842b	-0.5801417
150	0x3c7b4dca	0.015338371
151	0xbe99441a	-0.2993477
152	0x3ed1dd03	0.4098893
153	0xbedbbba6	-0.42916602
154	0xbe81092b	-0.25202307
155	0x3dca5767	0.09879952
156	0x3e9e81a2	0.30958277
157	0x3e4a1fe3	0.19738726
158	0x3ec2fa74	0.38081706
159	0xbdaffd53	-0.0859324
160	0x3ec6d968	0.38837743
161	0xbd5bede3	-0.053693663
162	0xbd9f5054	-0.07778993
163	0x3da2f967	0.07957726
164	0xbe8774cc	-0.26456296
165	0x3e7384d8	0.23781145
166	0xbdcf4b88	-0.10121828
167	0x3ee8f482	0.45499045
168	0xbdd6cffa	-0.10488887
169	0xbe7baf76	-0.24578652
170	0x3e54c528	0.20778334
171	0xbdd7d8dc	-0.105394095
172	0x3e9e5ba2	0.30929285
173	0x3f156fd8	0.58373785
174	0xbeb62957	-0.35578415
175	0xbe2ca592	-0.16860035
176	0xbe037551	-0.12837721
177	0xbe907f40	-0.28222084
178	0x3f3a9e97	0.7289824
179	0x3db7f81c	0.0898287
180	0xbdbd3dec	-0.09240326
181	0x3d6af8c3	0.057366144
182	0xbf18e5be	-0.5972556
183	0x3e1a057c	0.15041155
184	0xbddd5617	-0.10807436
185	0x3e69a4bc	0.22816747
186	0xbf526900	-0.8219147
187	0xbe76230b	-0.24036805
188	0x3debcf44	0.11514142
189	0x3c8f8d4a	0.017523427
190	0x3eb1c8bb	0.34723458
191	0x3e84a48a	0.25906783
192	0x3ebeb987	0.3725092
193	0xbd9b94ee	-0.075967655
194	0x3d535190	0.051591456
195	0x3dcd1d1c	0.10015318
196	0x3df36bfa	0.11885829
197	0xbe0b033c	-0.13575453
198	0xbeeea754	-0.46612036
199	0x3e9354b2	0.28775555
200	0xbeec9d3e	-0.46213716
201	0xbe83903b	-0.25695977
202	0xbe3bc53b	-0.18336956
203	0xbf3fe476	-0.7495798
204	0x3d19d94c	0.037560746
205	0x3f1da914	0.6158612
206	0xbec81e28	-0.39085507
207	0xbda8a182	-0.0823393
208	0x3aa5694b	0.0012619881
209	0x3e0e5e8e	0.13903257
210	0x3e04882a	0.12942567
211	0x3d8faa30	0.070148826
212	0x3f1a2be2	0.6022321
213	0xbe95ab6e	-0.29232353
214	0x3f53a5a4	0.8267462
215	0xbe45101c	-0.19244426
216	0xbf3833a2	-0.71953785
217	0xbe4af214	-0.19818908
218	0x3e29b434	0.16572648
219	0x3f040e13	0.51583976
220	0x3ed18697	0.40922996
221	0xbe55deb3	-0.20885734
222	0xbe9ba570	-0.30399656
223	0x3e839de9	0.25706413
224	0xbe0f86c9	-0.1401626
225	0x3e328768	0.17434466
226	0x3e66710e	0.22504064
227	0x3e4fc3d2	0.20289543
228	0x3db253dc	0.08707401
229	0xbea6be44	-0.32567036
230	0xbe8030eb	-0.2503732
231	0x3ea1f0ec	0.3162912
232	0xbe69186c	-0.22763222
233	0xbe7dd2c0	-0.24787426
234	0xbf4dfc4f	-0.8046312
235	0x3e784ff4	0.2424925
236	0xbf6fc93e	-0.93666446
237	0x3ee3ea02	0.4451447
238	0x3e489c5e	0.195909
239	0xbe9b4304	-0.30324566
240	0xbc2e7e8e	-0.01065029
241	0x3e66e044	0.22546488
242	0x3eca1996	0.39472646
243	0xbf0ab7c5	-0.5418666
244	0x3ef8a0fe	0.48560327
245	0xbc23d5ac	-0.009999674
246	0xbd07b294	-0.03312929
247	0x3ed88d92	0.4229551
248	0xbd4a81bc	-0.04944013
249	0x3e08c20c	0.13355273
250	0xbe20e26b	-0.15711372
251	0x3da203a6	0.07910852
252	0xbf41df00	-0.75730896
253	0xbee50ee2	-0.44737917
254	0xbd3cbc22	-0.046077855
255	0x3e520be7	0.20512353

network_body._body_endoder.seq_layers.0.bias f4 [128]
0	0x00000000	0.0
1	0x00000000	0.0
2	0x00000000	0.0
3	0x00000000	0.0
4	0x00000000	0.0
5	0x00000000	0.0
6	0x00000000	0.0
7	0x00000000	0.0
8	0x00000000	0.0
9	0x00000000	0.0
10	0x00000000	0.0
11	0x00000000	0.0
12	0x00000000	0.0
13	0x00000000	0.0
14	0x00000000	0.0
15	0x00000000	0.0
16	0x00000000	0.0
17	0x00000000	0.0
18	0x00000000	0.0
19	0x00000000	0.0
20	0x00000000	0.0
21	0x00000000	0.0
22	0x00000000	0.0
23	0x00000000	0.0
24	0x00000000	0.0
25	0x00000000	0.0
26	0x00000000	0.0
27	0x00000000	0.0
28	0x00000000	0.0
29	0x00000000	0.0
30	0x00000000	0.0
31	0x00000000	0.0
32	0x00000000	0.0
33	0x00000000	0.0
34	0x00000000	0.0
35	0x00000000	0.0
36	0x00000000	0.0
37	0x00000000	0.0
38	0x00000000	0.0
39	0x00000000	0.0
40	0x00000000	0.0
41	0x00000000	0.0
42	0x00000000	0.0
43	0x00000000	0.0
44	0x00000000	0.0
45	0x00000000	0.0
46	0x00000000	0.0
47	0x00000000	0.0
48	0x00000000	0.0
49	0x00000000	0.0
50	0x00000000	0.0
51	0x00000000	0.0
52	0x00000000	0.0
53	0x00000000	0.0
54	0x00000000	0.0
55	0x00000000	0.0
56	0x00000000	0.0
57	0x00000000	0.0
58	0x00000000	0.0
59	0x00000000	0.0
60	0x00000000	0.0
61	0x00000000	0.0
62	0x00000000	0.0
63	0x00000000	0.0
64	0x00000000	0.0
65	0x00000000	0.0
66	0x00000000	0.0
67	0x00000000	0.0
68	0x00000000	0.0
69	0x00000000	0.0
70	0x00000000	0.0
71	0x00000000	0.0
72	0x00000000	0.0
73	0x00000000	0.0
74	0x00000000	0.0
75	0x00000000	0.0
76	0x00000000	0.0
77	0x00000000	0.0
78	0x00000000	0.0
79	0x00000000	0.0
80	0x00000000	0.0
81	0x00000000	0.0
82	0x00000000	0.0
83	0x00000000	0.0
84	0x00000000	0.0
85	0x00000000	0.0
86	0x00000000	0.0
87	0x00000000	0.0
88	0x00000000	0.0
89	0x00000000	0.0
90	0x00000000	0.0
91	0x00000000	0.0
92	0x00000000	0.0
93	0x00000000	0.0
94	0x00000000	0.0
95	0x00000000	0.0
96	0x00000000	0.0
97	0x00000000	0.0
98	0x00000000	0.0
99	0x00000000	0.0
100	0x00000000	0.0
101	0x00000000	0.0
102	0x00000000	0.0
103	0x00000000	0.0
104	0x00000000	0.0
105	0x00000000	0.0
106	0x00000000	0.0
107	0x00000000	0.0
108	0x00000000	0.0
109	0x00000000	0.0
110	0x00000000	0.0
111	0x00000000	0.0
112	0x00000000	0.0
113	0x00000000	0.0
114	0x00000000	0.0
115	0x00000000	0.0
116	0x00000000	0.0
117	0x00000000	0.0
118	0x00000000	0.0
119	0x00000000	0.0
120	0x00000000	0.0
121	0x00000000	0.0
122	0x00000000	0.0
123	0x00000000	0.0
124	0x00000000	0.0
125	0x00000000	0.0
126	0x00000000	0.0
127	0x00000000	0.0

network_body._body_endoder.seq_layers.2.weight f4 [128, 128]
0	0xbdaac86f	-0.08339011
1	0xbd576e1a	-0.052595235
2	0xbc8fad15	-0.017538587
3	0x3ce23deb	0.027617415
4	0x3dc826db	0.09773036
5	0xbdb4310e	-0.08798419
6	0x3c75fbe4	0.015013669
7	0x3e071e02	0.13195041
8	0xbd96a18e	-0.07355033
9	0x3df97830	0.12181127
10	0x3d285453	0.041096043
11	0x3b7a1856	0.0038161478
12	0xbcd0085f	-0.025394617
13	0x3bc632b0	0.006048523
14	0xbd81c128	-0.0633567
15	0x3b85b4ff	0.0040804143
16	0xbcf5850c	-0.029970668
17	0xbd951db0	-0.07281053
18	0x3e3ee3f0	0.18641639
19	0x3e05bd83	0.13060574
20	0x3c0ed019	0.008716607
21	0xbd8c6ad1	-0.06856311
22	0x3dcb3731	0.09922636
23	0x3d71e1ca	0.05905322
24	0xbc5bfa1f	-0.013426333
25	0xbddcdedf	-0.10784697
26	0x3d282cc8	0.04105833
27	0x3e5316e5	0.20614202
28	0x3ccec8ab	0.02524217
29	0xbc084e4f	-0.0083194515
30	0x3d30a2c6	0.043123983
31	0x3cf8d955	0.03037707
32	0x3dbcc44a	0.09217127
33	0xbd7831d7	-0.060594406
34	0xbdaab8e9	-0.0833605
35	0x3e091784	0.13387877
36	0x3b455952	0.0030113054
37	0x3d8a3457	0.06748264
38	0x3d9854c1	0.074380405
39	0xbe0ca0b5	-0.1373318
40	0x3e218e70	0.15776992
41	0xbd9f6c89	-0.07784373
42	0x3b303dd9	0.0026892333
43	0x3dd75477	0.10514157
44	0xbdf36f74	-0.11886492
45	0xbdf08d51	-0.11745704
46	0x3c002248	0.007820673
47	0x3cf3d2e1	0.02976364
48	0x3cefd2e0	0.029275358
49	0x3dadc1b8	0.084842145
50	0xbd23ffe3	-0.040038954
51	0xbd92f61e	-0.071758494
52	0xbe0793db	-0.13239996
53	0xbe260fb3	-0.16216926
54	0xbc4759ff	-0.012167453
55	0xbcc0a7ee	-0.023517575
56	0xbbb57990	-0.005538173
57	0xbddd97a1	-0.108199365
58	0xbdd2609e	-0.102723345
59	0x3d4a9faf	0.049468692
60	0x3d5e54fb	0.054280262
61	0x3d85b35b	0.0652835
62	0xbdbb1d29	-0.09136421
63	0x3d1add23	0.03780855
64	0xbd2640e0	-0.040589213
65	0xbc13f7ec	-0.009031277
66	0xbdc0ab82	-0.094077125
67	0xbd06af5d	-0.032882083
68	0xbab764ec	-0.0013991869
69	0xbdff01fb	-0.124515496
70	0x3cfbc351	0.030732783
71	0xbbe06c31	-0.006848835
72	0x3dae7c91	0.08519853
73	0x3de6af7c	0.1126394
74	0x3e2627ad	0.16226073
75	0x3befb87a	0.0073156925
76	0xbcc96c67	-0.024587823
77	0xbdf62fcc	-0.12020835
78	0x3d114bab	0.035472553
79	0x3da582c0	0.08081579
80	0x3d9ca4f7	0.07648652
81	0xbd87598f	-0.06608879
82	0xbdfded80	-0.12398815
83	0x3ca1d0a2	0.019752804
84	0xbe2064b6	-0.15663418
85	0xbe81de91	-0.25365117
86	0x3d162621	0.036657456
87	0xbb7e261f	-0.0038780046
88	0xbe018146	-0.1264697
89	0xbb0255e7	-0.0019887628
90	0x3d50e208	0.05099681
91	0x3d4e427b	0.05035637
92	0xba6913e0	-0.0008891206
93	0xba6ac075	-0.000895507
94	0x3d08d44e	0.033405595
95	0xbd8dbb95	-0.06920544
96	0x3c193af3	0.0093524335
97	0xbdc92371	-0.09821213
98	0xbd26d7ef	-0.040733274
99	0xbdba136f	-0.09085738
100	0x3d5abb54	0.053401306
101	0xbdd7d98e	-0.10539542
102	0xbdc69b37	-0.09697574
103	0xbbfbe988	-0.007687751
104	0x3d9490ee	0.07254206
105	0x3dbba22d	0.09161792
106	0x3ba09bfa	0.0049014064
107	0xbcdba4dc	-0.02681201
108	0x3d48ef33	0.049056243
109	0xbe353fc4	-0.17700106
110	0x3cc34019	0.023834275
111	0x3bb47243	0.005506785
112	0x3d563f05	0.052306194
113	0x39195279	0.0001462194
114	0x3d7c528c	0.06160216
115	0x3d98d49f	0.07462429
116	0xbc4d750e	-0.012540115
117	0x3d4c22ba	0.049837805
118	0x3e2fd086	0.17169389
119	0xbde7a79c	-0.11311266
120	0x3d2e0746	0.042487405
121	0xbe7ad124	-0.24493843
122	0xbd5ed067	-0.054397967
123	0x3d84e318	0.06488627
124	0xbd840f6c	-0.06448254
125	0xbe132df4	-0.14372998
126	0x3bed62cb	0.007244443
127	0x3d610f6e	0.054946356
128	0x3de37f13	0.11108222
129	0xbcc3934f	-0.023873953
130	0x3d9533cb	0.07285269
131	0xbc5e2543	-0.013558689
132	0xbde2cec1	-0.110745914
133	0xbe04ebef	-0.12980627
134	0x3da0f2cd	0.078588106
135	0xbca8e585	-0.020617256
136	0xbcc03ffc	-0.02346801
137	0xbd57feed	-0.05273335
138	0xbcc4e0d7	-0.024032993
139	0xbd488430	-0.04895419
140	0x3d4ef6ba	0.050528266
141	0xbe106005	-0.14099129
142	0xbd1a1fcb	-0.037627976
143	0x3d963320	0.0733397
144	0xbdee25d4	-0.11628309
145	0x3ab81fb4	0.0014047534
146	0xbd093cf2	-0.033505388
147	0xbe8e534e	-0.2779793
148	0xbd6cac4a	-0.057781495
149	0x3e426d76	0.18987069
150	0xbdb2ad75	-0.087244906
151	0xbb1cb3de	-0.002391092
152	0xbd301e7b	-0.04299782
153	0xbd823781	-0.06358243
154	0x3a243cbe	0.0006265155
155	0xbcc7f734	-0.024409868
156	0xbdd342e9	-0.103154965
157	0xbd0698bc	-0.032860503
158	0xbd07db68	-0.033168226
159	0x3dc4640b	0.09589394
160	0x3dbefcf7	0.09325593
161	0x3d58b0f2	0.052903123
162	0x3d801f7b	0.062560044
163	0xbe0cc539	-0.1374711
164	0x3daa7c94	0.08324543
165	0xbc847697	-0.01616983
166	0xbd81f493	-0.06345477
167	0x3d93d628	0.072185814
168	0xbe67cb98	-0.22636259
169	0xbd865677	-0.065594606
170	0x3d663e2b	0.05621163
171	0xbca44d86	-0.020056497
172	0x3d76b34c	0.060229585
173	0x3e04c0a3	0.1296411
174	0x3d89bdad	0.06725631
175	0x3d882fb9	0.066497274
176	0xbc824f69	-0.015907006
177	0x3cde5b55	0.02714316
178	0xbd408037	-0.046997275
179	0x3dc480b1	0.095948584
180	0x3c6c5520	0.014424592
181	0xbe17e156	-0.14832053
182	0xbd854fc0	-0.06509352
183	0xbbdea9b9	-0.006795135
184	0xbd8d3958	-0.06895703
185	0x3da5d81d	0.08097861
186	0x3c951e0c	0.018202804
187	0xbd54b703	-0.051932346
188	0xbdc41cb7	-0.095757894
189	0x3d872f66	0.066008374
190	0x3e929849	0.2863181
191	0x3cc44d85	0.023962745
192	0xbd3fb575	-0.04680391
193	0x3da45fd4	0.0802609
194	0xbe5a6b6c	-0.2133004
195	0xbe3bcf8c	-0.18340892
196	0x3d412fff	0.047164913
197	0xbdfb5265	-0.12271575
198	0x3e34bf2f	0.17651056
199	0x3e311c3c	0.17295927
200	0xbdf9dc78	-0.12200254
201	0x3dc1d119	0.0946371
202	0x3dee10f2	0.11624326
203	0xbe1e7c52	-0.15477112
204	0xbd2d822a	-0.042360462
205	0xbc68c835	-0.014207889
206	0xbdf7e016	-0.12103288
207	0x3b9d9cd3	0.0048099547
208	0xbd246e9b	-0.040144544
209	0xbe399d85	-0.18126495
210	0x3e066ba2	0.13126996
211	0xbc754c3b	-0.014971788
212	0x3c5284e5	0.012849067
213	0xbd819fa7	-0.063292794
214	0x3de90f24	0.11379841
215	0xbdbd5765	-0.09245185
216	0x3da97784	0.08274749
217	0xbd1de571	-0.03854889
218	0xbd8a3f2b	-0.067503296
219	0x3cc57161	0.024101915
220	0xbe163252	-0.14667633
221	0x3da9a960	0.08284259
222	0xbd3b79b5	-0.045770366
223	0x3ca29cb2	0.019850109
224	0x3d066f47	0.032820966
225	0xbd39b9e9	-0.045343313
226	0xbe2dc3ba	-0.16969195
227	0x3c217d70	0.009856567
228	0xbd738e99	-0.059462164
229	0x3d62d45c	0.055378303
230	0x3d0656b2	0.032797523
231	0x3d290c0e	0.041271262
232	0xbd45840e	-0.04822164
233	0xbd87811f	-0.06616425
234	0x3db4ac03	0.08821871
235	0x3e1010cd	0.14068909
236	0x3cbda8b5	0.023151735
237	0xbdc4d0fb	-0.09610172
238	0x3ca57fc9	0.020202534
239	0x3d67ce4a	0.056593217
240	0x3b38e482	0.0028212373
241	0xbe1e9b18	-0.15488851
242	0xbbe19d10	-0.0068851784
243	0x3d9cdc1a	0.076591685
244	0x3d7b7ad4	0.061396435
245	0x3d92074f	0.071303
246	0x3df6c2ee	0.12048899
247	0x3d2ef631	0.042715255
248	0x3d515520	0.051106572
249	0xbdc9d997	-0.09855955
250	0xbca4db4e	-0.020124104
251	0xbe06e14c	-0.13171881
252	0xbdd81a04	-0.10551837
253	0xbd8ac9a5	-0.06776742
254	0x3db72532	0.08942641
255	0xbd90f5eb	-0.07078155

action_model._discrete_distribution.branches.0.weight f4 [3, 128]
0	0x3cb63303	0.022241121
1	0x3973cf4f	0.00023251514
2	0x3b136182	0.002248854
3	0xbc1a1020	-0.009403259
4	0x3c254868	0.010088064
5	0xbc6b827f	-0.014374374
6	0xba5ee93a	-0.00085033814
7	0xbb291edd	-0.002580575
8	0x3ba8200c	0.0051307734
9	0x3b12f621	0.0022424536
10	0xbb7664c5	-0.0037596684
11	0xba674faa	-0.00088238216
12	0xbb4e2eed	-0.0031461075
13	0xbbca4286	-0.006172481
14	0x3ac0ea6a	0.0014718298
15	0xbb9ccd17	-0.004785191
16	0xba70a053	-0.00091791636
17	0xbc58b9eb	-0.01322792
18	0x3c7fe64f	0.015618875
19	0xbc58986d	-0.013219935
20	0xbb6b79f0	-0.0035930835
21	0x3c7c8d7d	0.015414593
22	0x3be11ba0	0.0068697482
23	0x3be9d090	0.0071354583
24	0xbbc77703	-0.0060871853
25	0x3a8e3c30	0.0010851678
26	0x3c338755	0.010957559
27	0x3bdccf2b	0.0067385635
28	0xbb2545b4	-0.0025218548
29	0xbbcc2fef	-0.0062313
30	0xbbb3ba77	-0.005484875
31	0xbc3532cc	-0.011059474
32	0x3c6f7d1a	0.014617229
33	0xbc81bdbe	-0.015837546
34	0x3bb60281	0.0055544977
35	0xbb5f8d8b	-0.0034111466
36	0x3c71868d	0.014741552
37	0xbc1f4d6f	-0.009723051
38	0xba8de785	-0.0010826444
39	0x3b6800d3	0.0035400882
40	0x3b4b027b	0.003097682
41	0x39a58c41	0.0003157575
42	0x3c847af3	0.016171908
43	0x39a88075	0.00032139165
44	0xbc28bc47	-0.010298795
45	0xbb6fe7c5	-0.0036606651
46	0x3a67cbf0	0.000884234
47	0xbc3d87ab	-0.01156799
48	0xbc27a75e	-0.010232775
49	0x3c3cad44	0.011515919
50	0x3c5beac0	0.013422668
51	0x3beea9d2	0.0072834278
52	0x3b06035f	0.0020448787
53	0xbc1a5abc	-0.009421047
54	0xbc06048f	-0.008179798
55	0xbc201712	-0.009771125
56	0xbc29c8ca	-0.010362813
57	0xbb42bad7	-0.0029713416
58	0x3c37b927	0.011213577
59	0x3c1b6983	0.009485605
60	0x3b4e5b42	0.00314875
61	0x3bd058cd	0.006358242
62	0x3b6cbaef	0.0036122163
63	0x3bc43659	0.005987924
64	0xb9793257	-0.00023765244
65	0x3b31d0d9	0.002713254
66	0x3bb11de7	0.005405176
67	0x3b604333	0.0034219741
68	0x3a9c9880	0.0011947304
69	0x3c114605	0.008866792
70	0x3c1afba3	0.009459409
71	0xbb1782f1	-0.0023118819
72	0x3b1f0320	0.0024263337
73	0xbbeda31b	-0.0072521097
74	0xbb4d5c40	-0.0031335503
75	0xb8a64d02	-7.929841e-05
76	0x3b2e6871	0.0026612545
77	0x3a94eafe	0.0011361537
78	0xb94d988b	-0.0001960715
79	0x3c06373b	0.008191879
80	0xbc862d08	-0.016378894
81	0xbbdd68aa	-0.0067568617
82	0x3bde7d35	0.006789828
83	0xbbf91143	-0.0076009347
84	0x3c7775eb	0.015103797
85	0xbc666088	-0.014061101
86	0x3c04135a	0.008061254
87	0x3c1bcaa7	0.009508765
88	0x3b15e6e0	0.0022873208
89	0x399a0207	0.0002937468
90	0x3bfa0248	0.0076296665
91	0x3c12c561	0.008958192
92	0xbbd6a6ff	-0.006550669
93	0xbbd6dce0	-0.006557092
94	0x3b42e791	0.0029740075
95	0xbcba480b	-0.02273943
96	0xbb22c06b	-0.0024833928
97	0xba037af9	-0.0005015578
98	0xbb50671b	-0.0031799737
99	0x3c09785f	0.008390515
100	0x3b3b203b	0.0028553146
101	0xbaed5c72	-0.0018109216
102	0xbc2524aa	-0.010079542
103	0x3bd67e7f	0.006545841
104	0x3c0df6b7	0.008664778
105	0xbc6eabb2	-0.014567303
106	0x3a080052	0.0005188036
107	0xbc05a49b	-0.008156921
108	0x3a7022f3	0.0009160481
109	0x3bfb1053	0.007661858
110	0x3c585d90	0.013205901
111	0x3c275830	0.010213897
112	0x3aa4e665	0.001258087
113	0x3c04b2cc	0.008099269
114	0x39540197	0.00020218488
115	0xbc6303a7	-0.013855851
116	0x3c2b4b0a	0.010454902
117	0x3b29151e	0.002579994
118	0x3c4b7543	0.012418094
119	0xbc18763d	-0.009305534
120	0x3c258c4c	0.01010425
121	0xbc99bb24	-0.018765993
122	0x3c59886a	0.013277153
123	0x3c82f131	0.01598415
124	0x3c598fed	0.0132789435
125	0xba4ce407	-0.0007815961
126	0xbb3017df	-0.0026869697
127	0xbc4a82ee	-0.012360318
128	0x390f2ae9	0.00013653528
129	0xbc582620	-0.013192683
130	0x3c57b0ea	0.013164738
131	0xbc08bac0	-0.008345306
132	0xbc595caa	-0.013266722
133	0xbaae438f	-0.001329528
134	0x3c2bb40d	0.010479939
135	0x3bcf8c85	0.00633389
136	0xbb1b6f22	-0.0023717363
137	0x3c663918	0.014051698
138	0x3c8b16c3	0.016978627
139	0x3c262c0f	0.01014234
140	0xbb8e2863	-0.0043383106
141	0x3aea287b	0.0017864847
142	0xbb6b0427	-0.003586063
143	0x3c1fbce3	0.009749624
144	0x3c5c1f13	0.013435143
145	0x3a380339	0.0007019523
146	0xbc8df7e0	-0.01733011
147	0xbc0e4eb5	-0.008685757
148	0x3b34124d	0.0027476728
149	0xbb64aa13	-0.0034891411
150	0xbc3e9593	-0.011632341
151	0x3c209f5c	0.009803619
152	0xbb4798eb	-0.0030456136
153	0x3c52037b	0.012818213
154	0x3c5f9105	0.013645415
155	0xbba005b1	-0.004883491
156	0x3a6d4958	0.00090517616
157	0x3c8e6d56	0.01738612
158	0xbc0e4062	-0.008682342
159	0xbc06ce4b	-0.008227895
160	0xbc3700ef	-0.011169656
161	0x3ab66c4c	0.0013917773
162	0x3bd8372d	0.0065983743
163	0x3b5e73e2	0.0033943583
164	0x3b8e6b4f	0.0043462883
165	0xbc17b1db	-0.009258713
166	0x3b7d074b	0.0038609083
167	0xbb92c43c	-0.0044789594
168	0x3be3569f	0.0069378163
169	0x3b122c0d	0.0022304088
170	0x3cbe3a42	0.023221139
171	0x3bf9adf8	0.0076196156
172	0xbc6d83cf	-0.014496758
173	0x3bd81e82	0.0065954337
174	0xbc1aa399	-0.009438419
175	0x3adb3413	0.0016723893
176	0x3b159503	0.0022824414
177	0xbb624d60	-0.0034530982
178	0x3ba5bcec	0.0050579216
179	0xbb02e473	-0.0019972592
180	0xba26ce26	-0.0006363116
181	0xbbc3e419	-0.005978119
182	0x3c0fad15	0.008769293
183	0x3a146ce4	0.0005661978
184	0x3c08f23b	0.0083585335
185	0xbb67abc5	-0.0035350185
186	0xbca1a2e2	-0.019730989
187	0xbb845d88	-0.00403947
188	0xbb600ddb	-0.0034187946
189	0x3bd244ea	0.0064169066
190	0x3bc3369d	0.005957438
191	0x3aef658f	0.001826452
192	0x3b9ff605	0.0048816227
193	0x3943168e	0.00018605051
194	0x3ae6b692	0.0017602018
195	0xbb4707f2	-0.0030369726
196	0xba41cd25	-0.00073929346
197	0x3ab4e746	0.0013801835
198	0xbbb67e3f	-0.005569249
199	0x3ba17de1	0.004928336
200	0xbbb6d4af	-0.005579553
201	0xbbb59048	-0.0055408813
202	0x3b8f270e	0.0043686694
203	0x3bdb3c0b	0.0066905073
204	0xbaff75af	-0.0019490028
205	0xba8ed24e	-0.0010896416
206	0xbcb06e77	-0.021537049
207	0x3be07ed8	0.0068510585
208	0x3b900fd1	0.0043964167
209	0x39b44acb	0.00034388
210	0x3ca4220c	0.020035766
211	0x3b734c37	0.0037124285
212	0x3c3c47f3	0.011491763
213	0x3bfd553b	0.0077311075
214	0x3b49b559	0.0030778258
215	0x3c70b36d	0.014691216
216	0xbc50e66a	-0.0127502475
217	0x3c52d760	0.012868732
218	0x3ade51c3	0.0016961623
219	0x3bc0006b	0.005859425
220	0x3c54336d	0.012951714
221	0xbb664e1a	-0.0035141767
222	0xbb1315dc	-0.002244345
223	0xb9d291dd	-0.00040162998
224	0xbb91c023	-0.0044479533
225	0xbbc67cb3	-0.006057346
226	0x3c0bdb2d	0.008536142
227	0xbbda6add	-0.006665571
228	0xbc819c71	-0.015821667
229	0x3c79013a	0.015198046
230	0xbb4c6a0f	-0.0031191146
231	0x3c7760ef	0.015098794
232	0xba14fb02	-0.0005683155
233	0x3c4fc5fd	0.012681481
234	0xb8e8eefa	-0.00011107135
235	0x3a6c2987	0.00090088736
236	0x3b19a2d3	0.0023442998
237	0x3a7116d3	0.00091968215
238	0xbb3dcbc3	-0.0028960563
239	0xba20ebc1	-0.00061386457
240	0x3c2fcd19	0.010730051
241	0xbb3f4282	-0.002918393
242	0x3c638a63	0.013887974
243	0xbcb42bb1	-0.02199349
244	0x3c23e733	0.010003853
245	0x3adb2847	0.0016720378
246	0xbc26f577	-0.010190359
247	0xbb4b70fe	-0.003104269
248	0x3a5ebbb2	0.0008496597
249	0xbb06a3d6	-0.0020544431
250	0xbb0b3b96	-0.0021245233
251	0xbb766077	-0.0037594119
252	0xbb8576f8	-0.00407302
253	0x3b9521bf	0.004551142
254	0x3ba95faf	0.005168877
255	0xbac49d4f	-0.0015000495

action_model._discrete_distribution.branches.0.bias f4 [3]
0	0x00000000	0.0
1	0x00000000	0.0
2	0x00000000	0.0
