src/CyberHero/Assets/RL/AgentNeuralNetwork/GroundDroneAgent.onnx (onnx, 77198 bytes, 5 tensors)

network_body._body_endoder.seq_layers.0.weight f4 [128, 9]
-0.04802166 -0.06467193 0.18658935 -0.74147034 0.36931762 0.16930965 0.044602893 0.119969025
0.041988607 0.26690334 0.4184121 -0.025275212 0.11790639 0.69640034 -0.20616007 0.07176597
0.5268606 0.27984914 0.06360303 0.19015539 -0.39160347 -0.28421348 -0.19204357 -0.35360146
0.31295663 0.059468698 -0.40706313 0.72385806 -0.7555713 -0.6804749 0.10943254 0.7057709
0.16378501 0.2709161 -0.41508394 0.32503074 -0.10477861 -0.36440724 -0.1729705 0.1221765
0.47489733 -0.269035 0.5593947 -0.12464913 0.7673759 -0.41002178 0.06733762 -0.14880735
-0.4350793 -0.09246118 0.56151325 -0.0052726604 0.056064487 -0.06414052 -0.038000077 0.053647067
0.10360583 0.2090076 -0.17370006 -0.59188074 0.30973697 0.42848346 0.23860686 0.35627675
-0.0111932065 -0.32238606 0.4225169 0.0069593946 0.51700395 0.047120284 0.33509135 -0.022023385
-0.20678078 0.42820817 0.17617074 -0.41522777 0.024964027 -0.2119401 0.4738236 0.42858574
-0.6959772 -0.45725545 0.3079065 0.06454481 0.16062436 0.29692596 -0.68581927 -0.041801415
0.22311632 0.5720304 -0.36035654 0.22196023 0.4596953 -0.56427616 0.09029527 0.44733834
0.03218423 0.44755894 -0.12578093 0.26197305 0.056488108 -0.67339265 -0.111874014 -0.13792089
0.14889583 0.22384575 0.68231535 -0.23187828 0.4121023 -0.81535196 0.033520818 0.07681382
-0.09333401 0.050743632 -0.43332648 -0.47693574 -0.14153326 0.06872649 -0.20484547 -0.21783423
-0.13037367 0.75283027 0.38133392 -0.31862095 -0.3046993 -0.10978647 0.30249372 -0.18233113
0.018684274 0.33492684 -0.09583884 0.2319551 0.52085304 -0.22396247 0.085377865 0.52796614
-0.24667174 -0.11847566 -0.4472954 -0.6295419 -0.032360915 -0.26199734 0.053258434 -0.05626717
0.51416934 0.07556029 -0.7013137 -0.024405167 -0.10978067 -0.181968 0.15610689 -0.22040936
0.38178262 1.4928529 -0.19408453 0.47042617 -0.27353436 0.22190201 -0.27148968 -0.7060013
-0.06437435 -0.10357895 0.30020958 0.42084715 -0.24644914 0.14014849 -0.029824205 0.2404525
0.37160382 0.0135234175 -0.24442886 -0.04391852 0.553922 -0.5320757 0.49625707 0.23010924
-0.14749023 -0.05642262 -0.372517 -0.04047428 -0.52662134 0.025321616 0.27521926 0.14509025
0.13930412 0.6410395 -0.15722308 0.16751122 -0.6048773 0.0059253364 0.17990124 -0.11136713
0.044781245 -0.5083702 0.84213704 -0.18884978 0.057644557 0.27303648 0.6533611 0.094763264
0.3638037 -0.14583485 -0.3538638 -0.56634253 0.24127525 -0.2644503 0.6697783 -0.42947838
-0.12526304 0.37777528 0.27543265 0.19480036 0.48397577 -0.3566038 0.1908118 -0.19825113
0.802693 -0.3704655 -0.015875053 -0.26182795 0.4900065 -0.79723567 -0.52147585 0.09638052
0.0889194 -0.010341453 -0.115762845 -0.04827722 -0.5459443 -0.47224307 0.17309093 -0.24724162
0.27393785 0.15120141 0.3903231 -0.4980876 0.51888514 -0.12884536 0.46639246 -0.27736646
-0.11873054 -0.31980923 -0.21513407 0.3467178 0.35001394 -0.19267935 -0.112708315 -0.11041877
-0.09523948 0.21133785 0.58174276 0.010279471 -0.092077 0.20421897 0.1582298 0.21027765
00000000: 5cb2 44bd b872 84bd 4711 3f3e 00d1 3dbf
00000010: 3317 bd3e 825f 2d3e 86b1 363d 52b2 f53d
00000020: 3ffc 2b3d 8ea7 883e 1c3a d63e f60d cfbc
00000030: e878 f13d 4b47 323f a01b 53be 09fa 923d
00000040: 56e0 063f 6348 8f3e 4e42 823d 18b8 423e
00000050: 4080 c8be 6e84 91be 12a7 44be 400b b5be
00000060: da3b a03e 7395 733d 946a d0be c34e 393f
00000070: 1f6d 41bf 9a33 2ebf 2b1e e03d 67ad 343f
00000080: 42b7 273e 84b5 8a3e e285 d4be 6e6a a63e
00000090: 2b96 d6bd 9693 babe 2e1f 31be ac37 fa3d
000000a0: be25 f33e f5be 89be 7e34 0f3f 0b48 ffbd
000000b0: bf72 443f 60ee d1be 4ee8 893d f460 18be
000000c0: b7c2 debe 4a5c bdbd 55bf 0f3f 48c6 acbb
000000d0: e0a3 653d 1b5c 83bd f8a5 1bbd 07bd 5b3d
000000e0: 4b2f d43d 1706 563e 6ede 31be 7f85 17bf
000000f0: d895 9e3e 2f62 db3e 5b55 743e e869 b63e
00000100: b663 37bc c90f a5be 2354 d83e a20b e43b
00000110: 5f5a 043f 3301 413d 1891 ab3e 636a b4bc
00000120: 57be 53be 1a3e db3e 1a66 343e bc98 d4be
00000130: 5c81 cc3c d306 59be 0299 f23e 976f db3e
00000140: 902b 32bf 631d eabe eca5 9d3e 1230 843d
00000150: b67a 243e ae06 983e da91 2fbf f637 2bbd
00000160: 9b78 643e 9670 123f a780 b8be 8b49 633e
00000170: 2f5d eb3e 6774 10bf baec b83d 8809 e53e
00000180: 9cd3 033d 7226 e53e b7cc 00be 5521 863e
00000190: 1360 673d 7663 2cbf 341e e5bd 223b 0dbe
000001a0: 2678 183e d237 653e 38ac 2e3f 8071 6dbe
000001b0: 13ff d23e e8ba 50bf 204d 093d 9050 9d3d
000001c0: e725 bfbd 8ed8 4f3d f8dc ddbe ec30 f4be
000001d0: 18ee 10be 79c0 8c3d 03c3 51be f00f 5fbe
000001e0: ad80 05be 7cb9 403f 333e c33e 4922 a3be
000001f0: 8c01 9cbe bbd7 e0bd 75e0 9a3e 03b5 3abe
00000200: c30f 993c 887b ab3e 2747 c4bd a385 6d3e
00000210: a056 053f 6b56 65be 97da ae3d ca28 073f
00000220: 8497 7cbe 5ea3 f2bd e703 e5be a829 21bf
00000230: e18c 04bd 8424 86be 8425 5a3d 6778 66bd
00000240: 9aa0 033f 5abf 9a3d 4b89 33bf 58ed c7bc
00000250: b0d4 e0bd d255 3abe 7cda 1f3e feb2 61be
00000260: 0379 c33e ce15 bf3f 18be 46be b3db f03e
00000270: b20c 8cbe 483a 633e b200 8bbe 80bc 34bf
00000280: b3d6 83bd 3321 d4bd 12b5 993e 4779 d73e
00000290: 2a5d 7cbe 1683 0f3e e451 f4bc 2e39 763e
000002a0: db42 be3e 5391 5d3c 8f4b 7abe e8e3 33bd
000002b0: d5cd 0d3f 1d36 08bf 6815 fe3e c2a1 6b3e
000002c0: ae07 17be 681b 67bd 8cba bebe 5cc8 25bd
000002d0: a8d0 06bf 476f cf3c 8ae9 8c3e 8a92 143e
000002e0: bda5 0e3e 2a1b 243f 16ff 20be 1088 2b3e
000002f0: 3dd9 1abf 5329 c23b 0838 383e 7314 e4bd
00000300: 8a6c 373d 8d24 02bf 4b96 573f d661 41be
00000310: b31c 6c3d 70cb 8b3e ac42 273f 3e13 c23d
00000320: 7b44 ba3e bb55 15be a32d b5be d3fb 10bf
00000330: dc10 773e 0866 87be 9776 2b3f 97e4 dbbe
00000340: f444 00be c36b c13e 8205 8d3e bf79 473e
00000350: accb f73e c694 b6be 2b64 433e 5802 4bbe
00000360: 4a7d 4d3f a7ad bdbe 660c 82bc 500e 86be
00000370: 22e2 fa3e a317 4cbf 717f 05bf 2663 c53d
00000380: 601b b63d 336f 29bc 1215 edbd 56be 45bd
00000390: 01c3 0bbf d8c9 f1be c03e 313e e82c 7dbe
000003a0: 9541 8c3e 8bd4 1a3e 6ed8 c73e 5705 ffbe
000003b0: a8d5 043f 0af0 03be feca ee3e fa02 8ebe
000003c0: ff28 f3bd 09be a3be 1b4c 5cbe ff84 b13e
000003d0: 0735 b33e bc4d 45be 9ed3 e6bd 3c23 e2bd
000003e0: eb0c c3bd f368 583e 18ed 143f 3a6b 283c
000003f0: de92 bcbd c71e 513e fe06 223e 0653 573e

network_body._body_endoder.seq_layers.0.bias f4 [128]
0.0 0.0 0.0 0.0 0.0 0.0 0.0 0.0
0.0 0.0 0.0 0.0 0.0 0.0 0.0 0.0
0.0 0.0 0.0 0.0 0.0 0.0 0.0 0.0
0.0 0.0 0.0 0.0 0.0 0.0 0.0 0.0
0.0 0.0 0.0 0.0 0.0 0.0 0.0 0.0
0.0 0.0 0.0 0.0 0.0 0.0 0.0 0.0
0.0 0.0 0.0 0.0 0.0 0.0 0.0 0.0
0.0 0.0 0.0 0.0 0.0 0.0 0.0 0.0
0.0 0.0 0.0 0.0 0.0 0.0 0.0 0.0
0.0 0.0 0.0 0.0 0.0 0.0 0.0 0.0
0.0 0.0 0.0 0.0 0.0 0.0 0.0 0.0
0.0 0.0 0.0 0.0 0.0 0.0 0.0 0.0
0.0 0.0 0.0 0.0 0.0 0.0 0.0 0.0
0.0 0.0 0.0 0.0 0.0 0.0 0.0 0.0
0.0 0.0 0.0 0.0 0.0 0.0 0.0 0.0
0.0 0.0 0.0 0.0 0.0 0.0 0.0 0.0
00000000: 0000 0000 0000 0000 0000 0000 0000 0000
00000010: 0000 0000 0000 0000 0000 0000 0000 0000
00000020: 0000 0000 0000 0000 0000 0000 0000 0000
00000030: 0000 0000 0000 0000 0000 0000 0000 0000
00000040: 0000 0000 0000 0000 0000 0000 0000 0000
00000050: 0000 0000 0000 0000 0000 0000 0000 0000
00000060: 0000 0000 0000 0000 0000 0000 0000 0000
00000070: 0000 0000 0000 0000 0000 0000 0000 0000
00000080: 0000 0000 0000 0000 0000 0000 0000 0000
00000090: 0000 0000 0000 0000 0000 0000 0000 0000
000000a0: 0000 0000 0000 0000 0000 0000 0000 0000
000000b0: 0000 0000 0000 0000 0000 0000 0000 0000
000000c0: 0000 0000 0000 0000 0000 0000 0000 0000
000000d0: 0000 0000 0000 0000 0000 0000 0000 0000
000000e0: 0000 0000 0000 0000 0000 0000 0000 0000
000000f0: 0000 0000 0000 0000 0000 0000 0000 0000
00000100: 0000 0000 0000 0000 0000 0000 0000 0000
00000110: 0000 0000 0000 0000 0000 0000 0000 0000
00000120: 0000 0000 0000 0000 0000 0000 0000 0000
00000130: 0000 0000 0000 0000 0000 0000 0000 0000
00000140: 0000 0000 0000 0000 0000 0000 0000 0000
00000150: 0000 0000 0000 0000 0000 0000 0000 0000
00000160: 0000 0000 0000 0000 0000 0000 0000 0000
00000170: 0000 0000 0000 0000 0000 0000 0000 0000
00000180: 0000 0000 0000 0000 0000 0000 0000 0000
00000190: 0000 0000 0000 0000 0000 0000 0000 0000
000001a0: 0000 0000 0000 0000 0000 0000 0000 0000
000001b0: 0000 0000 0000 0000 0000 0000 0000 0000
000001c0: 0000 0000 0000 0000 0000 0000 0000 0000
000001d0: 0000 0000 0000 0000 0000 0000 0000 0000
000001e0: 0000 0000 0000 0000 0000 0000 0000 0000
000001f0: 0000 0000 0000 0000 0000 0000 0000 0000

network_body._body_endoder.seq_layers.2.weight f4 [128, 128]
-0.0859879 0.009505459 -0.07732991 0.052988112 -0.035899878 0.019101605 0.13110186 0.04960439
0.009632036 -0.08781651 -0.04528473 -0.08134066 -0.051101368 -0.03632946 -0.061009802 0.067451976
0.0293731 -0.040250935 -0.06370247 0.08306311 0.062175788 -0.11570524 0.2252944 0.1180533
-0.01783549 -0.008478993 0.0072974516 0.03367733 -0.024089387 0.05328305 0.009612627 0.04758785
0.016340151 -0.052074395 0.022243613 0.09716432 -0.026549667 0.018127391 -0.1480569 -0.020634452
0.075468846 0.028963841 0.025577663 -0.09407083 0.01552484 -0.03354607 0.057554808 -0.024237193
-0.0053225663 -0.0359768 -0.030045187 -0.14421017 -0.13015537 -0.048850156 0.05406881 0.061339375
-0.050878383 0.0062725064 -0.06267604 0.026960982 -0.04721374 -0.16142455 -0.029918063 0.09537669
0.019416753 0.009358341 0.05148965 -0.01226919 0.15962046 -0.19413139 -0.06901567 -0.106466666
0.024833426 0.1008178 0.19766364 0.05966942 0.22478774 0.071355574 -0.091484115 -0.03633393
-0.04858117 0.041128077 -0.052733183 0.0391295 -0.12993203 -0.31677225 -0.018797847 0.176847
0.053162932 0.06304905 -0.007231672 0.056161374 -0.06111512 -0.04179189 0.02040274 0.044979826
-0.06863289 0.028307889 -0.05893398 0.025046311 -0.032262135 -0.012118208 -0.031849794 -0.012608391
-0.10663066 -0.0835721 0.0026401163 0.0750009 -0.06552371 0.16954069 -0.03669658 -0.037648987
-0.04206807 0.0024238722 -0.0116549535 0.12114669 0.017487902 0.04663452 -0.05411344 0.05192918
-0.018487316 0.1252746 0.013765667 0.042025667 -0.13988514 -0.056098346 -0.09512621 0.045181744
-0.032963473 -0.017740777 -0.09402509 -0.1317521 -0.055824813 -0.069077075 -0.10061323 0.030205416
0.07505143 0.052930262 -0.021954607 -0.061185036 0.1039008 -0.010105951 -0.009493455 -0.018348563
0.14574632 0.16525437 0.0247829 0.049104992 -0.17054355 0.027976522 0.07036047 0.005303608
0.15712555 -0.035811417 -0.05842473 -0.049195487 0.0106844995 0.06348475 -0.030827224 0.089696735
0.0076410035 0.023866883 -9.895817e-05 0.1726862 -0.07890177 -0.092543006 0.12479056 -0.049470145
0.09062588 0.10494345 -0.16534461 -0.056701757 0.048090287 0.0054897973 -0.04284268 0.06248245
-0.028618637 0.0043819407 -0.042816285 -0.10941405 -0.16752194 -0.08487954 -0.090283714 0.08958177
-0.02587446 -0.15010868 -0.07864956 -0.025412576 0.059688322 0.019673936 0.11178593 0.12569998
-0.07577446 -0.050520454 0.07632638 0.08347481 -0.032451723 -0.028625064 0.10493942 -0.11816196
-0.21317142 0.042032655 0.0019631754 0.021404782 -0.02405838 0.08316074 0.11892438 0.009135489
0.18279143 0.005710777 -0.044320345 -0.056835905 -0.05222673 -0.009133128 0.021734588 -0.0579864
0.10550104 0.09024697 -0.0014500876 0.03081726 -0.012490889 -0.05188511 -0.16692126 -0.05305328
-0.08484694 0.07880507 -0.105557546 0.13805918 -0.09179376 -0.056117043 -0.0981153 -0.041429423
-0.004126823 -0.22003874 -0.1431618 0.15378305 -0.045128684 -0.007230016 -0.15478306 0.14512235
0.054898508 -0.075857185 0.085143775 0.073971376 -0.056424916 -0.0142928045 -0.124506585 0.09849533
0.08394765 -0.04455207 0.018585619 -0.01651506 0.0034092616 -0.14218122 -0.034726225 0.050229516
00000000: 6d1a b0bd c9bc 1b3c 255f 9ebd 100a 593d
00000010: c00b 13bd f87a 9c3c 913f 063e f92d 4b3d
00000020: b0cf 1d3c 24d9 b3bd 7b7c 39bd ef95 a6bd
00000030: ab4f 51bd 33ce 14bd 6ae5 79bd 4324 8a3d
00000040: db9f f03c 2ade 24bd 7176 82bd fe1c aa3d
00000050: 0aac 7e3d def6 ecbd 93b3 663e eec5 f13d
00000060: bc1b 92bc 79eb 0abc 761f ef3b 3df1 093d
00000070: 1b57 c5bc 543f 5a3d 487e 1d3c 7aeb 423d
00000080: c8db 853c f64b 55bd 3d38 b63c 16fe c63d
00000090: b07e d9bc e57f 943c 3a9c 17be 9509 a9bc
000000a0: 698f 9a3d 9445 ed3c 3f88 d13c 35a8 c0bd
000000b0: e65b 7e3c 9b67 09bd 97be 6b3d 148d c6bc
000000c0: ec68 aebb 695c 13bd 5321 f6bc d5ab 13be
000000d0: 7347 05be 1a17 48bd 4277 5d3d ff3e 7b3d
000000e0: da65 50bd 9989 cd3b 4c5c 80bd 47dd dc3c
000000f0: 3263 41bd 7a4c 25be ba16 f5bc db54 c33d
00000100: e20f 9f3c ba53 193c d0e6 523d b604 49bc
00000110: 8c73 233e 61ca 46be 1658 8dbd 320b dabd
00000120: 786f cb3c 9079 ce3d 5668 4a3e ec67 743d
00000130: c22e 663e df22 923d 065c bbbd e3d2 14bd
00000140: 0dfd 46bd ea75 283d c0fe 57bd 4146 203d
00000150: e70c 05be f92f a2be f1fd 99bc 6117 353e
00000160: 60c1 593d dc1f 813d a9f7 ecbb 7809 663d
00000170: d953 7abd f92d 2bbd a623 a73c c43c 383d
00000180: 678f 8cbd f2e5 e73c c264 71bd ec2d cd3c
00000190: 4d25 04bd 738b 46bc ee74 02bd 6d93 4ebc
000001a0: 2d61 dabd d927 abbd cd05 2d3b 129a 993d
000001b0: 4b31 86bd 139c 2d3e 274f 16bd d335 1abd
000001c0: 924f 2cbd d4d9 1e3b 6bf4 3ebc c11b f83d
000001d0: ca42 8f3c d703 3f3d 0ea6 5dbd b1b3 543d
000001e0: b672 97bc fc47 003e 6489 613c 1b23 2c3d
000001f0: 0d3e 0fbe 61c7 65bd 88d1 c2bd 7e10 393d
00000200: b504 07bd 1b55 91bc 3a90 c0bd 06ea 06be
00000210: 8fa8 64bd 4878 8dbd 4f0e cebd 5971 f73c
00000220: 90b4 993d 67cd 583d 26da b3bc 299d 7abd
00000230: f1c9 d43d 6e93 25bc 708a 1bbc ba4f 96bc
00000240: 863e 153e 7138 293e 8205 cb3c 5122 493d
00000250: f8a2 2ebe 052f e53c 2619 903d e3c9 ad3b
00000260: 85e5 203e feae 12bd c54e 6fbd 3581 49bd
00000270: 0a0e 2f3c 4b04 823d 6089 fcbc ecb2 b73d
00000280: 6261 fa3b 7b84 c33c c387 cfb8 a7d4 303e
00000290: 4097 a1bd 3087 bdbd 3192 ff3d 35a1 4abd
000002a0: 109a b93d 97ec d63d 1950 29be 1a40 68bd
000002b0: 52fa 443d c2e3 b33b ce7b 2fbd 99ed 7f3d
000002c0: a271 eabc 6296 8f3b 2160 2fbd 7914 e0bd
000002d0: df8a 2bbe 53d5 adbd abe6 b8bd a676 b73d
000002e0: adf6 d3bc 17b6 19be 0513 a1bd 092e d0bc
000002f0: be7b 743d 3c2b a13c 06f0 e43d 7fb7 003e
00000300: a42f 9bbd 89ee 4ebd 0151 9c3d d7f4 aa3d
00000310: 19ec 04bd 1c7f eabc 7bea d63d e6fe f1bd
00000320: 9c49 5abe 6f2a 2c3d 9ea8 003b 1559 af3c
00000330: 1416 c5bc 2e50 aa3d a08e f33d 05ad 153c
00000340: ad2d 3b3e 7821 bb3b 4089 35bd c4cc 68bd
00000350: b2eb 55bd 1ea3 15bc bc0c b23c 2683 6dbd
00000360: ee10 d83d 67d3 b83d de10 beba 7a74 fc3c
00000370: 96a6 4cbc 7b85 54bd 68ed 2abe 654e 59bd
00000380: 3cc4 adbd 8d64 a13d 8e2e d8bd 635f 0d3e
00000390: 5efe bbbd fcda 65bd adf0 c8bd e6b1 29bd
000003a0: 4d3a 87bb d651 61be 0299 12be 4e79 1d3e
000003b0: dbd8 38bd c5e9 ecbb 737f 1ebe f49a 143e
000003c0: 42dd 603d 035b 9bbd dc5f ae3d 4e7e 973d
000003d0: d01d 67bd 5e2c 6abc 4ffd febd ebb7 c93d
000003e0: bfec ab3d 3b7c 36bd de40 983c 974a 87bc
000003f0: eb6d 5f3b f497 11be 163d 0ebd 77bd 4d3d

action_model._discrete_distribution.branches.0.weight f4 [3, 128]
-0.00090001797 0.010728312 0.0050647813 0.01507777 0.0028527079 -0.008419816 -0.0038848282 0.0062777414
-0.015514001 -0.005167031 -0.0014361636 -0.0077250316 -0.009591976 -0.0054058293 0.0032895354 0.010938385
0.0022433116 0.0013391607 0.008733942 -0.00086847384 0.011290955 0.0035089427 0.0075262277 -0.00024945693
0.0030035002 0.00252887 -7.898067e-05 0.011752621 -0.012666709 0.0036386752 -0.0071280124 -0.008556092
0.00013394008 0.0035390765 -0.0015674497 -0.008685249 -0.002858723 0.00030183105 -0.01424659 -0.0064765536
-0.0037488441 -0.0023106763 0.0028090358 -0.00073336647 0.014033011 0.009595805 0.0021668947 -0.0064087696
0.0016888777 -0.00029650523 0.0020343026 -0.006494917 0.0036267617 0.010046033 -0.005978893 0.0017797776
-0.003117841 0.009968137 0.009212251 -0.008815771 -0.012247859 0.007559555 -0.0016680149 -0.001854732
0.0118095735 -0.00031332095 -0.012062325 7.472239e-05 0.0036002945 0.0012002797 -0.0069217733 -0.005387177
-0.005998196 -0.0011596462 -0.009423236 0.0074173384 -0.004751146 0.0024962611 -0.008392627 -0.0016336393
0.0009612664 0.02298809 -0.00018240987 0.00035722248 -0.020650161 0.008693506 0.007046498 -0.013317245
-0.01262731 -0.004825052 0.0016766315 0.003231146 0.01853807 0.0024918797 -0.0066887015 0.0114523275
-0.0075841323 -0.0044265366 0.016851505 -0.004054013 0.005439013 -0.0152538065 0.006357857 -0.0008360098
0.004988837 0.006063793 -0.00056396914 0.01022613 -0.016502095 0.010449422 0.0070268805 -0.0026755151
-0.0075397803 0.005268543 0.016782178 -4.3151857e-05 0.018297816 0.0006349058 0.0010194421 -0.0040013194
-0.005111761 0.005954409 -0.006704678 0.013461147 -0.002098324 0.0039899577 0.00160429 0.006513624
0.0037155338 -0.016356776 0.015133457 0.005900556 0.020713177 -0.0119294515 0.012732814 -0.0046095364
-0.0051150136 0.014260431 -0.00105539 0.010521038 0.012548189 -0.007767163 0.0036841847 -0.0010627633
-0.006685397 -0.011341962 0.012637003 -0.009073606 0.014099549 0.010636805 0.007907244 1.2507414e-05
-0.010360671 -0.010415289 0.001524668 0.019160856 0.00032559547 -0.0073926854 0.022063697 0.010449676
0.014177538 0.0010027309 -0.00880003 0.00034247528 -0.0090371175 0.008403257 -0.005688804 -0.0041424036
-0.011534921 0.0046161693 -0.005171045 -0.003827152 -0.011923289 0.009055374 0.005330413 -0.000388621
0.0035759774 -0.008701189 -0.010663474 0.0016368125 0.031171972 0.0072431206 0.002540661 -0.0109544685
-0.00026197647 -0.0042356355 -0.001090433 0.0042247167 0.0057638455 -3.2804026e-05 -0.015243818 0.020046832
0.006851668 -0.013928853 -0.004583097 -0.008919197 0.008908471 0.002194916 0.0011800083 0.0010708184
-0.002010309 0.007945501 -0.0005493622 0.012820035 0.0032789614 -0.0089870915 -0.015106628 -0.0006562089
0.0017637085 0.0074197575 0.005413857 0.0014291371 0.0015165502 -0.0074204626 0.015090163 0.010700359
0.0037732918 -0.012174997 -0.008465837 -0.0062286127 0.01287093 -0.0014302871 0.00731457 -0.00083076133
-0.0063100155 0.003556978 0.0016100258 -0.0015156668 -0.008307031 -0.008776697 -0.014041724 -0.0038942986
0.0149452165 0.006151661 -0.009221162 -0.009075046 -4.4368222e-05 -0.0044952556 0.010906136 -0.003652677
-0.009117327 0.004325827 0.009007117 0.002014038 0.01493562 0.0076202466 0.0037053225 0.005599181
0.00529732 -0.003082688 0.013771976 0.00028248815 -0.011510969 -0.0044219256 -0.013156824 -0.0055125486
00000000: 2fef 6bba cdc5 2f3c 77f6 a53b c008 773c
00000010: 7ff4 3a3b 45f3 09bc 9a98 7ebb 83b5 cd3b
00000020: 702e 7ebc 3350 a9bb a73d bcba 4322 fdbb
00000030: aa27 1dbc 6223 b1bb 3f95 573b e936 333c
00000040: 8604 133b c786 af3a cf18 0f3c 4baa 63ba
00000050: b3fd 383c 4af6 653b 939e f63b 8bc9 82b9
00000060: 5fd6 443b 66bb 253b 6da2 a5b8 118e 403c
00000070: 0788 4fbc d776 6e3b 1a92 e9bb da2e 0cbc
00000080: 4472 0c39 daef 673b e272 cdba 934c 0ebc
00000090: 6a59 3bbb 143f 9e39 886a 69bc 4539 d4bb
000000a0: 2baf 75bb b76e 17bb cd17 383b 643f 40ba
000000b0: b7ea 653c b937 1d3c 7602 0e3b a800 d2bb
000000c0: 555d dd3a 4274 9bb9 ef51 053b 50d3 d4bb
000000d0: f7ae 6d3b 1e98 243c 97ea c3bb 6d47 e93a
000000e0: b154 4cbb 6651 233c fbee 163c 0670 10bc
000000f0: 3eab 48bc 25b6 f73b 4ba1 daba 7b1a f3ba
00000100: f17c 413c 3a45 a4b9 0fa1 45bc 47b4 9c38
00000110: ebf2 6b3b b452 9d3a 0bd0 e2bb eb86 b0bb
00000120: 848c c4bb 45ff 97ba eb63 1abc 250d f33b
00000130: 80af 9bbb 5098 233b 3b81 09bc d71f d6ba
00000140: 7ffd 7b3a 8551 bc3c 4745 3fb9 9749 bb39
00000150: 872a a9bc 356f 0e3c 4fe6 e63b 9330 5abc
00000160: c7e2 4ebc 781b 9ebb 6bc2 db3a a2c1 533b
00000170: 27dd 973c ce4e 233b e52c dbbb 8ba2 3b3c
00000180: 5084 f8bb 7b0c 91bb 2b0c 8a3c 87d7 84bb
00000190: bf39 b23b 1aeb 79bc 9255 d03b ab27 5bba
000001a0: 6679 a33b c8b2 c63b 54d7 13ba 7f8b 273c
000001b0: 672f 87bc 0d34 2b3c bf41 e63b b257 2fbb
000001c0: 4310 f7bb bea3 ac3b c77a 893c f4fd 34b8
000001d0: 4de5 953c cf6f 263a cd9e 853a 801d 83bb
000001e0: 8f80 a7bb 341d c33b eab2 dbbb 258c 5c3c
000001f0: 0984 09bb 31be 823b 0a47 d23a 3d70 d53b
00000200: 5080 733b a5fe 85bc 52f2 773c 7459 c13b
00000210: aeae a93c bf73 43bc 4b9d 503c 980b 97bb
00000220: d89b a7bb 95a4 693c 0355 8aba 6f60 2c3c
00000230: eb96 4d3c b083 febb 5d72 713b 6b4c 8bba
00000240: 2d11 dbbb a3d3 39bc 6f0b 4f3c 76a9 14bc
00000250: cb01 673c fe45 2e3c 638d 013c efd6 5137
00000260: cebf 29bc e3a4 2abc 5ed7 c73a 3af7 9c3c
00000270: afb4 aa39 573e f2bb edbe b43c 1e35 2b3c
00000280: e848 683c 116e 833a 002e 10bc 418e b339
00000290: 6b10 14bc d0ad 093c 2669 babb 00bd 87bb
000002a0: f7fc 3cbc 3c43 973b df71 a9bb f5d0 7abb
000002b0: e659 43bc fe5c 143c bfaa ae3b d4bf cbb9
000002c0: f25a 6a3b 6f8f 0ebc dab5 2ebc 508a d63a
000002d0: 5d5c ff3c b357 ed3b 3881 263b 5f7a 33bc
000002e0: e359 89b9 16cb 8abb dcec 8eba 7e6f 8a3b
000002f0: a4de bc3b 0e97 09b8 35c1 79bc 4139 a43c
00000300: f583 e03b d835 64bc ce2d 96bb d321 12bc
00000310: d6f4 113c 94d8 0f3b 82aa 9a3a b45a 8c3a
00000320: 63bf 03bb d92d 023c 1303 10ba 200b 523c
00000330: d8e3 563b 983e 13bc ca81 77bc 6f05 2cba
00000340: 3d2c e73a 7021 f33b b966 b13b e251 bb3a
00000350: fbc6 c63a 5a27 f3bb bb3c 773c 8f50 2f3c
00000360: 5549 773b a379 47bc 4bb4 0abc 6419 ccbb
00000370: 98e0 523c 7978 bbba 0faf ef3b 73c7 59ba
00000380: 3fc4 cebb 301c 693b 8007 d33a 57a9 c6ba
00000390: 371a 08bc 23cc 0fbc 420f 66bc 7d37 7fbb
000003a0: c8dc 743c df93 c93b 5b14 17bc 80af 14bc
000003b0: 0418 3ab8 f04c 93bb a6af 323c c061 6fbb
000003c0: d760 15bc abbf 8d3b 9692 133c f3fd 033b
000003d0: 88b4 743c 43b3 f93b ffd4 723b 5679 b73b
000003e0: 2495 ad3b ec06 4abb dba3 613c eb1a 9439
000003f0: 8198 3cbc cde5 90bb b88f 57bc 9ca2 b4bb

action_model._discrete_distribution.branches.0.bias f4 [3]
0.0 0.0 0.0
00000000: 0000 0000 0000 0000 0000 0000
