src/CyberHero/Assets/RL/AgentNeuralNetwork/MeleeAgent.onnx (onnx, 78222 bytes, 5 tensors)

network_body._body_endoder.seq_layers.0.weight f4 [128, 11]
000000 55 69 95 bb ae 73 14 bf 41 1d c4 3e 24 65 1a 3d
       -0.0045596757 -0.57989013 0.3830357 0.03769411
000010 45 ce fa bd e5 0a 84 3e 87 25 2b 3f 2a 96 02 be
       -0.12246374 0.25789562 0.6685414 -0.12752596
000020 77 f3 08 bf 6f 64 18 be ea 95 9e be e2 7c ec 3e
       -0.534965 -0.14882062 -0.3097375 0.46189028
000030 5a 9f 2b 3e e9 97 63 3d 4a b3 67 be d3 58 48 bd
       0.16760007 0.055564795 -0.22626987 -0.048912834
000040 16 af a5 be 23 5e 0d be ec 4f 4c 3d a5 e3 54 3e
       -0.32360142 -0.13805442 0.049880907 0.20789964
000050 77 04 f9 bd fc 0a 0b 3e 31 c9 f0 be 3c cd 6a bc
       -0.12159055 0.13578409 -0.47028497 -0.014331158
000060 09 91 cd 3e a5 81 a8 bd f8 73 f7 3d 79 f9 83 3e
       0.40149716 -0.08227853 0.12082666 0.2577627
000070 e7 13 a8 be d2 1a 67 3e be dd e0 bd d1 1a 75 be
       -0.32827684 0.22568825 -0.10979794 -0.23936011
000080 7a 6c 94 3d 9a be 21 3f e1 7e 69 3d 17 62 a0 bc
       0.07247253 0.6318146 0.057005767 -0.019578023
000090 5c 32 92 bd 53 e0 1a 3f 80 6b 90 be df 94 19 3e
       -0.071385115 0.6049854 -0.28207016 0.14998196
0000a0 de 59 19 bf cb df f6 3e b2 a5 c9 be 97 e4 83 be
       -0.5990275 0.48217615 -0.39384228 -0.25760338
0000b0 e3 3e 42 3e 34 f9 0a be ea 84 cd be 6b c2 c4 be
       0.18969302 -0.13571626 -0.40140468 -0.3842958
0000c0 e3 78 b0 3d 49 da a5 3c 33 ec eb bd b0 a6 a3 be
       0.08616807 0.020245688 -0.11519661 -0.3196311
0000d0 72 54 32 3e 70 de d5 3d 3a 44 cf be 9a 07 46 be
       0.17415026 0.10442817 -0.4048174 -0.19338837
0000e0 ce d6 e3 3e 92 8d 9c bb d7 6c 2b 3f 72 8d c3 3e
       0.4449982 -0.0047776187 0.6696295 0.38193852
0000f0 79 9f 0c 3f 0f 78 af 3e d0 c1 be 3a c2 b9 d5 3c
       0.54930836 0.34271285 0.001455361 0.026089553
000100 4a f6 26 3f cb 30 92 be 22 df 8a be 18 95 d4 bd
       0.6521956 -0.2855285 -0.27123362 -0.1038
000110 ca c5 5f be 71 17 c8 bd b9 5b 10 3f 14 e3 5d bf
       -0.21852794 -0.09770096 0.5638996 -0.8667462
000120 cd 9b 2b 3e 8e 44 76 3c 34 79 68 3e d4 9b 6d 3e
       0.16758652 0.015030993 0.22702485 0.23203975
000130 93 35 02 3f 9d ae 2a be ac 69 c9 3e f7 e6 62 bc
       0.50863 -0.16668172 0.39338434 -0.013849012
000140 c6 14 d0 be 5e d7 9f 3e 4f b2 c7 bd 95 fd 19 be
       -0.4064085 0.31219 -0.097508065 -0.1503814
000150 81 6d 24 3e 3b e8 01 bd cb 12 f7 3e ce 99 09 be
       0.16057397 -0.031715613 0.48256525 -0.13437578
000160 ca 63 b7 bd d0 35 d9 be 8d b2 02 3f 36 2b 19 3e
       -0.0895458 -0.42423868 0.51053697 0.1495789
000170 64 31 ec be 39 47 ba be ed f9 c0 bd cd 9f 20 3d
       -0.46131432 -0.36382464 -0.094226696 0.039214898
000180 5f 29 0a bf 41 b2 7f 3d 2b 17 e9 3e 8d 90 a4 bd
       -0.5396938 0.062425856 0.45525488 -0.080353834
000190 67 76 1d bd 16 bb b8 bd a2 1e 52 3e e2 47 00 3f
       -0.038442995 -0.09020059 0.20519498 0.50109684
0001a0 7b 31 3e be b1 23 59 3d 03 2b b4 3e 89 f7 56 be
       -0.18573563 0.053012554 0.35189065 -0.20992865
0001b0 89 9e 34 3e 7f 58 8e bd 07 00 52 bd 3c fd a1 be
       0.17638601 -0.06950473 -0.051269557 -0.31638515
0001c0 a3 c3 b2 be 21 97 8e 3e c5 9e 05 3f 61 8e dd 3e
       -0.34914884 0.27849677 0.5219539 0.4327269
0001d0 8a f1 60 3e 7d 3b c4 bd d3 30 89 bd a1 23 0f be
       0.2196714 -0.09581659 -0.066987656 -0.13978435
0001e0 5d a5 5a 3e a5 8c 89 3e 1e cf cf bd e6 2d 26 be
       0.21352144 0.26865116 -0.10146926 -0.16228446
0001f0 92 a6 29 3e d8 96 72 3e db 49 b7 bd e8 03 9c be
       0.16567448 0.23690355 -0.08949634 -0.3047173
000200 18 2e 00 bf e2 9a 94 3d aa af b8 bc 33 8e 16 3e
       -0.50070333 0.07256104 -0.0225447 0.14702682
000210 2d a4 0d bf 53 86 1d bf 1e ed e5 3e d8 40 02 bf
       -0.5532864 -0.6153309 0.4490747 -0.50880194
000220 60 e6 9a 3e 5f 3b b4 3d 5b f1 ae 3e 80 65 1d bd
       0.30253887 0.08800387 0.34168515 -0.038426876
000230 45 24 10 3f a4 34 cc be 05 47 40 bf 3c 28 58 be
       0.5630534 -0.39883912 -0.7510837 -0.21109098
000240 97 96 9a be 21 c2 ef 3e 77 f5 03 3e 10 63 a1 3e
       -0.30193016 0.46827796 0.12886606 0.3152089
000250 28 b0 a5 be 89 78 03 3e e9 78 74 be 51 c2 d4 3e
       -0.3236096 0.1283895 -0.23874249 0.41554502
000260 70 d0 0f 3f d7 3a db 3d 7c 84 b9 be a1 8c b4 3e
       0.56177425 0.10704582 -0.3623389 0.3526354
000270 56 d6 10 3e 76 bc 16 3e 38 7d 0a 3e 22 c0 32 3d
       0.14144263 0.1472033 0.1352433 0.043640263
000280 5c bf ca 3e 56 1a be 3e 14 39 19 3e 9f d6 a9 3e
       0.3959912 0.37129468 0.1496318 0.33171555
000290 a7 77 70 3e be 8a 86 3e 6d 06 b3 3d f5 73 7d 3e
       0.23483144 0.26277727 0.0874146 0.24751265
0002a0 da 8b e6 be 5c 93 05 3e 73 6f 8b 3e 30 b7 d8 be
       -0.45028573 0.13044494 0.27233467 -0.4232726
0002b0 4a d4 da 3d 9e 53 08 3e 71 a5 79 be 65 f0 57 bd
       0.10685022 0.13313147 -0.24379517 -0.052719492
0002c0 44 4c 5d 3e 3c 5e 9f 3e 6e 09 11 be 2c 95 c9 bc
       0.21611124 0.31126583 -0.14163753 -0.024607264
0002d0 10 a0 3e bf cd 55 6a be 27 a7 61 bc 6c b0 c1 3e
       -0.74462986 -0.22884293 -0.013772762 0.37829912
0002e0 9d f5 a6 bd cc a5 b6 bd 8b d4 3b be 85 90 03 be
       -0.08152316 -0.08918342 -0.18342797 -0.12848099
0002f0 11 d3 8f bd 7b e1 0a bd cb dd 49 be 84 c7 be 3e
       -0.070226796 -0.03390644 -0.19713514 0.37261593
000300 c6 17 de 3e 54 5c 21 3e 73 41 d8 3e 56 24 81 be
       0.43377513 0.15757877 0.42237434 -0.25223035
000310 3c 6e f4 bd 12 17 82 be 9d bd 81 be 7a c4 a9 3e
       -0.11935088 -0.25408226 -0.25339976 0.33157712
000320 f9 5f 81 be f6 06 90 be 4c 6f 6b 3e e1 bb 18 3f
       -0.25268534 -0.2813031 0.22991675 0.5966168
000330 62 b8 00 3f a5 75 89 3e 7d e0 f0 bd d9 76 9e 3d
       0.50281346 0.26847568 -0.11761568 0.07737512
000340 ef 82 06 bf 4a 5c 70 bd e5 06 86 3d ce 44 6b bd
       -0.5254354 -0.058681764 0.06544284 -0.057438664
000350 dc e2 20 be 2e a2 07 bf cb d0 9e 3e a3 7e 05 bf
       -0.1571154 -0.5298184 0.3101867 -0.5214636
000360 b0 eb 4c 3e 8e 91 b3 be 77 4d cb bd 3c 4b f8 be
       0.20011783 -0.35071987 -0.099268846 -0.484949
000370 7e f9 ac 3d 80 09 fb be 05 fd 07 3f 3f 13 1b be
       0.08446024 -0.49030685 0.5312045 -0.1514406
000380 2b 48 4c 3c 98 80 a6 3e 4d fe 2c 3e f0 63 04 3e
       0.012468378 0.32519984 0.16893883 0.12928748
000390 4f bb 2f be ee 1c 27 3e 00 a3 0a 3f c3 c0 13 bc
       -0.17161296 0.1631963 0.5415497 -0.009018126
0003a0 c6 52 14 3e 32 bc 1d 3e e6 fc a1 be 85 8f e0 3e
       0.144847 0.15403822 -0.3163826 0.43859497
0003b0 8b f1 cd be f4 bd 8a bb ea b1 36 be bc d2 5e 3e
       -0.40223345 -0.00423407 -0.17841306 0.21760076
0003c0 9f 51 dc 3e 89 5a 98 3e 22 86 b8 be 55 bf 5f 3d
       0.43031022 0.29756573 -0.36039835 0.054625828
0003d0 55 8d 8a bc b6 ba b2 bd a5 61 c9 be f3 40 de 3c
       -0.016913095 -0.087270185 -0.3933231 0.02713058
0003e0 0c 95 c8 be 65 cb 06 3d a6 19 e9 3e 78 40 d7 3d
       -0.39176214 0.032908816 0.4552738 0.10510343
0003f0 5f 06 1b 3f 51 cb c2 be f0 42 07 be e1 ef 9c be
       0.60556597 -0.38045743 -0.13209128 -0.30651763

network_body._body_endoder.seq_layers.0.bias f4 [128]
000000 00 00 00 00 00 00 00 00 00 00 00 00 00 00 00 00
       0.0 0.0 0.0 0.0
000010 00 00 00 00 00 00 00 00 00 00 00 00 00 00 00 00
       0.0 0.0 0.0 0.0
000020 00 00 00 00 00 00 00 00 00 00 00 00 00 00 00 00
       0.0 0.0 0.0 0.0
000030 00 00 00 00 00 00 00 00 00 00 00 00 00 00 00 00
       0.0 0.0 0.0 0.0
000040 00 00 00 00 00 00 00 00 00 00 00 00 00 00 00 00
       0.0 0.0 0.0 0.0
000050 00 00 00 00 00 00 00 00 00 00 00 00 00 00 00 00
       0.0 0.0 0.0 0.0
000060 00 00 00 00 00 00 00 00 00 00 00 00 00 00 00 00
       0.0 0.0 0.0 0.0
000070 00 00 00 00 00 00 00 00 00 00 00 00 00 00 00 00
       0.0 0.0 0.0 0.0
000080 00 00 00 00 00 00 00 00 00 00 00 00 00 00 00 00
       0.0 0.0 0.0 0.0
000090 00 00 00 00 00 00 00 00 00 00 00 00 00 00 00 00
       0.0 0.0 0.0 0.0
0000a0 00 00 00 00 00 00 00 00 00 00 00 00 00 00 00 00
       0.0 0.0 0.0 0.0
0000b0 00 00 00 00 00 00 00 00 00 00 00 00 00 00 00 00
       0.0 0.0 0.0 0.0
0000c0 00 00 00 00 00 00 00 00 00 00 00 00 00 00 00 00
       0.0 0.0 0.0 0.0
0000d0 00 00 00 00 00 00 00 00 00 00 00 00 00 00 00 00
       0.0 0.0 0.0 0.0
0000e0 00 00 00 00 00 00 00 00 00 00 00 00 00 00 00 00
       0.0 0.0 0.0 0.0
0000f0 00 00 00 00 00 00 00 00 00 00 00 00 00 00 00 00
       0.0 0.0 0.0 0.0
000100 00 00 00 00 00 00 00 00 00 00 00 00 00 00 00 00
       0.0 0.0 0.0 0.0
000110 00 00 00 00 00 00 00 00 00 00 00 00 00 00 00 00
       0.0 0.0 0.0 0.0
000120 00 00 00 00 00 00 00 00 00 00 00 00 00 00 00 00
       0.0 0.0 0.0 0.0
000130 00 00 00 00 00 00 00 00 00 00 00 00 00 00 00 00
       0.0 0.0 0.0 0.0
000140 00 00 00 00 00 00 00 00 00 00 00 00 00 00 00 00
       0.0 0.0 0.0 0.0
000150 00 00 00 00 00 00 00 00 00 00 00 00 00 00 00 00
       0.0 0.0 0.0 0.0
000160 00 00 00 00 00 00 00 00 00 00 00 00 00 00 00 00
       0.0 0.0 0.0 0.0
000170 00 00 00 00 00 00 00 00 00 00 00 00 00 00 00 00
       0.0 0.0 0.0 0.0
000180 00 00 00 00 00 00 00 00 00 00 00 00 00 00 00 00
       0.0 0.0 0.0 0.0
000190 00 00 00 00 00 00 00 00 00 00 00 00 00 00 00 00
       0.0 0.0 0.0 0.0
0001a0 00 00 00 00 00 00 00 00 00 00 00 00 00 00 00 00
       0.0 0.0 0.0 0.0
0001b0 00 00 00 00 00 00 00 00 00 00 00 00 00 00 00 00
       0.0 0.0 0.0 0.0
0001c0 00 00 00 00 00 00 00 00 00 00 00 00 00 00 00 00
       0.0 0.0 0.0 0.0
0001d0 00 00 00 00 00 00 00 00 00 00 00 00 00 00 00 00
       0.0 0.0 0.0 0.0
0001e0 00 00 00 00 00 00 00 00 00 00 00 00 00 00 00 00
       0.0 0.0 0.0 0.0
0001f0 00 00 00 00 00 00 00 00 00 00 00 00 00 00 00 00
       0.0 0.0 0.0 0.0

network_body._body_endoder.seq_layers.2.weight f4 [128, 128]
000000 53 d5 31 3d d8 90 fd bd b1 a2 83 bc d4 25 e6 bb
       0.043416332 -0.123811424 -0.016068788 -0.0070235524
000010 bf 7c bd 3b a7 84 7c ba e8 d9 0b 3c 2a 68 e0 bd
       0.005782693 -0.0009632804 0.00853584 -0.10957368
000020 ba 87 34 be 18 7a 17 bd af 3f 94 bd 23 26 e9 3d
       -0.176299 -0.036981672 -0.07238709 0.11384227
000030 f6 9a c8 bd 75 4e bc bd 83 74 f2 3d 03 95 94 bd
       -0.097951815 -0.09194652 0.11838629 -0.07254984
000040 a4 90 99 bd 0e b8 8e 3d 67 70 03 bc a2 dc db 3b
       -0.07498291 0.069686994 -0.008022404 0.006709651
000050 be 41 e7 bd 5e c2 06 bd 82 c0 d6 bd a8 86 9f bc
       -0.11291836 -0.032900207 -0.10485937 -0.019473389
000060 bc 94 9f 3d 22 88 19 bc 83 ab b9 bd b9 35 5b be
       0.07792041 -0.0093708355 -0.090659164 -0.21407212
000070 4b 03 2b bd 19 d3 d4 3c ec c8 46 bd 04 d5 bc bd
       -0.041751187 0.025979565 -0.048531458 -0.09220317
000080 1c a3 12 3d e7 18 75 bd d0 32 be bc 4b 93 e0 bd
       0.035800084 -0.0598382 -0.023217589 -0.10965594
000090 d7 61 db 3a 03 6d 6a bd 0f 73 2b bd a7 7a 91 3d
       0.0016737533 -0.057232868 -0.041857775 0.07103472
0000a0 89 9a b0 bc 01 63 95 3d 27 7c b6 3d 78 cd 2a bd
       -0.021558063 0.07294274 0.08910399 -0.041699857
0000b0 63 e9 15 be ea a4 d1 3d b5 79 38 be 7d 12 72 bd
       -0.14639811 0.10236533 -0.18015178 -0.059099663
0000c0 4e a5 3f bd 0f dc f5 3c cf 0f 48 3e 8f a5 fb bd
       -0.046788506 0.030012159 0.1953728 -0.12287437
0000d0 bc 6c fb 3c 49 5e cd 3d 47 a6 a7 3b 25 ea 90 bd
       0.030691497 0.10027749 0.0051162574 -0.070759095
0000e0 46 86 23 be b3 6a 3d 3d 87 14 f3 3c 97 24 3e be
       -0.1596919 0.046244334 0.029672874 -0.18568645
0000f0 fe 55 0c bc ed 74 8b 3d 6a 85 31 3d 75 fd 43 bd
       -0.008565424 0.06809411 0.043340124 -0.047849137
000100 d9 95 8d bc 17 59 75 3d 6a 0b c0 3c 69 1b b7 bb
       -0.017283367 0.059899416 0.023442943 -0.0055879843
000110 d6 ff 56 bd fb 8b e0 3d a3 1e 4a bd e1 db 4b 3d
       -0.052490078 0.10964199 -0.049345624 0.04977024
000120 0b a0 87 bd 2b 35 25 be e4 db 1c bb 4b b0 66 bc
       -0.06622323 -0.16133563 -0.0023934776 -0.014080117
000130 e4 b6 b0 3c 47 75 22 3c 55 0b 8e bd 1b 71 4e 3d
       0.021571584 0.009915656 -0.06935755 0.050400835
000140 3e 08 32 3d 02 1e e0 bd 0c 86 33 3e 58 e6 01 bb
       0.04346489 -0.109432235 0.17531604 -0.0019821133
000150 f4 06 42 3c 55 ae bc 3d 1b ab 09 be a7 0d aa bd
       0.011842478 0.09212939 -0.13444178 -0.08303385
000160 7d bd 51 3e d8 6a ff bc 41 80 85 bd 4f 85 f6 bc
       0.2048244 -0.031178877 -0.06518603 -0.030092863
000170 46 45 af 3c a3 3d 30 be 97 23 d8 3c 4d f9 f4 37
       0.021395337 -0.17211013 0.026384158 2.9203156e-05
000180 74 0a 84 bd e1 44 ec bd 58 99 af bd d6 97 fd 3c
       -0.06447306 -0.11536575 -0.0857417 0.03095619
000190 33 2e dc 3b a5 0b 3b be c3 22 bb bd 24 32 32 3d
       0.0067193746 -0.18266161 -0.0913749 0.04350485
0001a0 ed 44 1b bd 41 7c e3 3b 35 50 e2 bc f1 55 34 bd
       -0.03790753 0.0069423025 -0.027626136 -0.044027273
0001b0 f1 77 83 3d da d8 37 3d 61 98 94 bd b9 ec e6 3c
       0.064193614 0.04488454 -0.072556265 0.02818905
0001c0 1a f4 5c 3d cf cd d9 bd fe f0 c1 bc 08 f9 a5 bc
       0.05394373 -0.10634958 -0.023674484 -0.020260349
0001d0 4f f8 48 ba 21 8c 02 3e 86 1c a4 3d 98 e7 9b 3d
       -0.00076663954 0.12748767 0.08013253 0.076125324
0001e0 2a 58 7f bd 25 5f 30 3d db 0f c1 bd 06 37 f4 bd
       -0.06233994 0.043059487 -0.09426852 -0.119245574
0001f0 53 8a f9 bc d2 3c b4 bc 83 64 72 bd c8 de d8 3d
       -0.030461466 -0.022001658 -0.059177887 0.10589367
000200 94 ae b1 bc a3 5b b0 3c ab 17 2a 3d cc 9c 2d bd
       -0.02168969 0.02152807 0.041526478 -0.04238586
000210 22 5a 7f 3d b5 0c cf 3d 23 d2 25 3d b3 0d 36 3e
       0.062341817 0.101098455 0.040483605 0.17778663
000220 1d 9a 1e be 0d 1e b6 bd 01 a2 c5 3c e1 e4 25 3c
       -0.15488477 -0.088924505 0.024125101 0.01012537
000230 f6 f1 20 3d e2 c9 d9 3d 82 a4 90 3c 64 33 25 3e
       0.039293252 0.10634209 0.017656568 0.16132885
000240 69 04 b8 3c e0 b5 c4 3d fc 1e c4 bd 2e 83 e6 bd
       0.02246304 0.096050024 -0.09576222 -0.11255489
000250 1b 25 71 3d fc 29 b0 be f5 41 2a be 4e e9 8e bd
       0.058873277 -0.34407032 -0.16626723 -0.06978093
000260 80 1d 68 bd 78 d9 8f bc 20 69 5b bd 5a a2 c3 bd
       -0.05666876 -0.017559752 -0.053567052 -0.095524505
000270 61 4f 34 be 7d 47 ca bd ec d1 a7 3d ea 55 93 3d
       -0.17608406 -0.098769166 0.08194336 0.07194121
000280 fd 9b ca bc 55 2d ab bc 1b 9d 2b bd 0f 05 f1 3c
       -0.024732584 -0.02089564 -0.041897874 0.029421357
000290 44 2d 08 3c 18 7f 19 3d ec c5 d7 bc 59 8d 0b be
       0.008311573 0.03747472 -0.026339494 -0.13628139
0002a0 d1 b8 1a 3e 56 95 c1 bc 95 19 91 3d cb fb a2 3d
       0.15109564 -0.02363078 0.070849575 0.07958182
0002b0 e7 90 3c 3d 01 66 49 bb 60 30 22 3d df 9f 1a bb
       0.046036627 -0.0030730965 0.039596915 -0.0023593826
0002c0 f1 b4 02 be 1e 42 2b be 45 f9 5c 3e 18 b2 54 3e
       -0.12764336 -0.1672444 0.21579464 0.20771062
0002d0 a8 0e a3 3d c9 bf 95 3c 16 77 b4 bd 3f 96 3a 3d
       0.0796178 0.018279927 -0.08811776 0.045553442
0002e0 e5 d8 a6 3d 65 e8 84 3d 2d ec e4 bd 63 6d 78 bd
       0.08146838 0.06489638 -0.111778595 -0.060651194
0002f0 49 4f 71 3d a4 79 43 bc cb 03 e8 bd 3b 64 3f 3c
       0.058913503 -0.011930857 -0.113288485 0.011681612
000300 3e 53 53 be e5 01 4c 3d f4 85 f1 3d ef 24 bf bc
       -0.20637223 0.049806494 0.11793128 -0.023333041
000310 ae 58 dd 3d c9 dd 27 bd 40 91 5c bd 02 44 18 3e
       0.1080793 -0.040982995 -0.05384946 0.14869693
000320 e8 cf 63 bd 23 43 78 bd 7b b6 e3 bd b1 09 12 3e
       -0.055618197 -0.0606109 -0.1111879 0.1426151
000330 c6 a9 4f bd 4a 85 a7 bb a8 89 93 3d 5d 09 62 bc
       -0.050699018 -0.005112325 0.0720399 -0.013796178
000340 73 0f 0c 3e 57 59 f5 3c d4 60 42 3e ee 58 8d bc
       0.13677768 0.029949827 0.1898225 -0.017254319
000350 ee bb e0 3d c8 db 10 3d dc 08 c6 bc 54 8f b7 bd
       0.10973345 0.03536585 -0.024174146 -0.089628845
000360 c3 12 f5 bd b0 a9 72 3d 4c 4d d4 ba 81 8a 87 3c
       -0.11966469 0.059243858 -0.0016197353 0.016545536
000370 a7 3f 0d 3b 02 f4 bb 3b 6f 49 bc bd 44 74 8b 3a
       0.0021552832 0.005735875 -0.09193694 0.0010639508
000380 c7 b7 62 3d 01 4d 3e 3e 11 68 12 3e 87 d9 33 bd
       0.055351045 0.18584062 0.1429751 -0.043908622
000390 2a b0 dc bd 69 52 61 3d 7c f9 3a 3d 17 aa f8 bd
       -0.10775788 0.055010233 0.045648083 -0.12141817
0003a0 57 a9 37 3e e5 01 9e 3d 41 a9 53 3c d6 cc e8 bd
       0.17935692 0.07715205 0.012918771 -0.11367194
0003b0 59 3b bd bd ad a4 dc bc 95 37 63 bc 5d c0 6f be
       -0.09239835 -0.026933992 -0.013868232 -0.23413225
0003c0 d9 ce 7a bd f8 c7 bc bc ac 1a 05 3e 45 ac 4a 3c
       -0.06123242 -0.023044571 0.12998456 0.012370174
0003d0 e0 72 15 bd 93 bf 8b 3b a8 a7 00 be 82 24 17 be
       -0.036486506 0.004264781 -0.12563956 -0.1476002
0003e0 82 0b 94 bd ca a2 8a bd 74 0d 9b bb c9 22 c6 3d
       -0.072287574 -0.06769331 -0.0047318283 0.096746035
0003f0 b9 38 ae bd e3 a4 41 bb 03 93 09 be 77 89 18 be
       -0.08506913 -0.0029547743 -0.13434987 -0.14896189

action_model._discrete_distribution.branches.0.weight f4 [3, 128]
000000 16 0b 32 3b c3 d7 c0 ba 2a 14 9f 3b bf 54 8e ba
       0.0027167252 -0.001471274 0.0048546987 -0.0010858997
000010 fb ca 98 3b 6e 54 3a 3c b1 c7 a6 3c 5d 78 11 3c
       0.004662869 0.011372669 0.020358892 0.0088787945
000020 33 72 66 3a fe f7 24 3c ad a2 a9 3a eb c1 6a bc
       0.0008790821 0.010068892 0.0012942158 -0.01432846
000030 9b ff c9 3b 6f 88 1c bc 1a c9 8a ba 11 11 85 ba
       0.0061645037 -0.009554013 -0.0010588497 -0.0010152181
000040 d8 49 5c 3b a9 4e 9b 3a 8e fa af bb 29 98 1a bb
       0.003361335 0.0011849004 -0.0053704446 -0.002358923
000050 1b 83 a8 38 11 25 34 bc e4 32 2f 3c 0d 0a e7 bb
       8.0352846e-05 -0.010995165 0.010693286 -0.0070507587
000060 9e b1 00 ba 53 0b 33 bb 9b ac 3f 3c 9b dc d8 bb
       -0.00049092795 -0.0027319982 0.011698867 -0.006618095
000070 86 c2 99 3b 85 7f 51 ba 12 6d ea bb fa fd 5b bb
       0.0046923785 -0.0007991719 -0.0071541155 -0.003356813
000080 61 4c 07 bc f6 ec 25 bb b5 2f 83 bc eb b9 45 3b
       -0.008257956 -0.0025318242 -0.01601396 0.003017063
000090 d8 00 82 3c d7 9a d8 3b f8 d0 25 bc 6f f5 97 bb
       0.015869543 0.006610255 -0.010120623 -0.0046374123
0000a0 13 fd 32 bc ad bc d9 39 fd 3c e6 3b f3 f2 2c 3c
       -0.010924595 0.0004153004 0.0070263133 0.0105559705
0000b0 e2 cb 7f bb 72 5b 46 3b 55 93 0f bc 8d f9 11 bc
       -0.0039031436 0.0030266908 -0.008763154 -0.008909595
0000c0 45 d2 eb bb 87 aa 27 bc 8e 97 21 3b e3 a9 88 3c
       -0.007196697 -0.010233528 0.0024656984 0.01668257
0000d0 ed f4 98 3b 32 61 1d bb 04 e4 28 3b 13 d5 d3 3b
       0.0046678693 -0.0024014232 0.0025770674 0.0064646094
0000e0 7d 74 f0 bb 31 06 82 bc 6b aa b6 3b 32 42 59 3c
       -0.0073381052 -0.015872093 0.0055745146 0.013260411
0000f0 5c 7b 9f 3b ad 7b b3 3b b7 2d f6 3b 7d f0 52 bb
       0.0048670005 0.00547739 0.007512774 -0.00321868
000100 07 93 86 ba 83 17 d9 3a ca d3 5b bc 1b 1f d9 3c
       -0.0010267206 0.0016562793 -0.013417194 0.02650409
000110 f2 31 d6 ba 02 d5 d3 3b fd ea 17 bc d8 cc f9 ba
       -0.0016341789 0.0064646015 -0.009272334 -0.001905824
000120 56 b6 21 3c 40 ab d6 b8 24 eb 33 3c d3 a0 74 bb
       0.009870132 -0.00010236213 0.010981355 -0.0037327304
000130 14 e4 2d ba be 79 11 bb bf 72 38 bb 5f 79 60 3c
       -0.00066334126 -0.0022197808 -0.0028144566 0.013700812
000140 55 d7 aa 3b 22 7e 02 3b 38 1c 1f 3b 65 f4 11 bc
       0.005213658 0.0019911607 0.0024278294 -0.008908366
000150 53 5a e6 bb 04 66 c1 3b 21 74 aa bb 23 68 15 bc
       -0.0070298105 0.005902054 -0.005201832 -0.009119066
000160 3b 14 55 3c cb c1 04 bb 1b b7 18 3b 33 6f 21 bb
       0.013005312 -0.0020257111 0.0023302499 -0.002463293
000170 2f 50 5f b9 70 df fc bb 17 a0 c6 3b 8d c9 17 bb
       -0.00021296808 -0.0077170655 0.0060615647 -0.0023160905
000180 5d d2 bd 3b ab cd 9f bb ea 61 c0 ba 00 a8 75 bc
       0.0057928995 -0.0048768125 -0.0014677618 -0.014993668
000190 13 ee 47 3c 24 ec 4b bb 21 7e 0e bc 92 75 01 bb
       0.012202757 -0.0031116093 -0.008697064 -0.0019753915
0001a0 42 81 7a 3b 3f 61 0d ba 9d 34 7f bb ea 18 35 3b
       0.0038224016 -0.0005393214 -0.0038941272 0.0027633258
0001b0 dd a2 ec 3b af 42 88 3b 0b fe 2c bc 93 7c 4a bc
       0.0072215633 0.00415834 -0.010558615 -0.012358802
0001c0 80 05 22 bc 13 1c be 38 3c 03 27 bb 5b ef dc 3b
       -0.009889007 9.065135e-05 -0.0025484106 0.0067424006
0001d0 31 44 0e 3c f2 c3 4d 3b ff 22 ac 39 3b 9e e1 bb
       0.00868325 0.003139731 0.0003283247 -0.0068853176
0001e0 8e 80 33 bc 31 24 ab 3b 73 d7 55 3b 0d 87 1f 3c
       -0.010955943 0.00522282 0.0032629638 0.009736788
0001f0 87 b7 b6 3a 67 fd dc bb 42 c5 b0 bc f7 88 2c bc
       0.0013940193 -0.006744075 -0.021578435 -0.010530702
000200 63 08 8d 3b 83 6a c6 3b 6d 1e e2 3b 3d 7d 7b 3b
       0.0043039783 0.0060551777 0.0069005997 0.0038374208
000210 63 ea 36 3a 2b 8b 17 bc 05 53 07 ba 67 c5 b6 bb
       0.00069776754 -0.009249489 -0.0005162212 -0.0055777314
000220 bb 2f 82 bb e7 bf cf bb ba 2c 76 ba 27 7e 85 3a
       -0.003972975 -0.006340015 -0.000939082 0.0010184691
000230 70 99 e7 bb 00 42 49 bc 9f 2a fe 3b ae 68 ba 3b
       -0.0070678517 -0.012283802 0.0077565457 0.0056887483
000240 b3 38 86 bc 0f 2f 4d bc d0 6d 3f 3c 77 aa da 3b
       -0.016384458 -0.012523427 0.011683896 0.006673153
000250 bc 81 07 b9 ae 4d 40 bc 14 fb c2 3b 13 64 a9 bb
       -0.00012922933 -0.01173727 0.005950341 -0.0051694005
000260 8f 98 27 bb 48 e3 a5 3a d7 94 5e 3b 73 c9 92 3b
       -0.002557311 0.0012656236 0.0033963227 0.004479581
000270 11 4a 9e bc f0 be 6a 3b 98 24 f4 3b 82 0c 51 3c
       -0.019322427 0.0035819374 0.0074506514 0.01275933
000280 3b c2 a4 bb 9f 78 41 3a 60 11 c5 39 0f 79 60 bc
       -0.005028037 0.00073803397 0.00037587713 -0.013700738
000290 b6 65 94 bb 84 b1 27 bb 39 50 38 bb cf dd 36 3c
       -0.0045287265 -0.0025587985 -0.0028123988 0.011161282
0002a0 3c f8 09 3b 8e 6c 8f 3a 9a 20 ea 3b bd 05 0f 39
       0.00210525 0.0010942386 0.0071449997 0.0001363968
0002b0 35 9a 11 bc 95 42 f6 3b f8 99 6d bc 6b 78 39 bc
       -0.0088868635 0.0075152614 -0.014502041 -0.011320214
0002c0 64 c8 92 bc 15 85 a4 3c e5 a1 33 bc a8 f7 ec b9
       -0.01791782 0.02008299 -0.010963892 -0.00045197946
0002d0 24 ae 98 3a 7d 81 6b 3b 17 e4 02 bc 28 4a ef 3b
       0.0011648578 0.0035935335 -0.007988951 0.0073025413
0002e0 ed fb 8e 3b 23 71 74 bb 5f b9 e4 3b cb cc bc bb
       0.004363528 -0.003729888 0.006980106 -0.005761718
0002f0 93 5c 86 ba 74 e1 47 3c 96 13 87 bb d7 ac ae 3b
       -0.0010250978 0.012199748 -0.004122208 0.0053306627
000300 58 14 f6 bb 27 9b 0d 3c b5 8c ee 3b 28 fd 5e 3c
       -0.0075097494 0.008642948 0.007279957 0.013610162
000310 7f 36 e6 3b 17 2b 86 ba 9a 76 e2 3b cc 2e 01 bc
       0.0070255394 -0.001023623 0.006911111 -0.007884692
000320 b7 5f 2a bb 11 9c 8a 3c 7f 98 bd b9 48 79 e8 3b
       -0.0025996992 0.016920121 -0.00036162508 0.007094536
000330 9d e0 30 3c d9 26 c0 3b 23 14 ef bb 72 4b b4 bb
       0.0107957395 0.005864006 -0.0072961017 -0.005502158
000340 fc 02 00 b9 23 bd 2f 3b 87 be 0e bc 1a 0e c1 bb
       -0.00012208143 0.0026815615 -0.008712417 -0.0058915736
000350 b7 f0 b5 3a cb 47 7a b9 87 cd a0 3a 5d 1c 7e 3c
       0.0013880943 -0.00023868603 0.0012268283 0.015509692
000360 e7 a9 ff 3b 70 68 a6 3c 3a 43 92 bb dc df c0 3a
       0.0078022364 0.020313472 -0.0044635804 0.0014715153
000370 7c 68 35 bc fa de 8a bb 62 55 11 bc 3b 1e 90 3b
       -0.011072274 -0.0042380067 -0.0088704545 0.004398135
000380 7d b6 19 3c 55 25 98 3c 2e 56 3a bb 7e 49 23 3b
       0.0093818875 0.018572489 -0.0028432715 0.002491563
000390 ad 14 1d bc 74 80 81 3c 86 41 a0 bb a2 ea 72 3c
       -0.009587449 0.015808322 -0.0048906235 0.014826449
0003a0 03 fb 8f 3b 35 cb 13 3c 7f 32 0a 3c 0f 03 13 3c
       0.0043939366 0.009020616 0.008434891 0.008972897
0003b0 70 d8 bd 3b 29 5a 0f 3c f4 38 80 ba eb 2a 32 3c
       0.0057936236 0.008749523 -0.0009782598 0.01087449
0003c0 ff 25 01 3c 88 27 e9 bb 62 fa e7 bb 2d 89 58 3c
       0.007882594 -0.007115308 -0.0070794085 0.013216299
0003d0 22 b0 f2 bb 0e 0a 32 3b 8f e9 f0 3b 01 d2 32 b9
       -0.0074062506 0.0027166638 0.007352061 -0.00017053635
0003e0 62 1f e4 39 a0 fb ff 3c 7a d9 af 3b db f7 7e bc
       0.0004351093 0.031247914 0.0053665014 -0.015562023
0003f0 f7 ad 7b bc 7f 25 75 37 41 b2 c3 3b 15 c2 56 bc
       -0.015361301 1.4611868e-05 0.0059721773 -0.013107796

action_model._discrete_distribution.branches.0.bias f4 [3]
000000 00 00 00 00 00 00 00 00 00 00 00 00
       0.0 0.0 0.0
