src/CyberHero/Assets/RL/AgentNeuralNetwork/MidBossAgent.onnx (onnx, 80270 bytes, 5 tensors)

network_body._body_endoder.seq_layers.0.weight f4 [128, 15]
00000000: 6ec8 993e c7c5 02bf adb6 a53e 2491 84bd
00000010: 4eeb 613e 12de 163f 89da 22be 2fc4 0cbe
00000020: 1045 cb3c 08c4 7abe f90e 443e 28ba 45be
00000030: 6788 f0be 7f5a 973e 3289 11be 5861 583e
00000040: 50a4 213e 418e 3e3d 28d2 05be adbf 543e
00000050: 204d f23d 0635 27bd db9f 2abc abb8 e0be
00000060: 219b 48be add3 093f 5254 0c3e 439c d83d
00000070: dce7 6c3d 0c4d 9f3e ae1c 0a3e 6e3b 3bbe
00000080: 4f3c efbd b5a0 b93d b525 f93e 1046 153f
00000090: 5878 26bd 28db 8b3e dea4 133d d811 32be
000000a0: a6ab 73bd 895b a8be c1be 293e cb70 2b3e
000000b0: 178a 853e f7cf efbd 737f ddbe ff60 10be
000000c0: f137 803d 31f6 b5be f925 9c3e bcb2 0b3e
000000d0: d40b 33bd 45ca bbbe 0514 433e bead 86bd
000000e0: f96e 643e 33fa 9bbe 84c2 cdbd b8a2 f2be
000000f0: 821c ff3d d756 3f3e 4c2e b1be 14d9 6dbb
00000100: 77d7 ae3e f099 9abd afef ac3e 10cb fd3c
00000110: fc41 273e 2e57 30be 9360 1dbe 8423 53bd
00000120: 4df2 cebb 0748 7dbe 0957 dfbe b19a 92bc
00000130: b8bc a1be 537e a73d 0f76 febd 9784 a1be
00000140: 936a a13e 65d8 9dbd 7943 433e 0b88 153e
00000150: 569c 593e ac0f 9dbe 7714 963e 94dc 11bc
00000160: 697c 5f3c aeeb 4f3e 956e a5bd bb76 a43d
00000170: 8bc2 103c 67fe f6bd 1316 c2be be45 7e3e
00000180: 493e 55bd 60fd 3fbb 1060 34be c30e 823d
00000190: e83a 9bbe 819e c9be 655b 053f e861 be3b
000001a0: e378 893e 8bf9 7cbe 3460 a53e 49b9 29be
000001b0: ed10 21bc ace2 103e 073e b93e 53c9 a63d
000001c0: 1734 963d 8cca bd3d 7c04 4a3e 1129 ca3e
000001d0: e998 1e3e d49d 6c3e b60f 2cbd 2214 d23d
000001e0: 6e8c fb3d 0775 793e 204a 273e ade0 433e
000001f0: 5ee4 253e 393f e43d 46b4 eebe 194d abbc
00000200: 2df3 4cbe 6422 03be 688e 0f3d 2de4 dd3c
00000210: f9b7 66bd 5a9b 853e 3545 f53e ffee acbe
00000220: 687b 3dbf f98f 543d 6621 2abd f00d 9d3d
00000230: 62b6 b9be e9ed fb3c d3fe 8ebe 825c 753e
00000240: 81dd 1d3d 23c5 26be 9218 8e3e bfb9 e73d
00000250: f82b 47be e43c 1d3e d1da c8bd 33ed 3ebd
00000260: 89cc 873d efe7 de3d 80ac 29be 0c1e 08be
00000270: f5f8 df3e 792f e1bd 8dcc 213e f1b4 ae3e
00000280: 8526 f73d c84f 8dbe 4edb bf3d c4b2 ad3e
00000290: 815b b2bd 078f 4b3d 0ab9 66be 7012 c43e
000002a0: 4c10 69be 3385 9a3c 9d30 d6bd 3c13 8dbd
000002b0: 251f 9cbe c9b8 883e f3ad 093e de2d ea3e
000002c0: c5bb 013f 83f6 a6bd 3da3 c3be 1614 253f
000002d0: baf4 39be 33fe 813e 54b0 5c3e 5cfd 2b3e
000002e0: ef33 4c3d 0053 fc3e 2db6 96be 651d 26be
000002f0: da9b 3ebc e5a7 80be b6ed cbbe 9ea1 22be
00000300: 7733 82be a843 1c3f c0c8 2a3d 2155 333c
00000310: 7b34 b7be c7c4 3c3e 88ef ecbe 40a4 e93d
00000320: fefe d23d 8b43 28bc 20a1 943c 65c6 c9be
00000330: bf43 8e3e a3eb 93bd 5fee a0be 6c98 833e
00000340: f90a b73e 4d5f 50be c37a 383e b999 3ebd
00000350: fd6e a2be 3e5b edbe e844 3f3e f048 bc3d
00000360: 3571 033d 725c af3d 1662 41be 6630 393f
00000370: 7f15 5b3e af71 9b3d 60ca 17be 7e0c 52be
00000380: 7361 613e 790d 973d 5bf5 14bf c376 8dbe
00000390: e74a 5a3e 4d2b 97be baca 9dbd c3f8 39ba
000003a0: a49c d1bd be3e f43d 31f1 003d 73f4 0dbd
000003b0: 253b 8cbd 1905 06be 906b 743e 655f 3dbc
000003c0: 5dcd babe 2859 1c3e 2ce2 ce3e ad67 32be
000003d0: 6715 8ebe 3fe0 e7be 06f4 70be c45f 9d3e
000003e0: b90e 94bd afaf c9bd 6d81 3bbd 5e05 dfbe
000003f0: ebc9 ce3c cce4 debc ce49 8c3e 0535 043d
0.30035728 -0.51083034 0.32365933 -0.06472996 0.22062418 0.589326 -0.15903677 -0.13746713
0.024813205 -0.24488842 0.19146337 -0.19309294 -0.46979067 0.2956123 -0.14212492 0.21130884
0.15785336 0.046522383 -0.1306845 0.20776244 0.11831117 -0.04082205 -0.010414089 -0.4389089
-0.19590427 0.53838617 0.1370404 0.105766796 0.057838306 0.3111347 0.13487503 -0.1828439
-0.11681425 0.090638556 0.4866158 0.5831003 -0.040642112 0.2731564 0.0360459 -0.1738962
-0.05948987 -0.32882336 0.16576673 0.16742246 0.26081917 -0.11709588 -0.432613 -0.14099501
0.0626067 -0.35539392 0.3049772 0.136424 -0.043712452 -0.36677757 0.19050606 -0.065761074
0.22307958 -0.30464324 -0.100468665 -0.4738977 0.12456609 0.1868547 -0.34605634 -0.0036292719
0.34148762 -0.075488925 0.33776614 0.030980617 0.16333765 -0.17220756 -0.15368871 -0.051547542
-0.0063155056 -0.24734508 -0.4362109 -0.017896028 -0.31589293 0.08178391 -0.12424862 -0.3154647
0.31526622 -0.077072896 0.19068708 0.14602678 0.21251044 -0.3067602 0.29312488 -0.008902688
0.013640502 0.20304748 -0.080777325 0.080304585 0.008835445 -0.12060242 -0.37907466 0.24831292
-0.052061353 -0.002929531 -0.1761477 0.06350472 -0.3031838 -0.3937874 0.5209258 0.005810011
0.26850042 -0.24704568 0.3229996 -0.16574587 -0.009830696 0.14148968 0.36180136 0.08143868
0.07334154 0.092671484 0.19728273 0.39484456 0.15488018 0.23107082 -0.04200717 0.10257746
0.12282644 0.24361049 0.1633687 0.19128676 0.16200396 0.11144871 -0.46621913 -0.020910786
-0.20014639 -0.12806088 0.03504792 0.027086342 -0.056327794 0.26095086 0.47904363 -0.3377609
-0.7401643 0.051895116 -0.041535757 0.07668674 -0.3627196 0.030753093 -0.2792879 0.2396107
0.03854132 -0.16286139 0.2775312 0.11314725 -0.19450366 0.15355259 -0.09807361 -0.04661293
0.06630809 0.108840816 -0.1656971 -0.13292712 0.43744627 -0.10995383 0.15800686 0.34122422
0.12067894 -0.2759993 0.09368001 0.3392545 -0.08708859 0.04969695 -0.22531524 0.38295317
-0.22760123 0.018862342 -0.10458491 -0.06888434 -0.3049251 0.2670348 0.13445263 0.4573812
0.5067714 -0.08152487 -0.38210478 0.64483774 -0.18159762 0.2538925 0.21551639 0.16795868
0.049854215 0.49282074 -0.29435864 -0.1622215 -0.011633838 -0.25128093 -0.39829797 -0.15881965
-0.2542989 0.61040735 0.041695356 0.010945589 -0.35782227 0.1843444 -0.46276498 0.11408281
0.10302542 -0.01027001 0.018143237 -0.39409176 0.2778606 -0.072226785 -0.31431863 0.25702226
0.3575056 -0.20348854 0.1801558 -0.04653332 -0.31725302 -0.46358675 0.1867863 0.09193599
0.032090385 0.085625544 -0.18885073 0.72339475 0.21394919 0.07590043 -0.14823294 -0.20512578
0.2200983 0.073756166 -0.5818688 -0.2762967 0.21317635 -0.29525223 -0.07704683 -0.00070942583
-0.10234955 0.119260296 0.031480018 -0.034656953 -0.068472184 -0.13087882 0.23869157 -0.011558388
-0.36484805 0.15268385 0.4040693 -0.17422362 -0.27750704 -0.45288274 -0.23530588 0.30737126
-0.072293706 -0.09847962 -0.045777727 -0.43558782 0.025242766 -0.027208708 0.27400059 0.032277126

network_body._body_endoder.seq_layers.0.bias f4 [128]
00000000: 0000 0000 0000 0000 0000 0000 0000 0000
00000010: 0000 0000 0000 0000 0000 0000 0000 0000
00000020: 0000 0000 0000 0000 0000 0000 0000 0000
00000030: 0000 0000 0000 0000 0000 0000 0000 0000
00000040: 0000 0000 0000 0000 0000 0000 0000 0000
00000050: 0000 0000 0000 0000 0000 0000 0000 0000
00000060: 0000 0000 0000 0000 0000 0000 0000 0000
00000070: 0000 0000 0000 0000 0000 0000 0000 0000
00000080: 0000 0000 0000 0000 0000 0000 0000 0000
00000090: 0000 0000 0000 0000 0000 0000 0000 0000
000000a0: 0000 0000 0000 0000 0000 0000 0000 0000
000000b0: 0000 0000 0000 0000 0000 0000 0000 0000
000000c0: 0000 0000 0000 0000 0000 0000 0000 0000
000000d0: 0000 0000 0000 0000 0000 0000 0000 0000
000000e0: 0000 0000 0000 0000 0000 0000 0000 0000
000000f0: 0000 0000 0000 0000 0000 0000 0000 0000
00000100: 0000 0000 0000 0000 0000 0000 0000 0000
00000110: 0000 0000 0000 0000 0000 0000 0000 0000
00000120: 0000 0000 0000 0000 0000 0000 0000 0000
00000130: 0000 0000 0000 0000 0000 0000 0000 0000
00000140: 0000 0000 0000 0000 0000 0000 0000 0000
00000150: 0000 0000 0000 0000 0000 0000 0000 0000
00000160: 0000 0000 0000 0000 0000 0000 0000 0000
00000170: 0000 0000 0000 0000 0000 0000 0000 0000
00000180: 0000 0000 0000 0000 0000 0000 0000 0000
00000190: 0000 0000 0000 0000 0000 0000 0000 0000
000001a0: 0000 0000 0000 0000 0000 0000 0000 0000
000001b0: 0000 0000 0000 0000 0000 0000 0000 0000
000001c0: 0000 0000 0000 0000 0000 0000 0000 0000
000001d0: 0000 0000 0000 0000 0000 0000 0000 0000
000001e0: 0000 0000 0000 0000 0000 0000 0000 0000
000001f0: 0000 0000 0000 0000 0000 0000 0000 0000
0.0 0.0 0.0 0.0 0.0 0.0 0.0 0.0
0.0 0.0 0.0 0.0 0.0 0.0 0.0 0.0
0.0 0.0 0.0 0.0 0.0 0.0 0.0 0.0
0.0 0.0 0.0 0.0 0.0 0.0 0.0 0.0
0.0 0.0 0.0 0.0 0.0 0.0 0.0 0.0
0.0 0.0 0.0 0.0 0.0 0.0 0.0 0.0
0.0 0.0 0.0 0.0 0.0 0.0 0.0 0.0
0.0 0.0 0.0 0.0 0.0 0.0 0.0 0.0
0.0 0.0 0.0 0.0 0.0 0.0 0.0 0.0
0.0 0.0 0.0 0.0 0.0 0.0 0.0 0.0
0.0 0.0 0.0 0.0 0.0 0.0 0.0 0.0
0.0 0.0 0.0 0.0 0.0 0.0 0.0 0.0
0.0 0.0 0.0 0.0 0.0 0.0 0.0 0.0
0.0 0.0 0.0 0.0 0.0 0.0 0.0 0.0
0.0 0.0 0.0 0.0 0.0 0.0 0.0 0.0
0.0 0.0 0.0 0.0 0.0 0.0 0.0 0.0

network_body._body_endoder.seq_layers.2.weight f4 [128, 128]
00000000: 92ae 363d b008 dd3d 8e63 6cbd f0cc 26bd
00000010: b025 a53d 865d 8bbc 5880 1e3d 17ca 843b
00000020: 12d0 753d b923 63bd 7b61 acbd 4e27 0abc
00000030: e408 563d 199e 2ebc 95b3 adba 1818 68be
00000040: 2677 3d3d faf5 f1bd e42c 503d f0ae 0fbd
00000050: e9a2 9a3d ea81 2b3d 4bf0 d5bc 33cb 2cbd
00000060: 9816 933d 696c 6b3e 760a a23d 7423 eb3c
00000070: d7d0 aa3d d353 8ebd 6a88 88bc 51fb 3ebd
00000080: 63b4 82bd f58c 1c3c 177b fc3d 7898 c7bd
00000090: fae5 263d 7c8b 0f3e 99a5 0f3e 3708 3abc
000000a0: 46a3 933d 6cd3 e9bd a658 653d d6f2 95bc
000000b0: 5e23 d0bd 6922 583d c076 023d 6ec1 08be
000000c0: d052 a0bd 974d e23b 5b31 67bd 0bb7 e4bd
000000d0: cfcc 8c3d 1142 11be bc79 ba3c 45eb 2dbd
000000e0: 8e8e 79bd 8960 4bbc fc4b 18bd 4612 073e
000000f0: ad42 59bd 12f2 46be ecd7 02be 07a5 b83c
00000100: 06b5 cabd 5397 523d a201 a73c 7a93 8dbd
00000110: 2575 f8bc e889 0bbd 7759 ca3b 47bb 573c
00000120: e636 943c 87f4 383e 14bc 9bbd 8129 e03c
00000130: 8923 ddbd deae ffbc 02c5 fd3c 4dd3 223d
00000140: 9b30 47bc 7ba5 de3d 3501 533d dcc7 b03d
00000150: f598 fd3c ee56 05bd 33f2 9cbc bf85 fbbd
00000160: f6ef 58bd 448e 2ebd 7365 b93d 0f02 2bbc
00000170: 9c75 073d cfb7 b63c 7381 25bd 816b cc3c
00000180: bd48 0e3e 36e0 123e cd35 8d3d 929d 32bc
00000190: f0c2 30bd c16e b4bd 7ed1 d23c 915f f6bd
000001a0: dc9a 9f3d 1715 013e 6ba6 f73d 59f9 86bd
000001b0: 4b9f be3d 7147 bcbd 00eb fd3d 82f7 b2bd
000001c0: fa70 f9bd b3d9 5dbd f24e 5e3c e55a d2bd
000001d0: bd4f 043e 9b1d 7cbd a898 a03d 4061 8dbd
000001e0: 157a 40be 36d9 bc3d c6f4 abbc a77f 8a3d
000001f0: 1468 c93d 116f 913d ccca a33d 0743 e53d
00000200: b801 e8ba 2321 eabd 7b05 a73d 6928 a3bd
00000210: 6880 e33d 79ec c93d 30fa 5cbd c315 3bbe
00000220: 83d4 d33c 672f ca3d 508f b43c 6eb9 013e
00000230: 9de1 343e dc79 93bd 7944 0d3d 749b 813d
00000240: 8dd3 aebd c3f6 983d 070b fa3d 9c02 e93d
00000250: 7daa 863d 68cc 7e3c ae09 f3bc f433 54bd
00000260: 4f5d 2d3d 5c6a 0bbe ee26 00bc 4f83 623d
00000270: 62fc 64bd 5217 03be db82 f53b 3cea ca3d
00000280: 368a f4bd 33d9 e4bd 59b3 e23d 7cb4 83bd
00000290: 90b4 3bbe 0fa1 59bd ff0e de3d 1903 383b
000002a0: c546 6f3d 14ce e7bb 65d9 813d 5b94 51bc
000002b0: 4284 103d fc36 a13d 320b fd3c a80c da3d
000002c0: eb3f 9d3d 0496 ca3c e79b e9bd 74eb 70bd
000002d0: 7319 a23c e470 93bd 51ae c6bd bcc8 d9bd
000002e0: 56ab 9f3d 8856 e23c 1cf1 93bd 27f8 8dbc
000002f0: aeda 163b fb3e eebd fa24 2f3a a67f 39be
00000300: 3c79 d8bc 9ff4 e5bc df46 84bc 337b 0bbd
00000310: 501b a13d fb58 c93d 9fe2 29be 09e8 873c
00000320: fdab 173e 8331 893d f5b2 b33d 75ba a4bd
00000330: bd81 02bd c0c3 1dbe c7c9 a23d bdcc b53d
00000340: e86e 973d a390 32bd 483b 2cbe 60d7 e7bc
00000350: ad24 8f3d fff7 86bd 3034 88bd 10ca 1dbe
00000360: 4cef 90bc aaa2 ffbd 09f5 973b ff07 c43d
00000370: 44a6 2c3d 445e cfbd a80c cfbd 7e59 843b
00000380: 49ff 7abd 15f4 02be cb4a c53d b61b b83c
00000390: 64b4 803c dac5 cebd 248c 373d 3021 40bd
000003a0: 910e ae3d 9f2d 3dbe 0234 83bd af33 73bd
000003b0: 55f2 cb3c 0813 25be dd67 9cbc bd31 7dbd
000003c0: 6d2c 913d d0a5 6bbd 7faa 25be 3bc9 d9bd
000003d0: 1f48 00bd 8cd8 a73c 86e5 fc3d f701 a5bc
000003e0: 4394 953d fb47 ec3c abe1 d6bd 17c1 37bd
000003f0: 4077 7c3d 3651 85bd 55d4 2abd 44b4 803d
0.044600077 0.10792673 -0.05771213 -0.040722787 0.08063829 -0.017012369 0.038696617 0.0040524113
0.060012884 -0.05545399 -0.084170304 -0.0084322225 0.052254573 -0.010657811 -0.0013252372 -0.22665441
0.046256207 -0.118144944 0.05082406 -0.035078943 0.07550604 0.041871943 -0.026115557 -0.042185973
0.07182044 0.22990574 0.079121515 0.028703429 0.08340614 -0.06949582 -0.01666661 -0.046626393
-0.06382062 0.009555091 0.12328165 -0.09745878 0.040746666 0.14018053 0.14028014 -0.011354498
0.07208876 -0.11417279 0.055992745 -0.01830427 -0.10162996 0.05276719 0.03185153 -0.13355038
-0.07828295 0.006906222 -0.056443553 -0.11167725 0.06875002 -0.14185359 0.022763126 -0.0424607
-0.060926966 -0.0124131525 -0.03718184 0.13190565 -0.053042103 -0.1942828 -0.1277768 0.022539629
-0.09897809 0.051413845 0.02038652 -0.069128945 -0.030329296 -0.034067065 0.006175216 0.013167209
0.018092584 0.1806203 -0.076042324 0.02736354 -0.107977934 -0.031211313 0.03097773 0.039752293
-0.012157585 0.10871407 0.051514823 0.0863187 0.030956725 -0.032553606 -0.019158458 -0.122813694
-0.05296322 -0.042616144 0.09052553 -0.0104375025 0.033071145 0.022304444 -0.040406656 0.024953606
0.13894935 0.14343342 0.06895027 -0.0109018255 -0.043154657 -0.08810187 0.02573466 -0.120299466
0.07793209 0.12605701 0.120922886 -0.06590528 0.093077265 -0.09193314 0.12398338 -0.087386146
-0.12179752 -0.054162692 0.013568627 -0.10271243 0.12921043 -0.06155167 0.07841617 -0.069033146
-0.1879657 0.09221117 -0.02099074 0.06762629 0.098343045 0.07101262 0.07997665 0.11194425
-0.0017700708 -0.114321016 0.08155342 -0.07966692 0.11108476 0.09859557 -0.053949535 -0.1827002
0.02585817 0.098723225 0.022040993 0.12668392 0.1766419 -0.07200977 0.03448913 0.063284785
-0.08536444 0.07468941 0.122091345 0.11377451 0.06575487 0.015551664 -0.029667702 -0.05180736
0.042325314 -0.13614792 -0.007821782 0.055301007 -0.055904754 -0.12801865 0.007492406 0.09907958
-0.11940424 -0.1117424 0.11069364 -0.06430909 -0.18330598 -0.053132113 0.10842704 0.0028078018
0.0584171 -0.007074127 0.06340293 -0.012791718 0.03528238 0.078718156 0.030889127 0.10646945
0.07678207 0.024729736 -0.11406689 -0.058818296 0.019787526 -0.071992666 -0.09701217 -0.1063399
0.077963516 0.027629152 -0.07223722 -0.017330242 0.0023018527 -0.11633106 0.000668123 -0.181151
-0.026424997 -0.028070746 -0.016147075 -0.03405304 0.078665376 0.09831425 -0.16590355 0.016590135
0.14811702 0.06698897 0.08774368 -0.08043376 -0.03186201 -0.15406704 0.07948642 0.08876941
0.073942006 -0.043594968 -0.16819489 -0.028300941 0.06989417 -0.0659027 -0.06650579 -0.15409112
-0.01769223 -0.124821976 0.0046373648 0.09571838 0.04215075 -0.101254016 -0.10109836 0.0040389886
-0.061278615 -0.12788422 0.09633406 0.022474151 0.015711017 -0.10096331 0.044811383 -0.04690665
0.08498872 -0.18474434 -0.06406404 -0.05937546 0.024895826 -0.16120541 -0.019092495 -0.061815012
0.07088552 -0.057531178 -0.1617832 -0.10634085 -0.03131878 0.020489 0.123484656 -0.020142538
0.07303669 0.028842917 -0.104922615 -0.04486188 0.061637163 -0.065096304 -0.0417064 0.06284383

action_model._discrete_distribution.branches.0.weight f4 [3, 128]
00000000: 5d42 323c c2a9 523b 573b db3b ea13 d9bb
00000010: f1eb 99bb 6a0b 033c 94d3 85bc 1092 63ba
00000020: b624 9c3b 45fa d639 3750 823c bcde a8b9
00000030: 5d79 85bb d4ba 37bb 3f0b 14bc 18df 9e3b
00000040: 6bc7 53bb ff1e 373c 4f5f 82b9 3985 bdbb
00000050: 3829 d7b9 9eb0 0dbb 71e7 143b e412 a13b
00000060: 7a90 82bb 7dce eb39 8344 20bb 4613 4c3b
00000070: 7fb1 293a 70e3 02bc 130f ab3c 3f96 be3b
00000080: 28ac f2bb 4f62 d03b 884d d7bb b2b5 08bb
00000090: c862 20bc 2100 bbbc c31c f0bb d3ef 4cbc
000000a0: d0d8 b33b 470d d0ba e5c9 d4bc 373c 3cbc
000000b0: a3af 83ba a04b b93a 7d44 ab3b 083a 5c3b
000000c0: 5a0e d6bb da7d 56bc faa1 3238 eb42 14bc
000000d0: 857e 143c c5ca 853b f55c 253c 93c2 dbbb
000000e0: bf4b 5dbc 13e0 173b 2129 983a e36e c3bb
000000f0: d668 3cbb 3352 c13b 3eb9 2e3b 8d6f 2c39
00000100: c3ef 4fb9 b51e 293c 60cf 263c a045 543c
00000110: e369 cbba c282 85bb 9845 59bc 63d0 b5bb
00000120: 9e56 ae3c 207d 33ba 44f8 893b dba8 be3a
00000130: 585b 823a eb06 9cbb bf61 30bc 9beb 6cbc
00000140: 48a9 34bc 3e91 83bc 3bce 5bbc a0f1 50bc
00000150: 71a8 253c 53a4 593b ba49 7bba 5c4a 11bc
00000160: b38c 1cbc 92b4 0bba b00e 4fbb 5ffe e63a
00000170: 3cd3 913b 6dac 8bbb 1a52 fabb 08d3 ce3b
00000180: e4bb 1a3c b883 dabc 65e1 edbb fe06 17bc
00000190: d8b2 003a 1bd9 253c 97bc fabb f32c 95b9
000001a0: a8ba 48bc af14 343c 6748 393b b33f 40bb
000001b0: a2a2 68bb 4637 963a 893b a53c 09ff 8c3c
000001c0: 5f16 02bc 63a4 2a3c 58cc 6a3b b3f3 1cbc
000001d0: d7c7 5a3b a9c5 0dbb 9335 3cbc e229 30bb
000001e0: 4643 b93b c847 c23b 0b4c 8e3c e8e2 89bb
000001f0: 1b9b 1fbc 38bd 3e3c 8abd 703c c69f 32bb
00000200: eab7 a7bb 9eff bc3b beb4 83bc c31e 633b
00000210: 55f2 e6bb ef3a 993c c079 0a3b 878f 463c
00000220: 047f 923a 7bad 923a ff68 8739 bbcc 42ba
00000230: 9af5 7dbb 485a 6bbb a8db bebb 1cf7 41bc
00000240: 24aa 323c 7977 0b3b e169 173c 127d 643c
00000250: 7263 9ebc 7268 e8bb d3d7 82bc e7ba 0dbc
00000260: 3fe2 9bb9 1605 cc3a 76ce 93bb b8b3 dfbb
00000270: bcc9 93bb 578e 233b e34c 133b f46f 0dbb
00000280: 4b2d 103c 6038 c93c dbfc c5ba 9758 60bb
00000290: 089b 893b 3a8c 44bc 6f3d 50bb 5230 44bb
000002a0: 1694 cc3b b3a6 343a b8ff 96bb 937d 753b
000002b0: f033 d9b9 07b7 b1bc c712 3bbc b27f 723b
000002c0: 8011 e23a ea15 083c a18d 82bc e559 3abc
000002d0: 8f60 013c 2219 583c af5a 45bc 87f9 083c
000002e0: 9b57 02bc cdba 063c 67be 2e3b 2605 1cbb
000002f0: 7ac4 433c fa2c 353b 32cc 91bb 693b 023c
00000300: cae7 ae3b effa 4d3c e7f8 253c 5a21 713b
00000310: 09d5 14bc a0a2 4ebb 8df9 1c3b c79e 9dbb
00000320: 5b8d a73b 6f56 df3b 4391 41bb e62f 25bc
00000330: 8512 5fba c4f5 023c cbed e5bb 4aa5 a4b9
00000340: d74c 683b 3ffc 9f3a 251c 56bc 47f5 d5bb
00000350: b061 dfba 5ba2 8f3b 9a39 6539 0376 3f3b
00000360: 6830 fc3b d66a 8d3c a0ee 9b3b 0be9 84bc
00000370: 5fb1 303c 3b66 a2bb babc 05bc 2a81 183c
00000380: 75d7 0bbc afa1 7a3a 55dc 643c 8fed 80ba
00000390: 61ce 3e3c fbb3 f8bb 0bf7 0dbc 6b3b 433b
000003a0: c77f 35bc 1750 10bb 9144 2abc 7dcb d63a
000003b0: 0114 2e3b 6d74 93bb a96e 41bc 9731 293c
000003c0: 900b 0b3c 2bcb 7d3c 8b71 e13b cbad 9a3b
000003d0: 55db 52b8 1519 6b3c 5bba d73b c2d7 9e3b
000003e0: c4c1 49ba 7bfe 67bc f40c 463c 4606 a03b
000003f0: 5074 1c3a ef13 20bc 49fc 84bb 2503 b8bb
0.01088008 0.003214464 0.0066904235 -0.0066246884 -0.004697316 0.007998327 -0.01633624 -0.0008681128
0.0047651185 0.00041003726 0.01590739 -0.00032209407 -0.0040733055 -0.0028034942 -0.009035884 0.004848372
-0.0032314907 0.011176824 -0.00024866543 -0.0057837036 -0.00041038706 -0.0021620165 0.0022720958 0.004915582
-0.003984508 0.0004497654 -0.0024454899 0.0031139418 0.00064732874 -0.007988796 0.020881211 0.0058162506
-0.0074057765 0.0063593755 -0.0065705217 -0.0020860252 -0.009789176 -0.02282721 -0.0073276474 -0.01250835
0.0054884925 -0.0015873098 -0.025975177 -0.011488966 -0.0010046851 0.0014136918 0.0052266703 0.0033603925
-0.0065324726 -0.013091529 4.258936e-05 -0.009049158 0.009063368 0.00408301 0.010092963 -0.0067065447
-0.013506829 0.002317433 0.0011608937 -0.0059641465 -0.002874901 0.0058996915 0.0026660706 0.00016444754
-0.00019830377 0.0103222625 0.010181278 0.012956053 -0.0015519228 -0.0040744254 -0.013261221 -0.0055485233
0.021281537 -0.0006846953 0.004210504 0.0014546172 0.0009945435 -0.004761567 -0.010765492 -0.01446047
-0.011026688 -0.016060468 -0.013415868 -0.01275292 0.01011096 0.0033209517 -0.0009585876 -0.008867826
-0.00955503 -0.0005329336 -0.0031594448 0.0017623416 0.00445023 -0.004262498 -0.007639182 0.006311778
0.009444211 -0.026674137 -0.007259535 -0.009217976 0.00049094623 0.010122563 -0.007651876 -0.00028452984
-0.012251534 0.0109912595 0.0028271915 -0.0029334843 -0.0035497327 0.0011460565 0.02016999 0.017211454
-0.007939904 0.010415169 0.0035827365 -0.009579587 0.0033383274 -0.0021632707 -0.011487382 -0.0026880433
0.0056537716 0.005928967 0.017370244 -0.0042079575 -0.00974157 0.011641793 0.014693627 -0.0027255877
-0.00511836 0.0057677766 -0.016077396 0.0034655787 -0.007047931 0.01870486 0.0021129698 0.0121191805
0.001117677 0.0011190617 0.00025827435 -0.000743102 -0.0038751126 -0.0035911966 -0.005824525 -0.011838701
0.0109048225 0.0021280928 0.009241552 0.013945835 -0.019334529 -0.007092529 -0.015972054 -0.008650518
-0.0002973247 0.001556548 -0.004510696 -0.006826844 -0.0045101326 0.0024956667 0.0022476248 -0.0021581622
0.008799861 0.024563015 -0.0015105264 -0.003423249 0.0041993894 -0.011996323 -0.0031774899 -0.0029936028
0.006243239 0.0006891295 -0.004608121 0.0037458881 -0.00041428162 -0.02169372 -0.011418051 0.0037002382
0.0017247647 0.008306006 -0.015936675 -0.011373972 0.0078965565 0.013189586 -0.012045546 0.008360273
-0.007955457 0.008223248 0.0026663782 -0.002380678 0.011948699 0.0027645216 -0.004449391 0.007948735
0.00533769 0.012572034 0.010130144 0.003679356 -0.009083995 -0.0031530038 0.0023952455 -0.0048101875
0.0051132864 0.0068157236 -0.0029536046 -0.010082221 -0.00085095345 0.007993165 -0.0070168725 -0.00031403668
0.003544619 0.0012205912 -0.013068234 -0.0065294835 -0.0017042663 0.004383368 0.000218606 0.0029214628
0.0076962 0.017262857 0.004758671 -0.016224405 0.010784476 -0.0049560345 -0.008162672 0.009308139
-0.008535256 0.0009560836 0.013968547 -0.0009836423 0.011645884 -0.0075898147 -0.008664857 0.0029790055
-0.011077828 -0.0022020394 -0.010392324 0.0016387549 0.0026562216 -0.004499963 -0.011806169 0.010326765
0.008486643 0.015490334 0.0068799905 0.004720425 -5.027217e-05 0.014349242 0.0065834946 0.0048474977
-0.0007696415 -0.014159794 0.012088049 0.0048835604 0.00059682596 -0.009770378 -0.004058395 -0.005615609

action_model._discrete_distribution.branches.0.bias f4 [3]
00000000: 0000 0000 0000 0000 0000 0000
0.0 0.0 0.0
