src/CyberHero/Assets/results/MidBossTrain/MidBossAgent/MidBossAgent-3078.onnx (onnx, 81529 bytes, 7 tensors)

discrete_act_size_vector f4 [1, 2]
0	0x40000000	2.0
1	0x3f800000	1.0

network_body._body_endoder.seq_layers.0.weight f4 [128, 13]
0	0x3d8343a0	0.06409383
1	0xbe72e436	-0.23719868
2	0xbd5ac413	-0.053409647
3	0xbeb69f20	-0.35668278
4	0x3f08ffbb	0.53515214
5	0x3ebc04cb	0.36722407
6	0xbe3909bf	-0.18070124
7	0xbbc647b1	-0.0060510268
8	0xbea25d04	-0.3171159
9	0xbd4e78f4	-0.05040832
10	0xbf0c0628	-0.54696894
11	0xbd31315e	-0.04325997
12	0xbe1bd33a	-0.15217295
13	0xbe234218	-0.15943182
14	0x3de4527e	0.11148547
15	0xbd28c396	-0.04120215
16	0xbe4c7acc	-0.19968718
17	0x3e55d5c2	0.20882323
18	0xbd93ed0a	-0.07222946
19	0xbdd03e76	-0.101681635
20	0x3e41ffeb	0.18945281
21	0x3ee50407	0.44729635
22	0x3de3a649	0.11115701
23	0x3e013efc	0.12621683
24	0x3e56f3b4	0.20991403
25	0x3e8bbeea	0.27294093
26	0x3ca59324	0.020211764
27	0x3dae6ebc	0.08517215
28	0xbd219246	-0.039446138
29	0x3e5bc8e9	0.2146336
30	0xbd8b0bbb	-0.06789347
31	0xbdeae68d	-0.11469755
32	0xbe7f45cb	-0.24928968
33	0x3e8d34b7	0.2757928
34	0xbf08f90d	-0.5350502
35	0xbebc195e	-0.36738104
36	0xbddcb017	-0.10775774
37	0x3dda63ac	0.10663542
38	0x3e01590f	0.1263163
39	0x3eec91a7	0.46204874
40	0xbd955be9	-0.07292921
41	0xbe33cf61	-0.17559578
42	0xbe03a8e1	-0.12857391
43	0xbcdc06bf	-0.026858686
44	0x3e195b59	0.14976253
45	0xbde34ee9	-0.11099035
46	0x3f1a93c2	0.6038171
47	0x3e17722a	0.14789644
48	0x3df16016	0.11785905
49	0x3e720353	0.2363408
50	0x3da1b196	0.078952
51	0x3e4ac569	0.19801868
52	0x3d59af1e	0.05314552
53	0x3e821eef	0.25414225
54	0x3eb90cd1	0.3614259
55	0x3e655d72	0.22398928
56	0xbe7dd1a0	-0.24786997
57	0x3d984746	0.07435469
58	0x3e9152c8	0.2838347
59	0xbdecc751	-0.11561454
60	0x3f129237	0.57254356
61	0x3efd2bf1	0.49447587
62	0x3d9d22ec	0.076726764
63	0xbe857e08	-0.26072717
64	0xbea19101	-0.31555942
65	0xbdb26e1f	-0.0871241
66	0xbe87eb78	-0.26546836
67	0xbedafe78	-0.4277227
68	0xbb05b210	-0.0020400323
69	0xbdd79f78	-0.10528463
70	0x3e077cf6	0.13231263
71	0xbd1379f6	-0.036004983
72	0xbe24398a	-0.16037574
73	0xbeefc100	-0.46826935
74	0xbe82ca5e	-0.2554502
75	0x3d1f8ec4	0.03895451
76	0xbe2abd05	-0.16673668
77	0xbe60c73d	-0.21951003
78	0xbeafa897	-0.3430831
79	0x3ec4e9d1	0.38459638
80	0x3d9ba87e	0.07600497
81	0x3e1e6a68	0.15470278
82	0xbc54e223	-0.012993368
83	0x3f070311	0.52739054
84	0x3e9e16a3	0.30876645
85	0x3f1093b6	0.5647539
86	0x3ed0c4c2	0.40775114
87	0xbe0eff36	-0.13964543
88	0x3ebd7e37	0.37010357
89	0xbdab74a1	-0.083718546
90	0x3e8ad21e	0.27113432
91	0xbc844aa4	-0.016148873
92	0x3e27cd2f	0.16386865
93	0x3e3db08d	0.1852438
94	0x3ecde67c	0.40214908
95	0xbe3bbd0f	-0.18333839
96	0x3dd1626b	0.1022385
97	0xbeda83a1	-0.4267855
98	0xbe364d06	-0.1780282
99	0xbe151712	-0.14559582
100	0x3f09fffa	0.53906214
101	0x3e26d316	0.1629146
102	0x3e8c411d	0.27393427
103	0x3e216281	0.15760233
104	0x3f008dee	0.5021657
105	0x3e3939cf	0.18088458
106	0x3d6187c9	0.055061135
107	0xbe35c366	-0.1775032
108	0x3d902f72	0.070402995
109	0xbf08049e	-0.53132045
110	0xbe332809	-0.17495741
111	0xbdd8ff43	-0.10595562
112	0xbdded50b	-0.108804785
113	0x3e0ed8f1	0.13949944
114	0x3d564c1c	0.052318677
115	0xbc91808e	-0.017761495
116	0x3e9420f8	0.28931403
117	0x3ca5384e	0.02016845
118	0xbe7f2b85	-0.24918945
119	0x3e6a29ac	0.22867459
120	0xbdd50876	-0.104020044
121	0x3d3a1278	0.04542777
122	0x3df55121	0.11978365
123	0x3da8d388	0.082434714
124	0xbe715b4e	-0.23569986
125	0x3e6f5800	0.23373413
126	0x3e8b5bca	0.27218467
127	0xbe50e044	-0.2039805
128	0x3ead1715	0.33806673
129	0xbd563277	-0.05229422
130	0x3b6e00ac	0.0036316318
131	0x3d705346	0.058673166
132	0x3e1a4fa2	0.1506944
133	0x3ea8598f	0.32880828
134	0xbe857b6e	-0.26070732
135	0xbf408f62	-0.75218785
136	0x3dbb918c	0.0915862
137	0x3e0e1529	0.1387526
138	0x3e03587c	0.12826723
139	0x3e67bb91	0.22630145
140	0x3e6392f5	0.22224028
141	0x3f44cbf3	0.768737
142	0x3f402a88	0.750649
143	0xbe917778	-0.2841146
144	0xbdd9e571	-0.106394656
145	0xbd6d4dd2	-0.057935543
146	0x3d4122b9	0.047152255
147	0xbd72f2ac	-0.05931346
148	0x3e7b5c94	0.24547035
149	0xbf56f244	-0.8396342
150	0xbf31c62d	-0.6944302
151	0xbeb6c716	-0.35698766
152	0xbf35b433	-0.7097809
153	0x3dcf68d2	0.10127415
154	0xbe45629e	-0.192759
155	0xbe1449b3	-0.14481239
156	0x3ea67678	0.3251226
157	0xbdb96811	-0.09053052
158	0xbe497034	-0.19671708
159	0xbed56489	-0.41678265
160	0xbe1e84c4	-0.15480334
161	0xbe10ca75	-0.14139731
162	0xbe07ff19	-0.13280906
163	0xbd6c675b	-0.057715755
164	0x3d7f3b1c	0.06231223
165	0xbe8d7146	-0.27625483
166	0xbd9df7b4	-0.07713261
167	0xbea81fdb	-0.32836804
168	0x3e23e1d1	0.16004111
169	0x3e9415e2	0.28922945
170	0x3d82b1ce	0.0638157
171	0x3e1b6131	0.15173794
172	0xbd8bfb58	-0.068350494
173	0xbd8c97f5	-0.06864921
174	0x3d8e33f7	0.06943505
175	0xbea30ec6	-0.3184721
176	0xbf63b310	-0.889451
177	0x3d56946d	0.052387644
178	0x3f4679f3	0.7752983
179	0x3f1f71cd	0.6228302
180	0x3e3f5c08	0.18687451
181	0xbd88f423	-0.066871904
182	0xbe9c6f76	-0.30553788
183	0xbd11cace	-0.0355938
184	0xbdf67ac1	-0.12035132
185	0xbdc46323	-0.09589221
186	0xbe89eb05	-0.26937118
187	0x3ee7e6e9	0.45293358
188	0x3e10cf33	0.1414154
189	0xbe49e755	-0.19717152
190	0xbb59d6c0	-0.0033239573
191	0xbd4bf61b	-0.04979525
192	0x3efabba7	0.48971292
193	0x3d2a5af4	0.041590646
194	0x3ecf07de	0.4043569
195	0xbe1148e4	-0.14187962
196	0xbd7e6201	-0.062105183
197	0x3ed19978	0.409374
198	0xbe4912f4	-0.19636136
199	0xbdae644b	-0.08515223
200	0x3f055a6d	0.52091104
201	0x3e9ef003	0.3104249
202	0xbe41001a	-0.18847695
203	0xbf025143	-0.50905246
204	0xbbdcfdc5	-0.006744119
205	0xbe557fc6	-0.20849523
206	0xbe737af0	-0.23777366
207	0xbe183d2d	-0.14867087
208	0xbed1a25f	-0.40944192
209	0x3eb0f15a	0.34559137
210	0x3ea07863	0.31341848
211	0x3f174dc3	0.5910303
212	0x3cbf0bf5	0.023321131
213	0xbd6cf0cd	-0.057846833
214	0xbddf81d5	-0.10913435
215	0xbe1d6456	-0.15370306
216	0xbe5842f6	-0.21119294
217	0x3e8f5a21	0.2799845
218	0xbeda19e8	-0.4259789
219	0x3eb25daa	0.34837085
220	0xbd17ebba	-0.03709004
221	0xbe0e3ad7	-0.13889633
222	0x3de4bfa2	0.111693636
223	0x3cf9c636	0.030490022
224	0xbdef0c4b	-0.116722666
225	0x3d145c77	0.036220994
226	0xbe13628e	-0.14393064
227	0xbe491c3c	-0.19639677
228	0xbe9c432e	-0.30520004
229	0x3e523cef	0.20531057
230	0x3e675f35	0.22594912
231	0xbe5753ad	-0.21028014
232	0x3d845304	0.064611465
233	0x3ee92e78	0.45543265
234	0xbd5020f1	-0.050812665
235	0xbeb37faf	-0.35058352
236	0xbf05ae75	-0.52219325
237	0x3e560f6e	0.20904323
238	0xbcd36ad1	-0.02580777
239	0xbe6a6435	-0.22889788
240	0x3e78f2f0	0.24311423
241	0xbd55ac62	-0.05216635
242	0x3e53a340	0.20667744
243	0x3eadbb30	0.33931875
244	0xbdc7c25b	-0.09753867
245	0xbd721d6b	-0.059110086
246	0xbe1275fd	-0.14302821
247	0xbeba1f6c	-0.36352098
248	0xbe556a29	-0.20841278
249	0xbd2082bb	-0.039187174
250	0xbeaaab20	-0.33333683
251	0x3f1673b4	0.587703
252	0x3e01dcdb	0.12681906
253	0xbe81b835	-0.2533585
254	0xbe48ac8a	-0.19597068
255	0xbec0dadc	-0.37666976

network_body._body_endoder.seq_layers.0.bias f4 [128]
0	0x00000000	0.0
1	0x00000000	0.0
2	0x00000000	0.0
3	0x00000000	0.0
4	0x00000000	0.0
5	0x00000000	0.0
6	0x00000000	0.0
7	0x00000000	0.0
8	0x00000000	0.0
9	0x00000000	0.0
10	0x00000000	0.0
11	0x00000000	0.0
12	0x00000000	0.0
13	0x00000000	0.0
14	0x00000000	0.0
15	0x00000000	0.0
16	0x00000000	0.0
17	0x00000000	0.0
18	0x00000000	0.0
19	0x00000000	0.0
20	0x00000000	0.0
21	0x00000000	0.0
22	0x00000000	0.0
23	0x00000000	0.0
24	0x00000000	0.0
25	0x00000000	0.0
26	0x00000000	0.0
27	0x00000000	0.0
28	0x00000000	0.0
29	0x00000000	0.0
30	0x00000000	0.0
31	0x00000000	0.0
32	0x00000000	0.0
33	0x00000000	0.0
34	0x00000000	0.0
35	0x00000000	0.0
36	0x00000000	0.0
37	0x00000000	0.0
38	0x00000000	0.0
39	0x00000000	0.0
40	0x00000000	0.0
41	0x00000000	0.0
42	0x00000000	0.0
43	0x00000000	0.0
44	0x00000000	0.0
45	0x00000000	0.0
46	0x00000000	0.0
47	0x00000000	0.0
48	0x00000000	0.0
49	0x00000000	0.0
50	0x00000000	0.0
51	0x00000000	0.0
52	0x00000000	0.0
53	0x00000000	0.0
54	0x00000000	0.0
55	0x00000000	0.0
56	0x00000000	0.0
57	0x00000000	0.0
58	0x00000000	0.0
59	0x00000000	0.0
60	0x00000000	0.0
61	0x00000000	0.0
62	0x00000000	0.0
63	0x00000000	0.0
64	0x00000000	0.0
65	0x00000000	0.0
66	0x00000000	0.0
67	0x00000000	0.0
68	0x00000000	0.0
69	0x00000000	0.0
70	0x00000000	0.0
71	0x00000000	0.0
72	0x00000000	0.0
73	0x00000000	0.0
74	0x00000000	0.0
75	0x00000000	0.0
76	0x00000000	0.0
77	0x00000000	0.0
78	0x00000000	0.0
79	0x00000000	0.0
80	0x00000000	0.0
81	0x00000000	0.0
82	0x00000000	0.0
83	0x00000000	0.0
84	0x00000000	0.0
85	0x00000000	0.0
86	0x00000000	0.0
87	0x00000000	0.0
88	0x00000000	0.0
89	0x00000000	0.0
90	0x00000000	0.0
91	0x00000000	0.0
92	0x00000000	0.0
93	0x00000000	0.0
94	0x00000000	0.0
95	0x00000000	0.0
96	0x00000000	0.0
97	0x00000000	0.0
98	0x00000000	0.0
99	0x00000000	0.0
100	0x00000000	0.0
101	0x00000000	0.0
102	0x00000000	0.0
103	0x00000000	0.0
104	0x00000000	0.0
105	0x00000000	0.0
106	0x00000000	0.0
107	0x00000000	0.0
108	0x00000000	0.0
109	0x00000000	0.0
110	0x00000000	0.0
111	0x00000000	0.0
112	0x00000000	0.0
113	0x00000000	0.0
114	0x00000000	0.0
115	0x00000000	0.0
116	0x00000000	0.0
117	0x00000000	0.0
118	0x00000000	0.0
119	0x00000000	0.0
120	0x00000000	0.0
121	0x00000000	0.0
122	0x00000000	0.0
123	0x00000000	0.0
124	0x00000000	0.0
125	0x00000000	0.0
126	0x00000000	0.0
127	0x00000000	0.0

network_body._body_endoder.seq_layers.2.weight f4 [128, 128]
0	0x3dcee196	0.10101621
1	0x3c918dbe	0.017767783
2	0xbbc9b4d2	-0.0061555887
3	0x3e208f4d	0.15679665
4	0x3def6824	0.11689785
5	0xbdaf4640	-0.08558321
6	0x3c60419d	0.013687518
7	0xbc8ae2b6	-0.016953807
8	0x3e0c9b64	0.13731152
9	0x3deb269b	0.11481973
10	0xbe1d41a6	-0.15357074
11	0x3dcf69f1	0.101276286
12	0xbda6ea9e	-0.081502184
13	0x3cc7ebba	0.024404395
14	0xbe276fd6	-0.16351256
15	0xbe511dac	-0.20421475
16	0xbd8edbb7	-0.06975501
17	0xbcf65da2	-0.030073944
18	0x3d1156a0	0.035483003
19	0x3e4173f5	0.1889189
20	0x3d1f3fca	0.038879193
21	0xbd63dd74	-0.055631116
22	0xbd30551f	-0.043049928
23	0xbcd6d12a	-0.026222784
24	0x3d41e8b4	0.047341064
25	0xbd49b787	-0.04924729
26	0xbd1ae873	-0.037819337
27	0x3cc5245c	0.024065189
28	0xbd5de3d1	-0.05417234
29	0x3d698ea8	0.057020813
30	0xbe0ee829	-0.1395575
31	0x3d5cbec8	0.05389288
32	0xbcbaac1b	-0.022787144
33	0xbd866afb	-0.06563374
34	0x3e28962e	0.16463539
35	0xbd3acc1e	-0.045604818
36	0xbd9acc59	-0.075585075
37	0x3d912227	0.07086592
38	0x3de67381	0.11252499
39	0x3dd0239f	0.10163044
40	0xbe776e8f	-0.24163269
41	0xbd737bd2	-0.059444256
42	0xbd885f34	-0.066587836
43	0x3d7a9a14	0.061182097
44	0x3dc8ee2f	0.09811055
45	0x3e56a8c2	0.20962813
46	0xbdde1278	-0.108433664
47	0x3cd71e6e	0.026259627
48	0xbddf3b64	-0.109
49	0xbdd628bf	-0.104569905
50	0x3dff381d	0.12461875
51	0xbce06aa3	-0.027394598
52	0x3e4d34f5	0.20039733
53	0x3e4eca14	0.20194274
54	0x3d7a4b11	0.061106745
55	0x3bb0e6d9	0.005398613
56	0xbd38fd24	-0.04516329
57	0x3d65c4d9	0.05609593
58	0x3ded9f6b	0.11602672
59	0x3c27a2bf	0.010231673
60	0x3d1f1262	0.03883589
61	0xbd5ca298	-0.053866
62	0xbc98d4dc	-0.018656187
63	0xb9854695	-0.00025420325
64	0x3e054814	0.13015777
65	0x3e082de3	0.13298754
66	0x3cba669d	0.022754008
67	0x3e2cc15c	0.16870636
68	0xbc1cfb69	-0.009581425
69	0xbdf10941	-0.11769343
70	0xbdb95bc8	-0.09050709
71	0x3e0c4804	0.13699347
72	0x3d5ad909	0.053429637
73	0xbcad3e49	-0.021147864
74	0xbe3d47bb	-0.18484394
75	0xb98f626f	-0.00027348424
76	0xbc8fd22d	-0.017556274
77	0xbcadc939	-0.021214115
78	0x3c862731	0.01637611
79	0xbe222ebc	-0.1583814
80	0x3dbf5478	0.09342283
81	0xbc9fd5e8	-0.019511178
82	0xbd12d4ff	-0.03584766
83	0xbdb6ce41	-0.089260586
84	0x3d5c565e	0.053793304
85	0xbd1b14df	-0.0378617
86	0x3e45d887	0.1932088
87	0xbda04ea4	-0.078274995
88	0x3cfed5c1	0.031107785
89	0xbd387a52	-0.04503853
90	0xbd100864	-0.035164252
91	0x3ce1052c	0.027468286
92	0xbd6ed74a	-0.058310784
93	0xbd697f3d	-0.05700611
94	0x3d0d05f8	0.03442952
95	0xbe777441	-0.24165441
96	0x3df2f309	0.118627615
97	0xbd8b8d9d	-0.0681412
98	0x3d867c09	0.065666266
99	0xbe89bef5	-0.269035
100	0xbe0c8e3e	-0.13726136
101	0x3db4e8bb	0.08833452
102	0xbcc8a01f	-0.024490414
103	0xbbabdfd8	-0.00524519
104	0x3d560f25	0.052260537
105	0xbcb42ca5	-0.021993944
106	0xbd4d4bd6	-0.05012115
107	0xbe27078c	-0.16311473
108	0x3be75286	0.007059398
109	0xbd2d6d3b	-0.0423405
110	0xbdcc8cd6	-0.099878
111	0x3e566ec5	0.20940693
112	0x3cb89c4c	0.022535466
113	0xbde3e7d1	-0.111282
114	0xbcca38ec	-0.024685346
115	0xbdb3bfa3	-0.08776786
116	0xbcc822eb	-0.024430713
117	0xbd2bc09d	-0.041931737
118	0xbe461ea4	-0.19347626
119	0x3e4e7304	0.20161062
120	0xbd4c2d5f	-0.049847957
121	0x3c1eb04d	0.009685588
122	0x3e15b69d	0.14620443
123	0xbe113fbf	-0.14184473
124	0xbe20abf3	-0.15690593
125	0xbdf4e401	-0.11957551
126	0xbc206635	-0.009789993
127	0x3dba1d20	0.090875864
128	0xbd042550	-0.032262146
129	0xbdcde2cf	-0.10053026
130	0xbd2c6bc5	-0.042094965
131	0x3cfe7525	0.031061718
132	0xbe0ea9cd	-0.13931961
133	0x3d76bf46	0.060241006
134	0xbe405557	-0.18782555
135	0xbc897af7	-0.016782267
136	0x3e03b45f	0.12861775
137	0x3c918fae	0.017768707
138	0xbb9cb6f0	-0.00478255
139	0xbdc161c3	-0.09442475
140	0xbd8bf975	-0.068346895
141	0xbd6b091d	-0.057381738
142	0xbd78f35e	-0.060778968
143	0xbd52d566	-0.051473044
144	0x3dc32a07	0.095295005
145	0x3d4f563f	0.05061936
146	0x3e3a74db	0.1820864
147	0x3b4eed78	0.0031574648
148	0x3e430a17	0.19046818
149	0xbbc2aa77	-0.005940731
150	0x3dc64020	0.096801996
151	0xbd8529fa	-0.06502147
152	0x3c251f03	0.010078195
153	0xbd27a206	-0.040926002
154	0x3ccda50d	0.025103116
155	0x3ce3850e	0.027773406
156	0xbd0f73b4	-0.035022452
157	0x3b447409	0.002997639
158	0x3bc61135	0.0060445317
159	0x3c258772	0.010103093
160	0xbd386f27	-0.045027878
161	0x3de3f5d3	0.111308716
162	0x3d79dc5b	0.061001163
163	0x3cfda1cc	0.03096094
164	0xbdd3bee0	-0.10339141
165	0x3c10729e	0.008816389
166	0xbdaee093	-0.08538928
167	0xbe4f9a1d	-0.20273633
168	0xbc32f03e	-0.010921536
169	0x3da8d52e	0.08243786
170	0xbe1c95f3	-0.15291576
171	0x3c6b2272	0.014351474
172	0x3d345e17	0.044035044
173	0xbc6c9089	-0.014438757
174	0x3d805637	0.06266444
175	0xbdecc850	-0.11561644
176	0x3a509ae4	0.0007957651
177	0x3bd862f9	0.0066035953
178	0xbd5071bf	-0.050889727
179	0x3d476545	0.048680563
180	0x3e113bed	0.14183016
181	0xbe24d99c	-0.16098636
182	0x3da115c2	0.07865478
183	0x3e329a19	0.17441596
184	0xbdd04a68	-0.10170442
185	0xbd8dbb22	-0.069204584
186	0x3db81d05	0.0898991
187	0x3d8e5101	0.06949044
188	0x3d994242	0.07483341
189	0xbdec4b95	-0.11537854
190	0xbe091743	-0.1338778
191	0x3d9b6326	0.075872704
192	0x3de2c774	0.11073199
193	0x3d5c0531	0.05371589
194	0xbdb178d1	-0.08665622
195	0xbd371b99	-0.044704054
196	0xbdf5ad83	-0.11995985
197	0xbcc2f055	-0.02379624
198	0xbc133788	-0.008985408
199	0xbd89c4f0	-0.06727016
200	0xbddb81dd	-0.10718129
201	0x3df7b453	0.12094941
202	0x3e1634ae	0.14668533
203	0x3dec8cf5	0.11550323
204	0x3db2e327	0.08734732
205	0xbd17f79f	-0.037101384
206	0x3d249fd0	0.04019147
207	0xbdaf3527	-0.0855506
208	0x3d190a7c	0.037363514
209	0xbc83bc19	-0.016080903
210	0xbc11df38	-0.008903317
211	0x3d8e9e6e	0.06963812
212	0xbd5e152b	-0.054219406
213	0x3cee91eb	0.029122313
214	0x3d7aad59	0.061200473
215	0xbd274df6	-0.040845834
216	0xbd88f6b6	-0.066876814
217	0xbc9a8189	-0.018860595
218	0x3cbe647a	0.02324127
219	0x3dcab409	0.0989762
220	0x3c8888a1	0.016666712
221	0x3d81f629	0.063457794
222	0xbda8622f	-0.08221852
223	0xbde4c372	-0.11170091
224	0x3dac1bf5	0.0840377
225	0xbe103964	-0.14084393
226	0x3c83aa6f	0.01607248
227	0xbccfad49	-0.025351183
228	0x3d5baa23	0.053629052
229	0x3dbcbe6b	0.09216007
230	0xbd8cd369	-0.06876261
231	0x3c9236fd	0.017848486
232	0x3c1b7d8c	0.009490382
233	0xbd175cf9	-0.0369539
234	0xbe426981	-0.18985559
235	0xbd59e461	-0.053196315
236	0xbd1c8e01	-0.038221363
237	0x3b6a8e48	0.0035790373
238	0xbc8e4e5a	-0.017371345
239	0xbe2a7957	-0.1664785
240	0xbd779a82	-0.060450085
241	0x3e61b939	0.22043313
242	0xbcad80a7	-0.02117951
243	0x3d8b35dc	0.06797382
244	0xbd21965d	-0.03945004
245	0x3d8e499b	0.06947633
246	0x3d9c7742	0.07639934
247	0x3db25b21	0.08708788
248	0x3c2cad56	0.010539373
249	0x3d7c3242	0.061571367
250	0xbd58138b	-0.052753013
251	0x3d72fe85	0.05932476
252	0x3e488a8f	0.19584106
253	0x3d041996	0.032250963
254	0x3c8eefaa	0.017448265
255	0x3df23b18	0.118276775

action_model._discrete_distribution.branches.0.weight f4 [2, 128]
0	0x3a231ad8	0.00062219566
1	0xbb6c9100	-0.003609717
2	0xba67b04b	-0.00088382204
3	0x3bd8a023	0.0066108867
4	0x3ba5e02f	0.005062125
5	0x3c16a417	0.0091943955
6	0xbbaf8767	-0.0053567174
7	0x3bcb56df	0.006205424
8	0x3c067c1b	0.0082083
9	0x3bfece13	0.007776031
10	0xbbf3726b	-0.007429411
11	0xbbf2df50	-0.007411875
12	0x3ca5db87	0.02024628
13	0xbbb86e6e	-0.0056283986
14	0x3bddfdbf	0.0067746337
15	0xba9c62bb	-0.001193128
16	0x3b3d377b	0.002887218
17	0xbc6c1573	-0.014409411
18	0xbb6c5068	-0.0036058668
19	0xbb929df2	-0.004474395
20	0x3b254c0b	0.0025222327
21	0x3c168413	0.009186762
22	0x3bc65ef6	0.0060538007
23	0x3aefdcda	0.0018300072
24	0xbb752160	-0.0037403926
25	0xba7cfefd	-0.00096510333
26	0x3c1b9a62	0.009497257
27	0xbc72edca	-0.014827201
28	0x3c1f2349	0.0097130025
29	0x3ac4d35f	0.0015016607
30	0xbbbb879b	-0.0057229525
31	0x3b0481b8	0.002021892
32	0xbade2fad	-0.0016951464
33	0xba93fba3	-0.0011290204
34	0xbc852a47	-0.016255511
35	0x3b830d3e	0.0039993813
36	0xbc5de973	-0.013544428
37	0xbb945568	-0.004526783
38	0xba2c165e	-0.0006564612
39	0x3b745f52	0.003728826
40	0x3b7ab255	0.0038253267
41	0xb9ae1954	-0.00033206737
42	0x3b1ca09a	0.0023899437
43	0x3b8c33cd	0.004278636
44	0xbc6c34f5	-0.014416923
45	0x3c061ec9	0.008186051
46	0x3bb6ad86	0.005574885
47	0x3b891c4e	0.0041842824
48	0xb5d09dc3	-1.5543122e-06
49	0x39ab283b	0.00032645636
50	0x3c45564b	0.0120445
51	0x3becd895	0.007227967
52	0xbc425e15	-0.011863251
53	0xbbbacfa1	-0.005701021
54	0x3bcff10d	0.006345874
55	0x3c8af6ed	0.016963447
56	0xba8b3d9e	-0.0010623222
57	0xbb9f1ef7	-0.004855986
58	0x3bcb31fb	0.0062010265
59	0xbc42971f	-0.01187685
60	0xbb099833	-0.0020995259
61	0xbbb3ed83	-0.00549096
62	0x3bfa7a00	0.007643938
63	0x3c28cb48	0.010302372
64	0xbc1fcf3b	-0.009753997
65	0xbb8fb27f	-0.004385292
66	0xbc4681bc	-0.012115892
67	0x3c2052eb	0.009785394
68	0xbaf60a25	-0.0018771334
69	0xbc116b3b	-0.008875663
70	0x3c90b1eb	0.017662963
71	0x3bad4a94	0.0052884314
72	0xbb134b8b	-0.0022475447
73	0x3b8e8168	0.0043489225
74	0x3a8130c3	0.0009856451
75	0x3b5ae7fb	0.0033402431
76	0x3bb173fb	0.0054154373
77	0xbbd746a8	-0.006569702
78	0xbc6254c8	-0.013814159
79	0xbaf1f180	-0.0018458813
80	0xbc17d123	-0.009266171
81	0xb98d0938	-0.00026900484
82	0x3c231e85	0.009956007
83	0xbbdd03d2	-0.00674484
84	0x3b598aa7	0.0033194216
85	0xbb6cc303	-0.0036126978
86	0x3c1a0d87	0.009402639
87	0xbc2fb717	-0.010724804
88	0xbbbbc93d	-0.0057307766
89	0xbbb2387e	-0.0054388633
90	0xbaa341a5	-0.0012455477
91	0x3a10bb4f	0.0005521075
92	0x3c29070a	0.01031662
93	0xbc2b7c74	-0.010466684
94	0xbbf0f01d	-0.0073528425
95	0x3baac9bc	0.005212037
96	0xbba5bcc4	-0.005057903
97	0xbb663465	-0.0035126444
98	0x3cab6d69	0.020926194
99	0xba9d78df	-0.0012014172
100	0xbbcef41f	-0.0063157226
101	0xbc046467	-0.008080578
102	0xbb629c38	-0.0034577977
103	0xbabc6aa2	-0.0014375041
104	0xbb980111	-0.004638799
105	0xbad41427	-0.0016180322
106	0xbad45efa	-0.0016202622
107	0xbb0c018a	-0.0021363222
108	0x3a3691bb	0.00069644646
109	0xbbfb8207	-0.0076754126
110	0xbb2afb4f	-0.0026089733
111	0xbb84bebf	-0.004051059
112	0xbc13fdeb	-0.009032707
113	0x3b43f2bd	0.0029899322
114	0xbb2eee2f	-0.0026692261
115	0x3bad566b	0.005289843
116	0xbbb0ed23	-0.0053993626
117	0xbca1c724	-0.019748278
118	0xbc65d38a	-0.014027486
119	0x3b1fdbdf	0.0024392528
120	0xbb80d40e	-0.003931529
121	0x3b7ed9fb	0.003888725
122	0x3c873491	0.016504558
123	0xbb17c6ee	-0.0023159343
124	0xbc79b150	-0.0152400285
125	0xbbf1c4c3	-0.007378192
126	0xbba4378f	-0.005011506
127	0x3c637fcf	0.013885452
128	0x3b951153	0.0045491843
129	0x3c505f00	0.012717962
130	0x3acddfad	0.0015706919
131	0xba454c66	-0.0007526338
132	0x3c243a33	0.010023641
133	0x3c343150	0.010998085
134	0xbbcfead2	-0.0063451314
135	0xbb696acd	-0.0035616637
136	0x3ace3443	0.0015732128
137	0xbb8e9ceb	-0.004352202
138	0x3c2cf243	0.010555807
139	0x3b870957	0.0041209864
140	0x3aec879d	0.0018045787
141	0x3bb5e9d6	0.005551557
142	0x3c47464e	0.012162758
143	0xbb82830b	-0.0039829067
144	0x3bd3f9e7	0.0064689997
145	0xbbb91163	-0.0056478246
146	0x3c0c0421	0.008545906
147	0xbb220812	-0.0024724049
148	0x3c40ddc7	0.011771626
149	0xbc117cc6	-0.008879846
150	0xbbaa47a0	-0.0051965266
151	0xbc0fa4db	-0.008767332
152	0x3be99ce5	0.007129299
153	0x3b009248	0.001961844
154	0xbb7fbac2	-0.0039021228
155	0xbc65c69b	-0.014024402
156	0xb94f5927	-0.0001977427
157	0x3c00784b	0.00784118
158	0xbb86d94b	-0.004115259
159	0xbb164e48	-0.0022934843
160	0x3bbf8c85	0.0058456087
161	0xbc66d1e5	-0.014088129
162	0x3b645610	0.0034841336
163	0xbc2b988f	-0.0104733845
164	0x3c521dc8	0.012824483
165	0x3c160d2b	0.009158413
166	0xbbb39aa9	-0.0054810834
167	0xbc2a4105	-0.010391478
168	0x3adf7c85	0.001705066
169	0x3c55713b	0.0130274845
170	0x3cc772d8	0.024346754
171	0xbbc85d08	-0.006114606
172	0xbb3bc0ca	-0.0028648847
173	0xbb9871b6	-0.0046522273
174	0x3c2f41a8	0.010696806
175	0xbb9a7f9f	-0.0047149207
176	0x3b481846	0.0030532046
177	0x3c40ca07	0.011766917
178	0xbc02833e	-0.007965861
179	0xbc2867b5	-0.010278632
180	0xbc13dcd5	-0.009024818
181	0xba8bf586	-0.001067803
182	0x3c430857	0.011903844
183	0xbb8711ab	-0.0041219792
184	0x3bba3e44	0.005683692
185	0xbb2967fe	-0.0025849338
186	0x3b8e641b	0.0043454296
187	0xbb272477	-0.0025503912
188	0xbcaf50d0	-0.02140084
189	0x3c0817bd	0.008306441
190	0xbba0ce31	-0.0049073924
191	0xbc063fa3	-0.008193883
192	0xbb0cab8c	-0.0021464555
193	0xbc524b5a	-0.012835348
194	0xbba753bf	-0.005106419
195	0xbc7ca408	-0.0154199675
196	0xbbf677a0	-0.0075215846
197	0x3c3b1578	0.011418693
198	0x3bc2dabb	0.005946485
199	0xbbc5db4b	-0.0060381046
200	0xbacc7606	-0.0015599139
201	0x3c127397	0.008938692
202	0xbbfd85ea	-0.007736911
203	0x3ba61ec3	0.005069585
204	0xbbc3c33c	-0.0059742015
205	0x3c426507	0.011864907
206	0xbc8c302b	-0.017112812
207	0xbb97bc00	-0.0046305656
208	0x3b806637	0.003918435
209	0xbca0979d	-0.019603545
210	0x3bde3fea	0.0067825215
211	0xbbb9426b	-0.0056536696
212	0x3beaae77	0.007161911
213	0x3ba99f8d	0.0051764906
214	0x3c8d6b73	0.01726315
215	0x3b954377	0.0045551616
216	0xbae7b787	-0.0017678597
217	0xbb9035ac	-0.0044009294
218	0x3c56a1ea	0.013100127
219	0x3b0e186b	0.0021682035
220	0xbb7f7b35	-0.003898335
221	0x3a9cb421	0.0011955538
222	0x3bbbf8d1	0.0057364483
223	0x3c00678c	0.0078371875
224	0x3bd3a7d7	0.006459217
225	0x3c206f12	0.009792106
226	0x3a969fd7	0.0011491728
227	0x3c2ffab6	0.0107409265
228	0x3b4ecda7	0.0031555684
229	0x3c5beb2a	0.013422767
230	0x3b68a5f7	0.0035499313
231	0xbc98ff3d	-0.018676395
232	0xbc424221	-0.011856587
233	0xbc79b5a2	-0.015241059
234	0x3c157d02	0.0091240425
235	0x39d53222	0.00040663878
236	0x3bb63273	0.0055602132
237	0xbc494186	-0.012283688
238	0x3ba5ea4e	0.0050633317
239	0xbc2084f4	-0.0097973235
240	0xbcd9b0b3	-0.026573515
241	0xb898eaa0	-7.291627e-05
242	0x3b9d3a4e	0.00479821
243	0x3b6cf480	0.0036156476
244	0x3acd4d9b	0.0015663387
245	0x3b5c063d	0.0033573054
246	0xbc65f8f5	-0.014036407
247	0xbb92c42d	-0.0044789524
248	0xbbdc3de3	-0.0067212447
249	0xbc85146f	-0.016245095
250	0x3ad83670	0.0016495716
251	0x3ac380a0	0.0014915653
252	0x3b5d0b63	0.003372871
253	0x3c04ca94	0.008104939
254	0x3bd05faf	0.0063590626
255	0xbc17fb0a	-0.009276161

action_model._discrete_distribution.branches.0.bias f4 [2]
0	0x00000000	0.0
1	0x00000000	0.0

action_model._discrete_distribution.branches.1.weight f4 [1, 128]
0	0x3ba994b1	0.005175196
1	0x3c87f3fb	0.016595831
2	0x3ae38243	0.0017357547
3	0x3bb36a4f	0.0054753195
4	0x3bbf09dc	0.0058300328
5	0x3adb3723	0.0016724806
6	0x3bfc19b2	0.007693493
7	0x3c194f5f	0.009357302
8	0x3c53eb87	0.012934572
9	0x3add58af	0.0016887392
10	0x3b550b90	0.0032508112
11	0xbbb5ea02	-0.0055515775
12	0x3c296f5b	0.010341491
13	0xbc1684cc	-0.009186935
14	0xbbedb980	-0.0072547793
15	0xbc161b49	-0.009161779
16	0xbbbcec5b	-0.0057654805
17	0x3c92b2d8	0.017907545
18	0xba6eb012	-0.0009105216
19	0x37cd2e20	2.4459383e-05
20	0xbc104bb3	-0.008807111
21	0x3c7c9c80	0.015418172
22	0x3b775adb	0.0037743363
23	0x3ba06e1c	0.0048959386
24	0xbce3e952	-0.027821217
25	0xbc2e935a	-0.010655249
26	0xbb383c27	-0.0028112025
27	0x3c10fd6f	0.008849486
28	0xbbbaf98f	-0.0057060192
29	0x3bd8353f	0.0065981443
30	0xbc123eb5	-0.008926083
31	0xbb7cc9f7	-0.003857253
32	0x3c727a47	0.014799661
33	0xbbeb037d	-0.0071720467
34	0x3c037ad3	0.008024889
35	0xbc4f7afa	-0.012663597
36	0xbc99f186	-0.018791925
37	0x3c0aea3e	0.008478699
38	0x3c85f57b	0.016352406
39	0xbbc49391	-0.0059990366
40	0xbc027520	-0.007962495
41	0x3c035a8f	0.008017196
42	0x3ca54963	0.020176595
43	0xba7812db	-0.0009463259
44	0x3ba11418	0.0049157254
45	0x39cf3990	0.00039525004
46	0xbc0fe56f	-0.008782729
47	0x3bedd125	0.007257598
48	0x3ab39892	0.0013702086
49	0xbaf97ce7	-0.0019034416
50	0xbbd71403	-0.006563665
51	0x3bd6474a	0.00653926
52	0x3c00e2df	0.00786659
53	0xb8a85712	-8.0270824e-05
54	0x3ba51928	0.0050383992
55	0x3c5c47cd	0.013444853
56	0x3ac06885	0.0014679587
57	0x39fce91b	0.00048238863
58	0x3c388847	0.01126296
59	0xbb8ec29a	-0.0043566944
60	0x3c222187	0.009895689
61	0xbc82efbc	-0.015983455
62	0x3c86b51f	0.016443787
63	0xbbda3ba5	-0.006659942
64	0x3c0743f1	0.008255945
65	0xba177c60	-0.0005778726
66	0x3c8522ec	0.016252004
67	0x3b1cead1	0.0023943672
68	0x3bb48aa4	0.0055096913
69	0x3bac1cad	0.005252442
70	0x3ca7b767	0.020473195
71	0x3bcd005a	0.0062561454
72	0x3c21ff0e	0.00988747
73	0xbbc2787b	-0.0059347725
74	0xbc77597b	-0.015097017
75	0x3c45c783	0.012071493
76	0x3b84d37d	0.0040535317
77	0x3c24ab9b	0.01005068
78	0x3b265424	0.0025379742
79	0x3a2c906e	0.0006582801
80	0x3bbfdf48	0.0058554746
81	0x3be033ab	0.006842097
82	0xbc945633	-0.01810751
83	0xbb01edd7	-0.0019825601
84	0x3bc7b83f	0.006094962
85	0x3b4671d0	0.003028024
86	0x3b333b02	0.0027348404
87	0xbb0819e7	-0.0020767392
88	0x3bf28158	0.007400673
89	0xbbccd9ef	-0.0062515656
90	0xbb85ab23	-0.004079239
91	0xbc025b75	-0.007956375
92	0xbc04dbb5	-0.008109023
93	0x3c214ea1	0.009845407
94	0x3b1e57ec	0.0024161292
95	0x3a44c0e7	0.00075055513
96	0xbc01d8c4	-0.007925216
97	0xbc4d3f73	-0.0125273345
98	0x3a0b8677	0.0005322466
99	0x3af83407	0.0018936404
100	0x3beb43fb	0.0071797348
101	0xbc377b8a	-0.011198888
102	0xbc22383f	-0.009901105
103	0x39d7a4bb	0.0004113073
104	0x3bef80d8	0.0073090605
105	0xbbe98450	-0.0071263686
106	0x3aba80a1	0.0014229008
107	0x3b91066b	0.004425814
108	0xbbdef525	-0.006804126
109	0xbbda36c0	-0.0066593587
110	0x3a001e53	0.0004887331
111	0xbbaa3a43	-0.0051949336
112	0xbbd115f3	-0.0063807904
113	0x3a3e02ae	0.0007248324
114	0x3c682048	0.014167853
115	0xbc2883d4	-0.0102853365
116	0xbb832ae0	-0.004002914
117	0xbbe53a1f	-0.006995454
118	0x3c2fc38b	0.010727773
119	0xbb3f6ce4	-0.002920919
120	0x39f53497	0.00046769224
121	0xbb4baec7	-0.0031079517
122	0x3b9addaf	0.004726134
123	0x3a198fcb	0.00058579136
124	0x3b8e2e0f	0.0043389867
125	0x3aabe5d8	0.0013114763
126	0xbc83593c	-0.016033761
127	0x3b732380	0.0037100017
