src/CyberHero/Assets/results/MidBossTrain2/MidBossAgent/checkpoint.pt (torch, 466155 bytes, 37 tensors)

discrete_act_size_vector f4 [1, 2]
000000 00 00 00 40 00 00 80 3f
       2.0 1.0

network_body._body_endoder.seq_layers.0.weight f4 [128, 13]
000000 30 6d 90 3d 04 6a 6f be 13 c4 5a bd 20 9f b6 be
       0.07052076 -0.23380286 -0.053409647 -0.35668278
000010 e3 33 0a 3f cb 04 bc 3e 4c 75 39 be 87 ac f8 3a
       0.5398542 0.36722407 -0.18111151 0.0018972316
000020 c8 5f a0 be f4 78 4e bd ff e4 0c bf 48 41 29 bd
       -0.31323075 -0.05040832 -0.5503692 -0.041322023
000030 ca c6 1f be 69 74 24 be 4c 1c db 3d 96 c3 28 bd
       -0.15603176 -0.16060032 0.106987566 -0.04120215
000040 cc 7a 4c be d4 ee 50 3e 0a ed 93 bd 51 65 c7 bd
       -0.19968718 0.20403606 -0.07222946 -0.097361214
000050 08 14 44 3e ef 08 e0 3e 49 a6 e3 3d c2 de 05 3e
       0.19148266 0.43756816 0.11115701 0.13073257
000060 a1 8a 60 3e 3d c1 90 3e 70 93 74 3c 6b 76 a4 3d
       0.21927883 0.2827243 0.01492773 0.08030399
000070 46 92 21 bd e9 c8 5b 3e 2a c8 a6 bd 8d e6 ea bd
       -0.039446138 0.2146336 -0.08143647 -0.11469755
000080 d6 bb 7b be 50 69 88 3e c1 4e 0a bf 5e 19 bc be
       -0.24583372 0.26642847 -0.5402642 -0.36738104
000090 10 ac d2 bd 35 dd ee 3d 34 9e 06 3e 67 d6 e8 3e
       -0.102867246 0.11663286 0.13146287 0.45476076
0000a0 6e 5b a6 bd 61 cf 33 be e1 a8 03 be 87 80 e0 bb
       -0.081229076 -0.17559578 -0.12857391 -0.006851259
0000b0 59 5b 19 3e 50 fa ce bd 96 a7 18 3f 90 14 15 3e
       0.14976253 -0.10106337 0.59630716 0.14558625
0000c0 16 60 f1 3d 1a 83 7a 3e b5 24 9d 3d 3b 62 53 3e
       0.11785905 0.24464074 0.07673017 0.2064294
0000d0 2f 69 7e 3d 75 c4 86 3e d1 0c b9 3e 72 5d 65 3e
       0.06211203 0.2632176 0.3614259 0.22398928
0000e0 98 97 7f be 46 47 98 3d fb 4f 86 3e 94 c8 e2 bd
       -0.24960172 0.07435469 0.26232895 -0.110734135
0000f0 0b 4d 14 3f f1 2b fd 3e ad 8b 8a 3d 4d be 7f be
       0.5793006 0.49447587 0.06764922 -0.24974938
000100 31 b9 a6 be 6d ee af bd 32 b5 88 be 78 fe da be
       -0.32563165 -0.08590398 -0.2670074 -0.4277227
000110 10 b2 05 bb e1 14 e2 bd f6 7c 07 3e b4 cc 11 bd
       -0.0020400323 -0.110391386 0.13231263 -0.03559561
000120 29 66 22 be d6 08 f2 be 5e ca 82 be 7a f1 25 3d
       -0.15859284 -0.47272366 -0.2554502 0.040513493
000130 11 57 25 be 00 8c 5a be 97 07 b2 be 28 be c1 3e
       -0.16146494 -0.21342468 -0.34771416 0.3784039
000140 7e a8 9b 3d 68 6a 1e 3e 08 cd 48 bc 11 03 07 3f
       0.07600497 0.15470278 -0.0122559145 0.52739054
000150 cc 42 a1 3e c4 6d 0f 3f 29 05 cb 3e 36 ff 0e be
       0.31496274 0.56026864 0.39652374 -0.13964543
000160 e9 ab c0 3e 22 9e ad bd 4d 96 90 3e 92 57 92 bc
       0.37631157 -0.08477427 0.2823967 -0.017864022
000170 4f 66 23 3e 8d b0 3d 3e 7c e6 cd 3e 7a ae 43 be
       0.15956996 0.1852438 0.40214908 -0.19109526
000180 6b 62 d1 3d c3 2e da be ab a3 36 be 40 a5 1a be
       0.1022385 -0.426138 -0.17835872 -0.151021
000190 fa ff 09 3f 75 3e 2b 3e 16 bd 90 3e 94 4c 28 3e
       0.53906214 0.16723044 0.2826926 0.16435462
0001a0 9c 56 fe 3e 12 4d 32 3e c9 87 61 3d 66 c3 35 be
       0.49675453 0.17412212 0.055061135 -0.1775032
0001b0 83 5e 7e 3d 9e 04 08 bf ff e4 34 be 54 9e e2 bd
       0.062101852 -0.53132045 -0.1766548 -0.11065355
0001c0 bf 1e d4 bd f1 d8 0e 3e f7 fe 71 3d 40 d5 96 ba
       -0.10357427 0.13949944 0.059081044 -0.0011507645
0001d0 d4 0f 98 3e 05 3b b0 3c cb a6 79 be ac 29 6a 3e
       0.29699576 0.021512518 -0.24380033 0.22867459
0001e0 76 08 d5 bd 3c 37 6f 3d 21 51 f5 3d 27 07 a5 3d
       -0.104020044 0.058402285 0.11978365 0.08058005
0001f0 14 12 70 be 79 69 75 3e ca 5b 8b 3e db 6b 56 be
       -0.23444396 0.23966016 0.27218467 -0.20939581
000200 89 c5 a8 3e bc 55 81 bd bb e9 28 3c 77 da 80 3d
       0.32963207 -0.06315181 0.010309632 0.06291669
000210 a2 4f 1a 3e 8f 59 a8 3e d0 f7 73 be 62 8f 40 bf
       0.1506944 0.32880828 -0.23825002 -0.75218785
000220 94 fb bd 3d 46 71 16 3e dc 03 0d 3e 91 bb 67 3e
       0.092765 0.14691648 0.13771003 0.22630145
000230 12 3c 5f 3e b6 73 42 3f 51 34 3f 3f 5e ad 8f be
       0.21800259 0.7595781 0.74689204 -0.28061956
000240 e3 65 d7 bd d2 4d 6d bd b9 22 41 3d cc e6 44 bd
       -0.1051748 -0.057935543 0.047152255 -0.048071668
000250 94 5c 7b 3e 80 32 56 bf 33 9e 2f bf 1b 3d bb be
       0.24547035 -0.83670807 -0.6860077 -0.36570057
000260 33 b4 35 bf 81 f3 cc 3d 62 d3 41 be 1e a4 13 be
       -0.7097809 0.10007382 -0.18928292 -0.14418074
000270 e7 19 a6 3e 6c 05 b3 bd 34 70 49 be 89 64 d5 be
       0.32441637 -0.087412685 -0.19671708 -0.41678265
000280 c2 0a 1e be 75 ca 10 be 8d 25 0d be 57 26 73 bd
       -0.15433791 -0.14139731 -0.13783856 -0.059362736
000290 06 97 7d 3d 46 71 8d be 4f 5a a4 bd 81 fc a6 be
       0.061911605 -0.27625483 -0.080250375 -0.3261452
0002a0 ba 70 1c 3e a8 0a 95 3e 5b c5 8b 3d 31 61 1b 3e
       0.15277377 0.29109693 0.06824752 0.15173794
0002b0 58 fb 8b bd e0 86 8c bd f7 33 8e 3d 72 4c a6 be
       -0.068350494 -0.06861663 0.06943505 -0.32480198
0002c0 69 1d 63 bf 14 9d 61 3d f3 79 46 3f 32 4f 1e 3f
       -0.8871675 0.055081442 0.7752983 0.6183959
0002d0 ee a0 45 3e 5b 8c 9e bd 3d 06 9b be 05 24 00 bd
       0.19299671 -0.077416144 -0.30278197 -0.03128435
0002e0 c1 7a f6 bd 23 63 c4 bd 4a de 85 be e9 e6 e7 3e
       -0.12035132 -0.09589221 -0.26146156 0.45293358
0002f0 58 15 10 3e 95 cf 47 be a9 dd 26 3b 1b f6 4b bd
       0.14070642 -0.1951278 0.002546171 -0.04979525
000300 2e 85 f8 3e 87 52 0b 3d f8 35 cb 3e 9f 6c 0a be
       0.48539108 0.03401425 0.39689612 -0.13517998
000310 cf 18 6e bd 78 99 d1 3e f4 12 49 be 56 59 ba bd
       -0.058129128 0.409374 -0.19636136 -0.09099071
000320 6d 5a 05 3f bd 3f 99 3e 9e 84 39 be 8a 06 02 bf
       0.52091104 0.2993144 -0.18116996 -0.5079123
000330 c5 fd dc bb ce 89 59 be 1b 94 6f be cc c3 17 be
       -0.006744119 -0.21243975 -0.23396342 -0.14820784
000340 3b 91 cc be 77 7b b4 3e 63 78 a0 3e c3 4d 17 3f
       -0.39954552 0.35250446 0.31341848 0.5910303
000350 66 d1 db 3c cd f0 6c bd b5 82 e8 bd 63 2f 11 be
       0.026833247 -0.057846833 -0.113530554 -0.14178233
000360 6c eb 4e be 21 5a 8f 3e b1 9e dd be 04 c2 b3 3e
       -0.20206994 0.2799845 -0.43285134 0.3510896
000370 8f 49 22 bd f4 b3 0f be 3d cd e1 3d 36 c6 f9 3c
       -0.039620932 -0.1403349 0.11025474 0.030490022
000380 4b 0c ef bd af 3b 25 3d 8e 62 13 be 6c 04 46 be
       -0.116722666 0.04034012 -0.14393064 -0.19337624
000390 d6 26 9b be 46 fc 47 3e 35 5f 67 3e 6f d4 55 be
       -0.30303067 0.19529828 0.22594912 -0.20881818
0003a0 9a 94 94 3d cc 96 e8 3e a2 86 3c bd 0d 9d af be
       0.07254906 0.4542755 -0.046026833 -0.34299508
0003b0 75 ae 05 bf 6e 0f 56 3e ed d8 88 bc 35 64 6a be
       -0.52219325 0.20904323 -0.016705 -0.22889788
0003c0 0f 7b 77 3e ae 6f 48 bd 4f de 57 3e 30 bb ad 3e
       0.24168037 -0.04893463 0.21080898 0.33931875
0003d0 95 57 d7 bd db 87 8e bd 78 77 1d be b6 33 bc be
       -0.10514752 -0.06959506 -0.15377605 -0.36758202
0003e0 d1 25 58 be bb 82 20 bd 20 ab aa be a3 ab 16 3f
       -0.21108176 -0.039187174 -0.33333683 0.58855647
0003f0 db dc 01 3e 24 65 80 be 6f 8a 4b be c6 60 c5 be
       0.12681906 -0.25077164 -0.19877027 -0.38550395

network_body._body_endoder.seq_layers.0.bias f4 [128]
000000 fc 8d 5e bb f0 60 93 3b d0 83 9f 3b 30 fc 07 3c
       -0.003395914 0.00449764 0.004868008 0.008299872
000010 25 b1 14 bc ac b3 c9 3a 61 ea ca 3b 5b da 8c 3b
       -0.009075438 0.0015388629 0.006192491 0.004298491
000020 c2 96 dd 3b ef 93 b0 bb 21 0d 8b bb e5 e9 9f ba
       0.0067623565 -0.005388729 -0.0042435084 -0.0012200443
000030 4f 57 4c bb 3e 38 91 bb 4b 35 8d bb ec 4b 82 bb
       -0.003117997 -0.0044317534 -0.0043093315 -0.0039763357
000040 6e 8a e2 bb 2d 93 bc 3a 82 a5 f8 bb 31 e4 2e 3b
       -0.0069134748 0.0014387124 -0.0075880894 0.0026686306
000050 05 32 89 3b 8d c0 b6 3b a6 a7 3a bc 7f 64 c6 ba
       0.004186871 0.005577153 -0.01139251 -0.0015136151
000060 27 e5 07 3b 50 9f a2 bb 27 5f ea bb 63 2b 25 bb
       0.002073595 -0.004962839 -0.0071524563 -0.0025202862
000070 26 22 82 3b 04 f3 db 3a f6 f7 5e 3a 37 4a b6 3b
       0.003971356 0.0016780798 0.0008505577 0.0055630463
000080 ef a2 51 bb a4 90 53 b9 c8 fe 00 3b 5c 48 9c bb
       -0.0031987985 -0.00020176411 0.0019683111 -0.004769368
000090 ff 2a 2e 3b 5f 2b ae ba 7d 56 a0 bb 36 87 f1 3b
       0.002657592 -0.0013288072 -0.0048931227 0.0073708547
0000a0 c4 44 64 3b 8a 35 a2 3b b1 91 4f bb fd 31 0f bc
       0.0034831027 0.00495023 -0.0031672532 -0.0087399455
0000b0 37 b5 96 bb ec c9 97 bb 09 a7 0c bb c7 4d c8 39
       -0.004599239 -0.0046322253 -0.0021461865 0.0003820492
0000c0 fb 84 3b bc dc 19 83 bc 52 a0 ba 3b 51 bd 4d 3c
       -0.011445279 -0.016003542 0.005695381 0.012557344
0000d0 fb 96 2d ba ce af a1 bb 53 3e 49 bb f6 fc 0e 3b
       -0.0006621924 -0.0049342876 -0.0030707314 0.0021818257
0000e0 ad 48 b2 bb c6 dc 1f bb ca 37 aa bb 4a 9e 6e 3c
       -0.0054407925 -0.0024393066 -0.005194639 0.014564106
0000f0 cf f5 ce 3a ea 1b a9 bb 81 fa 12 3c b0 2f 20 bb
       0.0015789809 -0.0051607983 0.008970858 -0.0024442486
000100 75 14 05 38 17 3e 7f bb ed 56 48 3b ca 9a 24 3a
       3.1728723e-05 -0.003894692 0.003056939 0.0006279169
000110 28 32 64 bb 0f a6 c2 3b f6 43 24 bb 13 7d bd ba
       -0.0034819935 0.005940206 -0.0025064922 -0.0014456831
000120 44 fa 1b 3c f3 bf 22 3a 4a de 1a 3b 2d 10 0e bc
       0.009520117 0.0006208412 0.002363103 -0.008670849
000130 9f 02 15 bb 31 95 92 3a 3f 53 aa bb b4 5b 80 bb
       -0.0022737158 0.0011183379 -0.005197912 -0.003917182
000140 b8 aa fd ba 3f d0 a1 b9 4a 6e 80 bb 41 2e d5 bb
       -0.0019353246 -0.00030863468 -0.0039193975 -0.006505758
000150 48 65 49 3c 49 1d 03 3c 4d 41 b9 3b 2a d0 9f 3b
       0.012292214 0.008002588 0.0056535364 0.00487711
000160 82 67 db 3b 84 36 59 3a 72 64 89 3b aa de b4 3a
       0.0066956887 0.00082860165 0.004192882 0.0013799269
000170 60 de c6 bb 88 76 e4 3b 86 ac 45 3b fe 33 d4 ba
       -0.0060689896 0.006972138 0.0030162646 -0.0016189811
000180 c7 ec c4 bb 62 3a ac ba 78 fc 28 3c 02 5b 6d bb
       -0.0060096714 -0.0013139958 0.0103140995 -0.0036217575
000190 f9 9e be bb 36 67 e7 39 32 82 b8 bb 90 5b 08 3c
       -0.005817291 0.00044136652 -0.005630755 0.008322611
0001a0 3c da fe 3a 8a 6b 78 ba 3d dc 7a 3a 89 4c 6a 3b
       0.0019443701 -0.0009476474 0.0009569561 0.0035751185
0001b0 eb 9b c6 3b e4 a6 01 bb 30 fc 15 3b 0e 39 bf bb
       0.0060610673 -0.0019783312 0.0022885911 -0.005835659
0001c0 7e 81 4a bb c4 f8 74 bb 8f 0a 0b bb af 20 13 3c
       -0.0030899937 -0.0037379721 -0.002121601 0.00897996
0001d0 89 12 44 bb 1c 07 03 bb 6b 0c 25 bc 07 18 a8 b8
       -0.0029918274 -0.0019993251 -0.010073761 -8.01534e-05
0001e0 46 bb d1 3a 44 3d 71 3b cf 26 29 3b 82 0a 94 bb
       0.0016001246 0.0036810199 0.0025810485 -0.004517854
0001f0 b1 46 ff 3a 90 68 84 bb c0 7b 5e 3b 1e 24 c9 bb
       0.0019476024 -0.004040785 0.0033948272 -0.0061383387

network_body._body_endoder.seq_layers.2.weight f4 [128, 128]
000000 d3 11 d8 3d 79 e9 a5 3c cb b5 27 bb c8 d7 19 3e
       0.10550275 0.02025293 -0.0025590535 0.1502372
000010 65 75 fa 3d c3 32 bd bd 9e 3b 61 3c bb f4 e0 bc
       0.122294225 -0.09238198 0.013747124 -0.027460447
000020 fe 6e 0b 3e a7 4b de 3d 2d 06 12 be ec ec c1 3d
       0.13616559 0.10854273 -0.14260168 0.094690174
000030 44 3c a9 bd 40 2e 85 3c 19 72 2c be 01 6a 57 be
       -0.08263448 0.016257405 -0.168404 -0.21036531
000040 5c 7f 99 bd 21 98 14 bd 15 4e 06 3d ea 20 3c 3e
       -0.07494995 -0.036277894 0.03278931 0.1837193
000050 39 ae 14 3d d7 b0 73 bd 60 3c 26 bd c4 d1 ef bc
       0.036298964 -0.05949482 -0.04058492 -0.029274829
000060 d9 e7 39 3d dd 72 58 bd 38 5f 3d bd 65 e9 b6 3c
       0.045387123 -0.052843917 -0.046233386 0.022328088
000070 30 c9 7b bd ee 9f 5c 3d 16 4e 14 be f1 11 5b 3d
       -0.061471164 0.05386346 -0.14482912 0.053483907
000080 36 93 dd bc 96 98 79 bd 76 f2 20 3e 54 4c 3e bd
       -0.027047735 -0.060936533 0.15717492 -0.04645951
000090 9a b6 9e bd ea 19 87 3d fe 98 da 3d e7 a8 c1 3d
       -0.07749672 0.065967396 0.10673712 0.09456044
0000a0 a6 8b 80 be 81 32 80 bd 6d 47 91 bd 1c 7f 75 3d
       -0.25106543 -0.06259633 -0.070937015 0.059935674
0000b0 b7 b6 c4 3d 4e bc 51 3e 7b bf f4 bd 1e d4 da 3c
       0.096051626 0.20481989 -0.119505845 0.026712473
0000c0 4a 27 e5 bd c4 a3 cf bd cc 8f fc 3d e4 49 f9 bc
       -0.111891344 -0.10138658 0.123321146 -0.030430742
0000d0 59 cf 48 3e da 7c 44 3e ec ef 80 3d d6 f1 ae ba
       0.19610347 0.19188252 0.062957615 -0.0013347219
0000e0 a7 2d 4b bd 37 48 54 3d 62 12 f0 3d af a5 19 3c
       -0.049604084 0.051826682 0.11722256 0.009377881
0000f0 9c d0 0d 3d 08 32 4b bd c3 87 bb bc 6f 9d 9f bb
       0.034622774 -0.04960826 -0.022891885 -0.0048710625
000100 38 78 02 3e 94 b9 05 3e 4d ba 52 3c 8a ed 2d 3e
       0.12741172 0.13059074 0.0128618 0.16985145
000110 95 53 56 bc a4 ce e9 bd 11 dd c5 bd b9 00 07 3e
       -0.013081451 -0.11416367 -0.09661306 0.1318387
000120 d8 49 51 3d a6 77 d4 bc fe b2 41 be dc c8 f4 bb
       0.051095814 -0.02593596 -0.18915936 -0.0074702334
000130 ae 5e da bc c5 04 d8 bc 1a 25 36 3c 69 af 25 be
       -0.026656475 -0.026369462 0.011117244 -0.16180195
000140 16 e7 be 3d a4 63 dc bc 60 31 35 bd 73 7c be bd
       0.0932142 -0.026902981 -0.04423654 -0.093010806
000150 66 d2 7e 3d 01 a7 05 bd 32 9e 3f 3e 2f b1 ac bd
       0.06221237 -0.03262997 0.1871269 -0.084322326
000160 8e 0b d2 3c be 02 31 bd 57 25 2d bd e4 c6 bd 3c
       0.025640275 -0.043215506 -0.04227194 0.023166128
000170 fe 03 73 bd a3 59 4c bd 7d 54 f5 3c 46 bb 79 be
       -0.05932998 -0.04989017 0.029947514 -0.24387845
000180 c1 fd e8 3d a3 f6 a0 bd 7d 45 86 3d 43 89 8f be
       0.11376525 -0.07859542 0.065562226 -0.2803441
000190 a2 b1 13 be f7 d9 ad 3d 39 df ef bc ac 39 43 bc
       -0.1442323 0.08488839 -0.029281246 -0.0119156055
0001a0 0c f7 49 3d 30 dc e8 bc de c9 55 bd db 5e 2b be
       0.049307868 -0.028425306 -0.05219447 -0.16735403
0001b0 75 85 9e 3b 0b 8c 41 bd e4 93 d6 bd bc d7 4f 3e
       0.0048376867 -0.047252696 -0.10477427 0.2029714
0001c0 64 ed 9d 3c 64 90 d6 bd ea 05 fb bc ba 88 b5 bd
       0.019278236 -0.10476759 -0.030642468 -0.08863969
0001d0 57 80 f0 bc 85 91 44 bd f2 f4 41 be 81 54 4b 3e
       -0.029358072 -0.04799034 -0.18941095 0.19856454
0001e0 82 18 5d bd e3 62 f2 3b 21 ef 1a 3e f5 1c 0b be
       -0.05397845 0.007397042 0.15130283 -0.13585265
0001f0 35 02 27 be bd 14 ef bd 6b b1 6b bc 95 8a af 3d
       -0.16309436 -0.116738774 -0.014385561 0.08571354
000200 f5 e2 12 bd f0 0f d0 bd a0 8a 48 bd 8a 05 1c 3d
       -0.035860974 -0.1015929 -0.048960328 0.03809122
000210 cc 7d 0e be c1 8f 77 3d f7 47 3f be 81 45 8d bc
       -0.13915175 0.06043983 -0.18679796 -0.017245056
000220 1c 09 fd 3d b8 ef 84 3c 0d a8 67 bc bd 1f c2 bd
       0.12355253 0.016227588 -0.0141391875 -0.0947871
000230 8a 5e 94 bd 7b ab 6f bd 15 3b 78 bd 54 aa 52 bd
       -0.072445944 -0.058513146 -0.06060322 -0.05143197
000240 91 bf c2 3d 31 df 4c 3d 55 c1 38 3e c2 04 50 3b
       0.09509195 0.05001754 0.180425 0.0031741117
000250 37 8a 46 3e 75 6d df b9 f1 75 b9 3d dd c5 86 bd
       0.19388662 -0.00042615426 0.09055699 -0.06580708
000260 1f 56 f3 3b 7b 88 27 bd 35 64 c6 3c e8 40 db 3c
       0.007426038 -0.040901642 0.024217704 0.026764348
000270 f8 ab f9 bc 81 f4 80 3b aa 03 ba 3b 12 94 ef 3b
       -0.030477509 0.003935397 0.0056767063 0.0073113525
000280 86 94 32 bd 1c 67 da 3d 18 5f 82 3d 38 9a 00 3d
       -0.043598674 0.10664198 0.06365794 0.031397074
000290 9a 7e d8 bd 71 7d 25 3c f1 14 b0 bd 0f b5 50 be
       -0.10571022 0.010100708 -0.08597744 -0.20381568
0002a0 f4 76 41 bc e8 ff a5 3d 95 44 1c be 10 7d 51 3c
       -0.011808146 0.08105451 -0.15260537 0.012786165
0002b0 6f 51 40 3d 92 23 6f bc 17 fd 84 3d 70 ab f7 bd
       0.04695266 -0.014595883 0.064935856 -0.12093246
0002c0 b6 43 85 ba 8e 04 0e bb 49 0a 5f bd ad 06 5f 3d
       -0.0010167274 -0.0021670195 -0.054453168 0.054449726
0002d0 ad ba 10 3e 83 91 21 be 7d d0 9f 3d 3d 2f 32 3e
       0.14133711 -0.15778165 0.07803438 0.17400832
0002e0 05 1c cf bd 25 39 86 bd 50 5f a9 3d 47 55 85 3d
       -0.10112766 -0.06553868 0.082701325 0.06510406
0002f0 72 c1 9b 3d be 85 fe bd da 74 fd bd 41 35 9a 3d
       0.07605256 -0.12427853 -0.12375803 0.075296886
000300 fd 8e df 3d 55 f8 55 3d ac a2 b1 bd 1d 3f 37 bd
       0.10915945 0.05223878 -0.08673605 -0.044737924
000310 b4 20 f3 bd 26 55 e0 bc e7 98 3a bc c0 49 84 bd
       -0.11871472 -0.027384352 -0.011388994 -0.06459379
000320 d5 96 e0 bd 77 67 f7 3d c4 2e 16 3e a1 f6 ea 3d
       -0.10966269 0.12080281 0.14666277 0.11472822
000330 71 fe b0 3d f3 1a 18 bd 6c bc 22 3d b9 53 af bd
       0.08642281 -0.037135076 0.039730474 -0.08560891
000340 6c 02 0d 3d 0d 82 8d bc 9a 9a 20 bc 2f 3c 9b 3d
       0.034426138 -0.017273927 -0.009802485 0.075798385
000350 33 57 86 bd bf 38 8f 3c fb cb 86 3d 73 b4 06 bd
       -0.06559601 0.017483113 0.06581875 -0.032886934
000360 09 52 84 bd e2 7a b3 bc 02 f9 b5 3c 63 56 cc 3d
       -0.064609595 -0.021909181 0.022213463 0.099774145
000370 a3 7a 66 3c cc cf 74 3d 72 c3 a8 bd 1d cb e3 bd
       0.014067325 0.059768483 -0.08240403 -0.11122725
000380 62 fe ab 3d 4a 65 10 be 73 3f 55 3c 0e 39 be bc
       0.08398129 -0.14101139 0.013015616 -0.023220565
000390 ca 7a 58 3d 9e 8b bb 3d 4b 97 8d bd 3d 9e 88 3c
       0.052851476 0.09157489 -0.069136225 0.016677016
0003a0 04 1f 11 3c 8d 75 1a bd 2b 05 42 be c0 10 5b bd
       0.008857492 -0.03770976 -0.18947284 -0.05348277
0003b0 9d d4 0e bd 38 da 54 3b 19 e3 90 bc 10 7c 2a be
       -0.034870733 0.0032478701 -0.017686414 -0.16648889
0003c0 4a 8e 6c bd 84 3d 5b 3e b4 16 b3 bc e5 0b 83 3d
       -0.057752885 0.21410185 -0.021861412 0.06398753
0003d0 49 0a 24 bd af 85 8d 3d 8f 20 8c 3d 2b 17 b1 3d
       -0.04004887 0.06910264 0.068421476 0.08646997
0003e0 4b ad 18 3c 80 d2 73 3d 2e 0e 7d bd 50 5c 5f 3d
       0.00931866 0.05952692 -0.0617811 0.054531395
0003f0 fc e3 47 3e 44 09 db 3c ed e9 9b 3c 04 84 f1 3d
       0.19520563 0.026737817 0.019032443 0.11792758

network_body._body_endoder.seq_layers.2.bias f4 [128]
000000 30 36 4c bb 6e 9e 4a 3b 9b c8 3a bb aa 19 c9 bb
       -0.0031160228 0.0030917185 -0.0028500918 -0.0061370926
000010 42 9f de ba 31 6c 8f bb fb f7 c6 bb 46 04 ae bb
       -0.0016984718 -0.004376911 -0.006072042 -0.005310568
000020 43 42 c7 bb fb dd ed 3b 98 32 04 3b 40 20 94 3a
       -0.006080897 0.007259128 0.0020171758 0.0011301115
000030 23 8c 0e 3a ad bb 26 3b f4 ed ef b9 36 d1 5a bb
       0.0005437752 0.0025441453 -0.0004576292 -0.003338886
000040 73 bf b3 3a a9 8d 8e 39 ac d8 2a 3b 34 a9 d9 ba
       0.0013713673 0.00027189896 0.0026069088 -0.0016606213
000050 6f 3b 5d ba bd 80 8e bb 94 55 a5 bb 9f 37 85 3a
       -0.0008439337 -0.004348843 -0.005045602 0.0010163671
000060 16 05 ee 3a 7d e7 da bb 7a 77 98 bb 2f 8f 73 ba
       0.0018159475 -0.0066804276 -0.0046529146 -0.00092910504
000070 df f2 87 b9 53 5a e6 3a de be db ba c4 c3 aa 3b
       -0.0002593016 0.0017574526 -0.0016765257 0.0052113254
000080 f0 4d bd bb f3 e6 77 bb b6 ef 2f bc a0 f5 5e 3b
       -0.005777113 -0.0037826865 -0.010738304 0.0034020916
000090 e9 c1 b4 3a 25 77 0c 3b 7d e2 6d ba 74 b5 d5 ba
       0.00137907 0.002143332 -0.0009074582 -0.0016304688
0000a0 ee 9c cf 3b d7 4e 0e 3b 74 dc d6 3a 8a 1e 8f bb
       0.006335846 0.0021714473 0.0016392604 -0.004367654
0000b0 96 66 39 3a 2d 87 99 bb 96 af 06 3a 6f 87 5a bb
       0.00070724764 -0.0046853037 0.00051378587 -0.0033344885
0000c0 7a cf 40 ba e0 b2 c6 bb 0f f7 ac bb 98 86 96 bb
       -0.0007355135 -0.006063804 -0.005278475 -0.0045936815
0000d0 e4 07 d0 ba 69 78 a7 ba d5 84 1e 39 10 63 cb ba
       -0.0015871492 -0.0012776974 0.00015117538 -0.0015517194
0000e0 82 ae 8b 3a 82 4d 92 bb 85 fb 70 bb 42 0f 2a 3b
       0.0010656866 -0.004464806 -0.003677101 0.0025949036
0000f0 54 e6 a6 bb 3b 31 eb bb d5 5c 91 39 be 5e 98 bb
       -0.005093375 -0.0071774996 0.0002772572 -0.004649966
000100 51 17 04 bb b2 c4 db bb 80 c6 b1 3a e3 f9 a6 ba
       -0.00201555 -0.0067067975 0.0013563186 -0.0012739267
000110 4c c4 c5 bb 12 07 f0 bb a4 d7 d1 bb d0 4c a7 bb
       -0.0060353633 -0.0073250616 -0.00640388 -0.0051055923
000120 f6 d0 ee bb 5d 5e 6d bb 7b dd 22 3b 68 ec 88 bb
       -0.0072880937 -0.0036219575 0.002485125 -0.0041785724
000130 d4 5d 8a bb 34 10 7f 39 a9 b1 01 bb b0 16 1f bc
       -0.004222611 0.00024324731 -0.0019789732 -0.009709999
000140 89 67 ab bb 60 65 ac 3a 5e fe d1 bb 14 6e c0 bb
       -0.005230848 0.0013152771 -0.0064084968 -0.0058724973
000150 aa 37 30 3a 86 cc 1a 3c 7b ee 39 3a d7 79 fa 39
       0.0006722162 0.009448176 0.00070927263 0.00047774494
000160 ca 05 8b ba 50 0c 97 bb 53 ad bc ba 5d 01 94 bb
       -0.0010606584 -0.004609622 -0.0014394916 -0.004516764
000170 04 33 41 3b e8 81 4a 3b c2 aa 48 ba 18 08 5d bb
       0.002947987 0.0030900184 -0.00076548394 -0.0033726748
000180 24 a7 b7 3a 84 19 92 3b 02 8d 33 ba 8e c9 35 bc
       0.0014011604 0.004458608 -0.000684932 -0.011095418
000190 7b 76 42 3b 44 2d 65 3b 02 8c 7c bb 6b ca 6f bb
       0.002967267 0.0034969607 -0.00385356 -0.0036589156
0001a0 f3 f4 20 3c 1d 1f c7 bb dd 4e f7 3a 5e b1 f9 ba
       0.009824025 -0.006076707 0.0018868108 -0.0019050052
0001b0 42 d2 08 ba b0 bb ee 39 53 19 26 3a 37 14 3c 3b
       -0.0005219319 0.00045534736 0.0006336171 0.0028698572
0001c0 d4 6d 88 3a de 52 8d 3b dc 9f 56 3a a3 8e 2a bb
       0.0010408708 0.004312857 0.0008187273 -0.002602496
0001d0 85 24 ec bb 0a 2a c3 ba 5d 06 4f bb 07 dd 95 ba
       -0.007206502 -0.0014889848 -0.0031589486 -0.0011433669
0001e0 45 e8 05 3a 8b 0e 86 bb 9c 66 04 ba 38 06 11 bc
       0.0005108158 -0.004091089 -0.00050506904 -0.00885158
0001f0 83 3e 33 3b 8a 1e de 3a ad bb 7c bb db c3 9b bb
       0.0027350492 0.0016946357 -0.0038564012 -0.0047535724

action_model._discrete_distribution.branches.0.weight f4 [2, 128]
000000 91 e1 ca 3a 0a fe 30 bb ef 0a 44 b9 03 7f 88 3b
       0.0015478601 -0.0027006888 -0.0001869609 0.0041655316
000010 a2 06 e6 3b c6 59 19 3c bf 3f b9 bb ab 07 82 3b
       0.0070198337 0.009359783 -0.005653351 0.0039681992
000020 4d 10 e4 3b c3 e9 1d 3c 17 ac 4c 3a 6a dd 47 bb
       0.006959951 0.009638253 0.0007807626 -0.0030496963
000030 96 9d c1 3c 30 ec 95 bb 79 d4 03 3c 65 f1 40 bb
       0.023634713 -0.004575275 0.008046263 -0.0029440757
000040 f8 2e 7e 3b ea d3 55 bc b5 3e 76 bb 97 3f 9e bb
       0.003878532 -0.0130510125 -0.0037573997 -0.004829358
000050 1f b7 a3 3b e5 ed 05 3c 31 64 90 b9 7d 62 51 3b
       0.004996195 0.008174394 -0.0002754047 0.0031949573
000060 b4 df 7c bb 89 43 60 3b 37 b9 06 3c 79 9b 74 bc
       -0.0038585486 0.0034219942 0.00822287 -0.014929646
000070 14 b8 50 3c 61 f0 04 3b 4f 2d ad ba ea 49 da 3b
       0.0127392 0.0020284879 -0.0013212356 0.0066616433
000080 88 4f c3 39 12 cd 51 3a b3 1e 42 bc 89 c7 18 3c
       0.00037252554 0.0008003275 -0.01184814 0.009324917
000090 ee 4b 4b bc 02 d2 98 bb ca c8 b3 ba 3e 45 39 3c
       -0.01240824 -0.0046637068 -0.0013716456 0.0113080125
0000a0 4a 83 8d b9 c1 bc 83 ba 08 8e c7 3b 9c 2c 4a 3b
       -0.00026991434 -0.001005076 0.0060899295 0.0030849343
0000b0 64 65 8b bc ba 9e e0 3b 16 ec 56 3b fb cb 45 3b
       -0.01701612 0.006854859 0.0032794527 0.0030181396
0000c0 ee 4c bb b9 9e 60 0f 3c 8d 39 28 3c 1c 04 a0 3b
       -0.00035724737 0.008751063 0.010267627 0.0048833024
0000d0 47 00 37 bc f2 2f eb bb df 2d d3 3b 9c 25 cb 3c
       -0.0111695 -0.0071773464 0.0064446772 0.024798207
0000e0 84 c2 a5 ba 70 a2 a4 bb e8 85 1e 3c b9 63 31 bc
       -0.0012646471 -0.005024247 0.00967548 -0.010826998
0000f0 e9 33 85 bb 39 85 86 bb ef 0a 13 3c e7 0f 98 3c
       -0.004065026 -0.004105237 0.008974775 0.01856227
000100 17 96 81 bb 51 68 7e bb 8d 78 6f bc 60 57 36 3c
       -0.0039546597 -0.0038819502 -0.014616144 0.01112923
000110 55 8c 73 bb 6a 49 43 bb b3 a5 4f 3c e9 5f 2a 3c
       -0.0037162502 -0.0029798397 0.012673783 0.010398843
000120 95 49 1d bb 9e e3 06 3c d3 9c 9b 3b 35 5d 8e 3b
       -0.0024000157 0.008232979 0.0047489195 0.0043446072
000130 15 36 62 3b 6e fc 05 3b 0d 73 92 bb 30 f2 34 bb
       0.0034517099 0.002044465 -0.0044692815 -0.0027610175
000140 27 b8 96 bb 2c 05 c5 3b c8 68 f8 3b 41 61 e0 bb
       -0.0045995894 0.0060125794 0.0075808503 -0.006847531
000150 0d 99 5d 3b e2 bd 60 bc 0b 26 15 3c 3e 1a 33 bc
       0.003381315 -0.013717147 0.009103308 -0.01093155
000160 27 57 e7 bb c8 58 55 bb 41 4c 17 bb aa d5 86 3a
       -0.00705995 -0.0032554138 -0.0023086222 0.0010287066
000170 02 05 64 3c bf e5 23 bc 8c f1 4a bb 06 ab cc 3b
       0.01391721 -0.010003506 -0.0030966727 0.0062459735
000180 15 8a 68 bb 31 53 34 bb ea d2 95 3c 1a 15 4d 3b
       -0.0035482694 -0.0027515406 0.018289048 0.0031293095
000190 ac a5 d1 bb 74 b6 cb bb 41 cf 42 bb 96 87 31 bb
       -0.0063979235 -0.0062168185 -0.0029725584 -0.0027088872
0001a0 16 86 ed 3a b2 fa de bb 7e 5c fd ba 6a 4d 37 bb
       0.0018121626 -0.0068047876 -0.0019329933 -0.0027969726
0001b0 1c 9b 7a ba b6 99 ae bb 50 de 83 3a 93 4a 18 3b
       -0.0009559856 -0.0053283824 0.0010060761 0.002323781
0001c0 e3 de ef bb 98 88 27 3c b6 14 9a bb cd d2 d5 3b
       -0.0073202713 0.010225438 -0.004702176 0.0065253736
0001d0 16 1d 75 3b fb 11 90 bc 41 b4 04 bc f5 82 b7 3b
       0.003740137 -0.017586699 -0.0080996165 0.005600328
0001e0 57 1b ac b9 53 72 0d 3b a7 8d c1 3c 29 39 b8 ba
       -0.00032826766 0.0021583035 0.023627115 -0.0014055121
0001f0 79 a5 76 bc fc ed e0 bb a2 24 b2 ba 2f 36 46 3c
       -0.0150541 -0.0068643074 -0.001359124 0.012097879
000200 9f 78 6d 3b 4b 7a 41 3c ac 11 65 3a 5b de dd 3a
       0.0036235226 0.011808942 0.000873829 0.0016927229
000210 fd 26 04 3c a0 7b 31 3c 6c 32 c6 bb e0 98 ad ba
       0.008065936 0.010832697 -0.006048491 -0.0013244413
000220 f2 e9 38 3b 5e a2 cb bb 3e b9 19 3b e5 e8 7c b9
       0.0028215614 -0.006214424 0.002345636 -0.00024119353
000230 cf 98 cf ba 97 67 93 3b b7 70 32 3c 0d 46 12 bb
       -0.0015838387 0.004498433 0.010891131 -0.0022319586
000240 24 7e b3 3b 72 94 e5 bb b3 7f 0e 3c c8 c4 0a bb
       0.0054776836 -0.0070062215 0.008697438 -0.002117442
000250 3e 55 18 3c 98 e6 00 bc 6e 76 94 3a da 01 26 bc
       0.009297667 -0.007867478 0.0011326799 -0.010132277
000260 1f 7c ed 3b fc f0 1e bb 09 36 2c bb f8 18 64 bc
       0.0072474624 -0.0024252525 -0.0026277325 -0.013921969
000270 ca 48 53 bb 46 ad ef 3b c8 8a 0b bc 33 30 e3 bb
       -0.003223943 0.007314357 -0.008516975 -0.006933236
000280 48 97 77 3b 11 37 83 bc b5 04 72 ba bb 6c 81 bc
       0.003777938 -0.016017469 -0.0009232269 -0.015798917
000290 43 80 3f 3c 7c 4b 18 3c 45 2b 9c bb 38 37 93 bc
       0.011688295 0.009295341 -0.0047659003 -0.017970666
0002a0 84 10 be 3b 0a 78 60 3c 6d 23 a9 3c 82 3f a1 bb
       0.0058003087 0.013700495 0.020646775 -0.004920901
0002b0 6f 4b 8b b9 c8 a5 59 bb 6d dd 54 3c 9d 92 68 bb
       -0.00026568348 -0.0033210386 0.012992245 -0.003548778
0002c0 d7 67 5f 3b a9 0a 5b 3b 0b cd ca bb 7e fd 01 bc
       0.0034088993 0.0033423102 -0.006188994 -0.007933972
0002d0 a3 3a 1f bc 36 2f d6 39 f0 69 41 3c 3e e6 43 bc
       -0.00971857 0.00040852436 0.011805043 -0.0119567495
0002e0 86 df c0 3b 27 61 1e bb 77 51 64 3a e0 f1 6b bb
       0.005886021 -0.0024166794 0.0008709649 -0.0036002323
0002f0 e0 36 9f bc 3c c7 e2 3b 17 6a cc bb 15 ca 86 bc
       -0.019435346 0.0069207232 -0.006238233 -0.016453782
000300 13 2f 02 bc 87 8a 5a bc 4f cc 2a bb 3e 54 89 bc
       -0.007945794 -0.013338692 -0.0026061719 -0.016763803
000310 fe 33 ba bb 20 f9 b4 3b 83 2b 33 3c 44 a8 36 bc
       -0.0056824675 0.005522862 0.010935667 -0.011148516
000320 f5 79 b8 ba 4d a1 a5 3b 47 6b 3c bc 9c 35 85 3b
       -0.0014074432 0.005054629 -0.011500186 0.0040652286
000330 4a 6a 83 bb 65 0a 55 3b ca bd d8 bc 9b 7e 73 bb
       -0.0040104734 0.0032507416 -0.026457686 -0.003715432
000340 7f 1f 44 ba 0f 0d d4 bc 11 0a 16 3c fb e4 b5 bb
       -0.00074815 -0.025885133 0.009157673 -0.0055509782
000350 4d a7 e8 3b ed 5c 7a 3c 35 df 8f 3c b8 09 9c 3b
       0.007100022 0.015280944 0.017562488 0.0047619008
000360 fe fe e5 b9 cc c1 d7 bb c5 0c 68 3c be b8 dd 3a
       -0.00043868268 -0.0065843817 0.014163201 0.0016916019
000370 98 b9 f5 bb f3 fb 3f 3a ca 05 c2 3a ca ed de 3b
       -0.007498931 0.0007323615 0.0014802751 0.006803249
000380 21 30 a2 3b ca f6 13 3c ec 23 78 3b 9a 0c d2 3b
       0.004949585 0.009031007 0.0037863208 0.0064101936
000390 c2 30 54 3b 03 62 3d 3c 01 d9 48 3b f7 94 8e bc
       0.0032377695 0.011559012 0.0030646923 -0.017405016
0003a0 ad f9 95 bc cc ba 24 bc ad 9c 1a 3c 45 e4 8b 3a
       -0.018307531 -0.0100543015 0.0094367685 0.0010672888
0003b0 10 58 ec 3b b0 b5 6f bc 40 d4 bd 3a 7c 7b 84 bc
       0.0072126463 -0.01463072 0.0014482811 -0.016172163
0003c0 e6 b7 e7 bc 7f 7b ef bb 00 d8 df 3b a7 fb 1b 3b
       -0.028285932 -0.007308423 0.006831169 0.002380112
0003d0 44 28 f8 bb fc b9 9c 3a 20 8c a3 bc 3b 59 fa bb
       -0.0075731594 0.0011957283 -0.019964278 -0.0076400316
0003e0 1f 28 29 bc fd ce 6d bc b0 56 b3 bb e9 57 18 3a
       -0.010324507 -0.014514682 -0.0054729804 0.00058114395
0003f0 25 dc 50 3b 76 be f8 3b a8 62 31 3b e9 62 f5 bb
       0.0031869498 0.007591064 0.002706686 -0.0074885977

action_model._discrete_distribution.branches.0.bias f4 [2]
000000 f9 02 85 bb f8 02 85 3b
       -0.0040591923 0.004059192

action_model._discrete_distribution.branches.1.weight f4 [1, 128]
000000 b1 94 a9 3b fb f3 87 3c 43 82 e3 3a 4f 6a b3 3b
       0.005175196 0.016595831 0.0017357547 0.0054753195
000010 dc 09 bf 3b 23 37 db 3a b2 19 fc 3b 5f 4f 19 3c
       0.0058300328 0.0016724806 0.007693493 0.009357302
000020 87 eb 53 3c af 58 dd 3a 90 0b 55 3b 02 ea b5 bb
       0.012934572 0.0016887392 0.0032508112 -0.0055515775
000030 5b 6f 29 3c cc 84 16 bc 80 b9 ed bb 49 1b 16 bc
       0.010341491 -0.009186935 -0.0072547793 -0.009161779
000040 5b ec bc bb d8 b2 92 3c 12 b0 6e ba 20 2e cd 37
       -0.0057654805 0.017907545 -0.0009105216 2.4459383e-05
000050 b3 4b 10 bc 80 9c 7c 3c db 5a 77 3b 1c 6e a0 3b
       -0.008807111 0.015418172 0.0037743363 0.0048959386
000060 52 e9 e3 bc 5a 93 2e bc 27 3c 38 bb 6f fd 10 3c
       -0.027821217 -0.010655249 -0.0028112025 0.008849486
000070 8f f9 ba bb 3f 35 d8 3b b5 3e 12 bc f7 c9 7c bb
       -0.0057060192 0.0065981443 -0.008926083 -0.003857253
000080 47 7a 72 3c 7d 03 eb bb d3 7a 03 3c fa 7a 4f bc
       0.014799661 -0.0071720467 0.008024889 -0.012663597
000090 86 f1 99 bc 3e ea 0a 3c 7b f5 85 3c 91 93 c4 bb
       -0.018791925 0.008478699 0.016352406 -0.0059990366
0000a0 20 75 02 bc 8f 5a 03 3c 63 49 a5 3c db 12 78 ba
       -0.007962495 0.008017196 0.020176595 -0.0009463259
0000b0 18 14 a1 3b 90 39 cf 39 6f e5 0f bc 25 d1 ed 3b
       0.0049157254 0.00039525004 -0.008782729 0.007257598
0000c0 92 98 b3 3a e7 7c f9 ba 03 14 d7 bb 4a 47 d6 3b
       0.0013702086 -0.0019034416 -0.006563665 0.00653926
0000d0 df e2 00 3c 12 57 a8 b8 28 19 a5 3b cd 47 5c 3c
       0.00786659 -8.0270824e-05 0.0050383992 0.013444853
0000e0 85 68 c0 3a 1b e9 fc 39 47 88 38 3c 9a c2 8e bb
       0.0014679587 0.00048238863 0.01126296 -0.0043566944
0000f0 87 21 22 3c bc ef 82 bc 1f b5 86 3c a5 3b da bb
       0.009895689 -0.015983455 0.016443787 -0.006659942
000100 f1 43 07 3c 60 7c 17 ba ec 22 85 3c d1 ea 1c 3b
       0.008255945 -0.0005778726 0.016252004 0.0023943672
000110 a4 8a b4 3b ad 1c ac 3b 67 b7 a7 3c 5a 00 cd 3b
       0.0055096913 0.005252442 0.020473195 0.0062561454
000120 0e ff 21 3c 7b 78 c2 bb 7b 59 77 bc 83 c7 45 3c
       0.00988747 -0.0059347725 -0.015097017 0.012071493
000130 7d d3 84 3b 9b ab 24 3c 24 54 26 3b 6e 90 2c 3a
       0.0040535317 0.01005068 0.0025379742 0.0006582801
000140 48 df bf 3b ab 33 e0 3b 33 56 94 bc d7 ed 01 bb
       0.0058554746 0.006842097 -0.01810751 -0.0019825601
000150 3f b8 c7 3b d0 71 46 3b 02 3b 33 3b e7 19 08 bb
       0.006094962 0.003028024 0.0027348404 -0.0020767392
000160 58 81 f2 3b ef d9 cc bb 23 ab 85 bb 75 5b 02 bc
       0.007400673 -0.0062515656 -0.004079239 -0.007956375
000170 b5 db 04 bc a1 4e 21 3c ec 57 1e 3b e7 c0 44 3a
       -0.008109023 0.009845407 0.0024161292 0.00075055513
000180 c4 d8 01 bc 73 3f 4d bc 77 86 0b 3a 07 34 f8 3a
       -0.007925216 -0.0125273345 0.0005322466 0.0018936404
000190 fb 43 eb 3b 8a 7b 37 bc 3f 38 22 bc bb a4 d7 39
       0.0071797348 -0.011198888 -0.009901105 0.0004113073
0001a0 d8 80 ef 3b 50 84 e9 bb a1 80 ba 3a 6b 06 91 3b
       0.0073090605 -0.0071263686 0.0014229008 0.004425814
0001b0 25 f5 de bb c0 36 da bb 53 1e 00 3a 43 3a aa bb
       -0.006804126 -0.0066593587 0.0004887331 -0.0051949336
0001c0 f3 15 d1 bb ae 02 3e 3a 48 20 68 3c d4 83 28 bc
       -0.0063807904 0.0007248324 0.014167853 -0.0102853365
0001d0 e0 2a 83 bb 1f 3a e5 bb 8b c3 2f 3c e4 6c 3f bb
       -0.004002914 -0.006995454 0.010727773 -0.002920919
0001e0 97 34 f5 39 c7 ae 4b bb af dd 9a 3b cb 8f 19 3a
       0.00046769224 -0.0031079517 0.004726134 0.00058579136
0001f0 0f 2e 8e 3b d8 e5 ab 3a 3c 59 83 bc 80 23 73 3b
       0.0043389867 0.0013114763 -0.016033761 0.0037100017

exp_avg f4 [128, 13]
000000 01 e3 9b b7 cc f8 1d b4 00 00 00 00 00 00 00 00
       -1.8583147e-05 -1.4712276e-07 0.0 0.0
000010 19 ab bd b4 00 00 00 00 5d 51 5d b4 d4 be 82 b7
       -3.5328483e-07 0.0 -2.0611829e-07 -1.5586069e-05
000020 54 44 29 b5 00 00 00 00 2b 03 1e 34 ec ea 7d b0
       -6.3056837e-07 0.0 1.4716049e-07 -9.237471e-10
000030 4a a7 d6 b3 f5 2b c4 b9 f9 90 2f b7 00 00 00 00
       -9.995581e-08 -0.00037416784 -1.0464567e-05 0.0
000040 00 00 00 00 65 36 88 b5 00 00 00 00 dc 91 1e 37
       0.0 -1.014862e-06 0.0 9.451494e-06
000050 4a 7b 5b b9 82 58 2f b8 00 00 00 00 09 99 2f 37
       -0.00020931396 -4.180568e-05 0.0 1.0466444e-05
000060 48 24 1f b2 40 d8 c9 b6 f3 c4 57 b9 68 c8 5b b7
       -9.2632675e-09 -6.0154416e-06 -0.00020577367 -1.3100078e-05
000070 00 00 00 00 00 00 00 00 2d b5 d4 b4 00 00 00 00
       0.0 0.0 -3.96199e-07 0.0
000080 44 2b 55 37 fe 73 ba b8 e5 b6 e6 b7 00 00 00 00
       1.2705863e-05 -8.8907764e-05 -2.7503303e-05 0.0
000090 20 d1 5b 37 a2 23 05 b1 de 8c 19 37 54 00 c6 b4
       1.3102108e-05 -1.9374302e-09 9.152309e-06 -3.6880613e-07
0000a0 79 bc bb b2 00 00 00 00 00 00 00 00 91 fe 20 b0
       -2.1855373e-08 0.0 0.0 -5.856942e-10
0000b0 00 00 00 00 0f bc b6 32 b6 30 8f b3 35 94 2c b4
       0.0 2.1273108e-08 -6.667817e-08 -1.6072666e-07
0000c0 00 00 00 00 d0 c3 bb 32 82 31 8d af c5 db a2 32
       0.0 2.185871e-08 -2.5682928e-10 1.8959222e-08
0000d0 db b9 48 38 ea 89 47 36 00 00 00 00 00 00 00 00
       4.7856807e-05 2.9733587e-06 0.0 0.0
0000e0 d4 e6 33 36 00 00 00 00 2d 33 9d b4 b1 fa 53 39
       2.6807438e-06 0.0 -2.9280764e-07 0.00020215918
0000f0 b4 e3 82 b7 00 00 00 00 d6 8e 47 b6 ef 5b 86 b2
       -1.560324e-05 0.0 -2.9736452e-06 -1.564146e-08
000100 7b f4 8f 37 8e 27 8f ba 25 14 00 b8 00 00 00 00
       1.7160773e-05 -0.0010921822 -3.053634e-05 0.0
000110 00 00 00 00 c5 0d 59 37 00 00 00 00 42 5d 36 38
       0.0 1.2937414e-05 0.0 4.3479035e-05
000120 a4 54 b8 b9 55 67 ea b8 00 00 00 00 3c 1a 00 38
       -0.00035158277 -0.000111772366 0.0 3.054201e-05
000130 c4 93 8a af e6 1d 6c 37 96 b8 3f b9 a8 8a 0d 36
       -2.5207048e-10 1.4073657e-05 -0.00018283943 2.1091346e-06
000140 00 00 00 00 00 00 00 00 d1 0a c5 33 00 00 00 00
       0.0 0.0 9.175495e-08 0.0
000150 7e 65 07 b6 00 72 ee b7 f0 d7 55 b6 00 00 00 00
       -2.0175644e-06 -2.8424896e-05 -3.1865166e-06 0.0
000160 38 8c 0d b6 bd b2 3e 30 bb a4 c8 b7 49 81 69 ba
       -2.1092255e-06 6.93756e-10 -2.3918567e-05 -0.00089075096
000170 85 6d 03 b8 00 00 00 00 00 00 00 00 37 15 97 37
       -3.1334832e-05 0.0 0.0 1.8010482e-05
000180 00 00 00 00 d6 fd 4e 38 c0 bd 4b b9 20 7d ff b8
       0.0 4.935063e-05 -0.00019430276 -0.00012182654
000190 00 00 00 00 6f 73 03 38 96 71 e3 b2 64 2e cd 37
       0.0 3.134034e-05 -2.6477931e-08 2.4459507e-05
0001a0 d7 29 2a 35 57 d4 af b3 00 00 00 00 00 00 00 00
       6.339082e-07 -8.187697e-08 0.0 0.0
0001b0 30 1f 89 34 00 00 00 00 fe 16 b5 34 02 ce 95 36
       2.554093e-07 0.0 3.3730606e-07 4.4645285e-06
0001c0 63 f6 29 b4 00 00 00 00 55 e2 af 33 d2 c4 0e b1
       -1.5828986e-07 0.0 8.190242e-08 -2.07756e-09
0001d0 62 fb 8e 34 80 6f 89 3a 79 5b 21 38 00 00 00 00
       2.6632466e-07 0.00104855 3.847058e-05 0.0
0001e0 00 00 00 00 e3 96 97 b7 00 00 00 00 c2 2d 6d b8
       0.0 -1.8070865e-05 0.0 -5.654782e-05
0001f0 c1 52 80 39 14 ec 2b 39 00 00 00 00 a8 62 21 b8
       0.0002447572 0.00016395777 0.0 -3.8477272e-05
000200 32 2b 6d 32 95 a7 86 b7 42 a5 41 b8 29 a2 42 36
       1.3805037e-08 -1.6052081e-05 -4.6168694e-05 2.9002642e-06
000210 00 00 00 00 00 00 00 00 6a 94 67 36 00 00 00 00
       0.0 0.0 3.450807e-06 0.0
000220 d2 ad 13 35 cd 71 00 38 5e 3a 93 b7 00 00 00 00
       5.501471e-07 3.0623563e-05 -1.7550945e-05 0.0
000230 0c a8 42 b6 0d 34 17 33 89 6e 95 b6 43 1a 24 b9
       -2.900607e-06 3.5204767e-08 -4.453414e-06 -0.00015650042
000240 8f 40 0e b6 00 00 00 00 00 00 00 00 5d 07 94 b6
       -2.1197227e-06 0.0 0.0 -4.411601e-06
000250 00 00 00 00 c6 c6 19 b6 63 7d 3b b9 6f 5f 0e b6
       0.0 -2.2914478e-06 -0.0001788042 -2.1215199e-06
000260 00 00 00 00 38 48 0e 36 58 b6 70 31 cd 07 01 b6
       0.0 2.1201686e-06 3.5028247e-09 -1.9227039e-06
000270 49 43 14 b6 7b b5 a2 b5 00 00 00 00 00 00 00 00
       -2.2092884e-06 -1.2122758e-06 0.0 0.0
000280 38 9c 8c 35 00 00 00 00 e9 ab 17 36 ea a9 c0 37
       1.0476278e-06 0.0 2.2600818e-06 2.2967306e-05
000290 a6 9a b4 b5 00 00 00 00 4f bc a2 35 8e 09 7f 2f
       -1.3456054e-06 0.0 1.2124746e-06 2.319551e-10
0002a0 95 da 1a 36 2a 16 6d b8 8b 78 45 b6 00 00 00 00
       2.307502e-06 -5.6525845e-05 -2.9425453e-06 0.0
0002b0 00 00 00 00 58 c0 fd b6 00 00 00 00 4a fe 9a b6
       0.0 -7.5623793e-06 0.0 -4.619161e-06
0002c0 81 87 3d b9 ff 73 98 37 00 00 00 00 fd 7e 45 36
       -0.00018074924 1.8173827e-05 0.0 2.9429204e-06
0002d0 4a eb 7f b2 ec 72 e8 37 f3 be 3f 3a f6 f4 a5 37
       -1.4896452e-08 2.771007e-05 0.00073145254 1.9783602e-05
0002e0 00 00 00 00 00 00 00 00 fb 40 fb b7 00 00 00 00
       0.0 0.0 -2.995179e-05 0.0
0002f0 aa 9e 50 b8 39 6d 10 b9 56 24 d8 38 00 00 00 00
       -4.9738832e-05 -0.00013773599 0.00010306451 0.0
000300 f7 fc a5 b7 1f 36 9e 32 d2 34 6f b7 9f fd 3c ba
       -1.9787329e-05 1.8418232e-08 -1.4257808e-05 -0.00072094233
000310 04 c3 d1 b7 00 00 00 00 00 00 00 00 9e 2b 35 36
       -2.5005553e-05 0.0 0.0 2.699649e-06
000320 00 00 00 00 df 71 e8 37 3c 8a d2 b9 95 b3 b1 b8
       0.0 2.770958e-05 -0.00040157314 -8.4734675e-05
000330 00 00 00 00 7d cc d1 37 f9 de a5 31 ab f6 e5 37
       0.0 2.5009964e-05 4.827481e-09 2.7413791e-05
000340 d0 e1 f9 b9 48 ae 93 b7 00 00 00 00 00 00 00 00
       -0.00047661224 -1.7604922e-05 0.0 0.0
000350 7c 08 24 b7 00 00 00 00 97 60 03 37 ef cf f8 b9
       -9.777137e-06 0.0 7.8306975e-06 -0.0004745717
000360 89 ff 37 b8 00 00 00 00 bb b4 93 37 d6 2c 95 b1
       -4.3868586e-05 0.0 1.7607925e-05 -4.341568e-09
000370 50 25 c6 36 30 cb 74 b9 72 6c 08 b7 00 00 00 00
       5.9052036e-06 -0.00023345347 -8.131481e-06 0.0
000380 00 00 00 00 8f 34 00 b7 00 00 00 00 85 df 03 35
       0.0 -7.641632e-06 0.0 4.9126567e-07
000390 32 40 99 b9 ef 06 f9 b6 00 00 00 00 3f 72 08 37
       -0.00029230263 -7.4215855e-06 0.0 8.132832e-06
0003a0 84 12 8a b2 d4 05 5f b4 eb 78 09 3a 1f be 58 37
       -1.6073734e-08 -2.0770614e-07 0.00052441534 1.2918869e-05
0003b0 00 00 00 00 00 00 00 00 86 15 95 b7 00 00 00 00
       0.0 0.0 -1.7772207e-05 0.0
0003c0 ec bc 00 b8 2d 8f 02 b8 c3 2c b3 38 00 00 00 00
       -3.0693525e-05 -3.1127758e-05 8.543723e-05 0.0
0003d0 1b c9 58 b7 31 20 f9 31 60 26 5a b7 88 7d a5 b7
       -1.2921427e-05 7.2505135e-09 -1.3002747e-05 -1.9727988e-05
0003e0 41 29 d3 b5 00 00 00 00 00 00 00 00 bd 77 25 b7
       -1.5732732e-06 0.0 0.0 -9.862645e-06
0003f0 00 00 00 00 a2 11 0b b7 91 f7 1c b9 9e 8b 99 37
       0.0 -8.289151e-06 -0.00014969545 1.8304036e-05

exp_avg_sq f4 [128, 13]
000000 67 06 b4 31 dc 33 da 2d 00 00 00 00 00 00 00 00
       5.2394173e-09 2.480676e-11 0.0 0.0
000010 1c d5 88 2c 00 00 00 00 75 f6 ac 2d 98 af b5 31
       3.8890124e-12 0.0 1.9663585e-11 5.287756e-09
000020 87 65 03 2f 00 00 00 00 97 3f da 2d db 68 3f 27
       1.195045e-10 0.0 2.481197e-11 2.6563417e-15
000030 05 49 ae 2d 43 b3 29 35 c5 10 8e 30 00 00 00 00
       1.9813937e-11 6.3218266e-07 1.0336626e-09 0.0
000040 00 00 00 00 a6 15 a8 2d 00 00 00 00 a7 0a 8b 30
       0.0 1.9109003e-11 0.0 1.0116609e-09
000050 50 b1 7a 34 c1 2e 9f 31 00 00 00 00 42 1f 8e 30
       2.334757e-07 4.6328243e-09 0.0 1.0340744e-09
000060 1c 3c 3a 2b 34 87 50 30 c1 1f 20 34 ee 55 ec 2f
       6.6163893e-13 7.5862094e-10 1.4912713e-07 4.2989207e-10
000070 00 00 00 00 00 00 00 00 0e c0 b3 2c 00 00 00 00
       0.0 0.0 5.1088083e-12 0.0
000080 f4 f7 ea 2f 46 95 65 33 11 19 16 31 00 00 00 00
       4.2740533e-10 5.345398e-08 2.1842121e-09 0.0
000090 2a 75 ec 2f f3 79 48 2a 80 6d e3 2f 4b 7e 92 2d
       4.30114e-10 1.7805878e-13 4.1368864e-10 1.6654364e-11
0000a0 51 ee a8 2a 00 00 00 00 00 00 00 00 2a 32 87 27
       3.000816e-13 0.0 0.0 3.7524415e-15
0000b0 00 00 00 00 1c 3b a3 2a 80 fa e7 2c e8 88 80 2b
       0.0 2.8995632e-13 6.593226e-12 9.132946e-13
0000c0 00 00 00 00 d7 fa a8 2a ce 8f 41 29 88 fa a9 2a
       0.0 3.001685e-13 4.297934e-14 3.0194272e-13
0000d0 c8 b8 ac 35 22 c0 ce 30 00 00 00 00 00 00 00 00
       1.2868777e-06 1.504308e-09 0.0 0.0
0000e0 f5 10 b9 30 00 00 00 00 74 eb 6a 2f 26 61 08 36
       1.3465341e-09 0.0 2.1365826e-10 2.0322127e-06
0000f0 a5 09 c1 31 00 00 00 00 6d d1 ce 30 7b 2f 21 2c
       5.6181357e-09 0.0 1.5047995e-09 2.2905833e-12
000100 94 d9 8d 30 82 2a 08 38 0e 8f 7c 33 00 00 00 00
       1.032094e-09 3.2464515e-05 5.880343e-08 0.0
000110 00 00 00 00 a9 69 14 32 00 00 00 00 12 4d 49 33
       0.0 8.638758e-09 0.0 4.6869054e-08
000120 b0 57 b4 37 1f ee 93 34 00 00 00 00 5f a7 7c 33
       2.1498505e-05 2.755414e-07 0.0 5.8825545e-08
000130 19 62 04 2e 42 79 46 33 be 0d d4 35 31 6a 69 31
       3.0100453e-11 4.621075e-08 1.579923e-06 3.3966325e-09
000140 00 00 00 00 00 00 00 00 2e 23 08 2a 00 00 00 00
       0.0 0.0 1.2091432e-13 0.0
000150 9e 98 69 31 79 01 6f 34 2f c2 8b 32 00 00 00 00
       3.3992715e-09 2.2259145e-07 1.6270034e-08 0.0
000160 8d 6b 69 31 a2 4c e4 2b dd d0 ce 30 8f 96 ba 37
       3.3967098e-09 1.6221644e-12 1.5047835e-09 2.2243037e-05
000170 7c 84 2b 33 00 00 00 00 00 00 00 00 27 2a 13 32
       3.9934534e-08 0.0 0.0 8.5661105e-09
000180 00 00 00 00 4e f5 f8 32 f8 b6 8e 37 0f 30 42 34
       0.0 2.8982551e-08 1.701292e-05 1.8085142e-07
000190 00 00 00 00 a5 94 2b 33 ac 72 89 2e 2d a5 05 33
       0.0 3.994923e-08 6.2504085e-11 3.1116702e-08
0001a0 a8 dc 92 30 21 ee 2d 2d 00 00 00 00 00 00 00 00
       1.0685612e-09 9.886787e-12 0.0 0.0
0001b0 39 42 07 2d 00 00 00 00 8d e3 a8 2b 44 08 90 31
       7.688566e-12 0.0 1.2000276e-12 4.1918913e-09
0001c0 e0 e1 3f 2e 00 00 00 00 29 fb 2d 2d dc a8 32 29
       4.362899e-11 0.0 9.88968e-12 3.9670402e-14
0001d0 22 8d c1 2c b8 b2 90 37 84 35 01 33 00 00 00 00
       5.501059e-12 1.724936e-05 3.0083825e-08 0.0
0001e0 00 00 00 00 6e e5 3f 31 00 00 00 00 5e fd e5 32
       0.0 2.7924574e-09 0.0 2.6774327e-08
0001f0 c0 36 29 37 55 3d 1b 34 00 00 00 00 49 4c 01 33
       1.0085932e-05 1.4457812e-07 0.0 3.0104534e-08
000200 a1 be 32 2d 4d 55 eb 32 aa d7 ce 33 e7 3b 5c 30
       1.0160457e-11 2.7396391e-08 9.6318516e-08 8.012066e-10
000210 00 00 00 00 00 00 00 00 e4 b6 c7 2e 00 00 00 00
       0.0 0.0 9.08196e-11 0.0
000220 5d 85 29 30 04 00 54 33 2b 9d 34 31 00 00 00 00
       6.167136e-10 4.936011e-08 2.6282787e-09 0.0
000230 f1 48 5c 30 9e 35 80 2e bb 5f 59 30 93 83 54 36
       8.013919e-10 5.8302904e-11 7.908018e-10 3.1667048e-06
000240 c0 60 c8 31 00 00 00 00 00 00 00 00 dc 1f 8f 2f
       5.8317653e-09 0.0 0.0 2.6034186e-10
000250 00 00 00 00 2d 4b c0 31 a3 97 c1 35 bc e8 f2 32
       0.0 5.596482e-09 1.4423753e-06 2.8278343e-08
000260 00 00 00 00 17 7c c8 31 06 27 27 2b db a9 a9 31
       0.0 5.8348735e-09 5.9384474e-13 4.9378577e-09
000270 c4 a1 b9 31 43 35 25 2e 00 00 00 00 00 00 00 00
       5.4025993e-09 3.7563962e-11 0.0 0.0
000280 a3 71 a5 2d 00 00 00 00 f9 a0 89 2d 3f 4e 55 32
       1.8808793e-11 0.0 1.5646583e-11 1.2416023e-08
000290 80 8e 24 2f 00 00 00 00 31 41 25 2e 06 f2 c3 2a
       1.4966339e-10 0.0 3.7574558e-11 3.4806896e-13
0002a0 2d 42 fa 2d b9 09 9b 35 e9 6b 14 31 00 00 00 00
       2.8451097e-11 1.155123e-06 2.1598174e-09 0.0
0002b0 00 00 00 00 c7 91 11 30 00 00 00 00 39 d0 dd 30
       0.0 5.2957855e-10 0.0 1.6139047e-09
0002c0 9a 37 81 35 a1 87 14 32 00 00 00 00 ac 72 14 31
       9.627431e-07 8.645572e-09 0.0 2.1602018e-09
0002d0 d0 72 3d 2e 58 4a f6 30 12 8b cb 37 9c 36 42 33
       4.30756e-11 1.7919985e-09 2.4264245e-05 4.5218812e-08
0002e0 00 00 00 00 00 00 00 00 c9 28 3b 32 00 00 00 00
       0.0 0.0 1.0894106e-08 0.0
0002f0 c4 10 04 33 2d d7 aa 37 40 5d 56 34 00 00 00 00
       3.0748893e-08 2.0365778e-05 1.9964227e-07 0.0
000300 36 47 42 33 18 06 89 2e 93 3f 13 33 47 e0 33 37
       4.523391e-08 6.231121e-11 3.4283925e-08 1.072145e-05
000310 a5 ea 94 32 00 00 00 00 00 00 00 00 b3 d7 87 31
       1.7336172e-08 0.0 0.0 3.9535393e-09
000320 00 00 00 00 8d 76 5f 32 3b 05 0e 37 47 ed aa 33
       0.0 1.3007264e-08 8.465077e-06 7.9594024e-08
000330 00 00 00 00 ab f8 94 32 30 b4 e7 2d ff ec 7a 32
       0.0 1.7342549e-08 2.6341679e-11 1.4605802e-08
000340 5b b6 3f 36 b1 c1 b7 31 00 00 00 00 00 00 00 00
       2.8567363e-06 5.348021e-09 0.0 0.0
000350 ff 02 5b 2f 00 00 00 00 7e 8e ad 31 bb 46 ad 35
       1.9918998e-10 0.0 5.051162e-09 1.291009e-06
000360 07 1a dc 32 00 00 00 00 59 e4 b7 31 bc c3 27 2c
       2.5623207e-08 0.0 5.351961e-09 2.3840782e-12
000370 f5 bb a2 31 66 91 d3 35 45 4a 52 31 00 00 00 00
       4.7361888e-09 1.5763042e-06 3.060124e-09 0.0
000380 00 00 00 00 df 78 50 30 00 00 00 00 26 dd 29 31
       0.0 7.584173e-10 0.0 2.4718445e-09
000390 85 8c 99 35 53 56 74 32 00 00 00 00 f3 63 52 31
       1.1440285e-06 1.4222297e-08 0.0 3.0615837e-09
0003a0 e1 d9 9e 2d 31 07 e7 30 70 86 d8 36 c3 89 2e 32
       1.8059278e-11 1.6809506e-09 6.452952e-06 1.0159456e-08
0003b0 00 00 00 00 00 00 00 00 43 56 b3 31 00 00 00 00
       0.0 0.0 5.2193925e-09 0.0
0003c0 a7 5e 98 31 e0 ec 01 37 61 23 39 33 00 00 00 00
       4.434543e-09 7.744151e-06 4.3105846e-08 0.0
0003d0 89 97 2e 32 5a 95 1e 2c 79 af ed 31 1d 67 95 35
       1.0162588e-08 2.2536057e-12 6.9175567e-09 1.1131375e-06
0003e0 88 73 ea 30 00 00 00 00 00 00 00 00 58 af 28 30
       1.7058577e-09 0.0 0.0 6.136722e-10
0003f0 00 00 00 00 a8 e0 a1 30 dd 8d 85 35 83 2d f2 31
       0.0 1.1778143e-09 9.95056e-07 7.048301e-09

exp_avg f4 [128]
000000 d0 03 1e 34 ae 98 2f 37 f6 d0 5b 37 ce c3 bb 32
       1.4716284e-07 1.0466361e-05 1.310207e-05 2.1858707e-08
000010 d3 8e 47 b6 db 19 00 38 af 8d 0d b6 2b 73 03 38
       -2.9736445e-06 3.0541658e-05 -2.1093108e-06 3.1340092e-05
000020 50 e2 af 33 4e 62 21 b8 73 a8 42 b6 72 47 0e 36
       8.1902385e-08 -3.8476945e-05 -2.9006303e-06 2.1201236e-06
000030 44 bc a2 35 39 82 45 36 81 fc a5 b7 1e cc d1 37
       1.2124733e-06 2.9431087e-06 -1.9787114e-05 2.5009791e-05
000040 71 b4 93 37 3a 72 08 37 92 c8 58 b7 a1 30 d3 35
       1.760779e-05 8.132827e-06 -1.2921302e-05 1.5734878e-06
000050 25 49 60 38 41 d6 24 37 0d e5 c6 35 97 de 9b b7
       5.3473883e-05 9.825047e-06 1.4818812e-06 -1.8581091e-05
000060 fa be b2 35 be 1b ae b7 a0 11 b8 b7 be 17 c5 35
       1.3317615e-06 -2.0755335e-05 -2.1942717e-05 1.4684554e-06
000070 d4 16 21 38 c1 37 5f b5 bb 1b b8 37 ca 01 39 b4
       3.840665e-05 -8.3155106e-07 2.1947422e-05 -1.7230118e-07
000080 9a 66 2a b2 5d 82 a0 35 5c 68 a2 b6 6e 02 82 34
       -9.918631e-09 1.195887e-06 -4.8401253e-06 2.4216155e-07
000090 71 69 3e b5 ce 0f c6 36 cc 34 c1 b7 48 58 32 b7
       -7.0933953e-07 5.9026997e-06 -2.3031978e-05 -1.0630181e-05
0000a0 32 3d 0e 38 5b 9b 6f b3 94 3a 41 b7 2c 2f 9b b7
       3.391243e-05 -5.578782e-08 -1.1517335e-05 -1.8499406e-05
0000b0 14 73 54 36 24 d7 ba 37 50 da a2 37 6c 93 18 37
       3.1657446e-06 2.227311e-05 1.9413565e-05 9.09423e-06
0000c0 57 4e 0e b4 e4 98 f3 31 06 84 17 35 14 54 41 b6
       -1.325328e-07 7.0896125e-09 5.6444003e-07 -2.880818e-06
0000d0 09 e2 f1 36 36 26 e1 b6 62 fe e6 37 42 89 00 38
       7.2086737e-06 -6.709971e-06 2.7536593e-05 3.064541e-05
0000e0 f1 ad 52 b7 7a 9f c4 b7 bc 22 4a b4 85 02 d2 33
       -1.2557474e-05 -2.3439283e-05 -1.8825352e-07 9.779345e-08
0000f0 c2 48 55 b3 73 8f 7d 36 c0 60 3d b7 7d 08 f0 36
       -4.96591e-08 3.7783436e-06 -1.1287804e-05 7.1535455e-06
000100 c0 f6 50 35 9d 66 93 b7 f1 a0 84 36 77 76 e7 36
       7.7845107e-07 -1.7571549e-05 3.9526426e-06 6.8981276e-06
000110 26 01 b3 b7 1f 6c 2a b6 cc d1 07 b8 d1 a0 2c 34
       -2.1338998e-05 -2.5394909e-06 -3.2381897e-05 1.6077253e-07
000120 0c 43 9b 33 0d 0c 83 37 41 df 93 37 03 c9 94 36
       7.229946e-08 1.5622029e-05 1.7627726e-05 4.4341446e-06
000130 24 5a c9 b7 4d 66 73 37 08 d6 ed b6 db a2 be b7
       -2.4003042e-05 1.4507747e-05 -7.088067e-06 -2.27256e-05
000140 5c cb 09 34 65 95 12 37 0b e7 b8 b7 90 44 4c b6
       1.2833101e-07 8.737062e-06 -2.2042097e-05 -3.0438277e-06
000150 c2 92 9e b4 f3 5d be 33 96 22 00 b1 1c 7a 54 b5
       -2.9536574e-07 8.864654e-08 -1.8646111e-09 -7.9153847e-07
000160 70 81 08 b7 74 ef fb b6 b0 1d af 36 92 6c 24 37
       -8.136369e-06 -7.508259e-06 5.2188625e-06 9.80044e-06
000170 b5 ea 95 b4 25 31 fd 36 10 4e 1c 38 ba c9 5a 36
       -2.7924185e-07 7.5457087e-06 3.7266e-05 3.2601952e-06
000180 a1 71 17 37 8d 56 95 b6 ef 10 50 b5 00 68 c5 36
       9.026758e-06 -4.450622e-06 -7.751068e-07 5.8831647e-06
000190 72 99 fa b7 92 23 5e 37 49 8d a0 37 e1 1a e9 33
       -2.9873776e-05 1.3240513e-05 1.9139277e-05 1.0854797e-07
0001a0 85 c2 ab 34 40 35 c1 37 3c c6 13 b3 3b 19 88 35
       3.1992764e-07 2.303219e-05 -3.4406398e-08 1.0140133e-06
0001b0 65 3c 0c b6 89 52 d0 37 b5 58 06 38 2b 9f d0 b6
       -2.089678e-06 2.4833966e-05 3.2030704e-05 -6.2174126e-06
0001c0 e7 93 b8 b5 4b c0 72 b5 ca cf 3a 36 8b 53 85 35
       -1.3752114e-06 -9.043185e-07 2.783711e-06 9.933586e-07
0001d0 35 0c 04 b8 df 1e 6e b7 9b f5 b5 b3 1d 8d d8 b3
       -3.148262e-05 -1.4193093e-05 -8.473145e-08 -1.0083952e-07
0001e0 a5 77 09 36 aa 76 74 b4 77 7f 38 37 bc 34 72 36
       2.0484233e-06 -2.276744e-07 1.0996932e-05 3.6091506e-06
0001f0 b3 0a 21 38 48 85 1a 37 ab f7 00 37 9e 62 7e b7
       3.8395356e-05 9.210147e-06 7.687059e-06 -1.5162541e-05
