src/CyberHero/Assets/results/MidBossTrain2/MidBossAgent/MidBossAgent-7811.pt (torch, 466674 bytes, 37 tensors)

discrete_act_size_vector f4 [1, 2]
2.0 1.0
00000000: 0000 0040 0000 803f

network_body._body_endoder.seq_layers.0.weight f4 [128, 13]
0.0712459 -0.23038407 -0.053409647 -0.35668278 0.5394718 0.36722407 -0.18512988 0.000787991
-0.30994692 -0.05040832 -0.55378884 -0.051421843 -0.16037118 -0.1596823 0.10988985 -0.04120215
-0.19968718 0.21301275 -0.07222946 -0.099228404 0.19156015 0.4370907 0.11115701 0.12783441
0.20571612 0.27681413 0.0103539815 0.07324546 -0.039446138 0.2146336 -0.076069586 -0.11469755
-0.2382052 0.263669 -0.54834753 -0.36738104 -0.095806465 0.11520744 0.13840526 0.45282367
-0.08144439 -0.17559578 -0.12857391 -0.0122224605 0.14976253 -0.10144818 0.5956855 0.14016928
0.11785905 0.24485601 0.072926804 0.20661062 0.06449842 0.2658864 0.3614259 0.22398928
-0.24294612 0.07435469 0.26788428 -0.10735229 0.5766356 0.49447587 0.06498032 -0.2530226
-0.3241206 -0.08655065 -0.26572928 -0.4277227 -0.0020400323 -0.10459836 0.13231263 -0.03475665
-0.15952137 -0.47311395 -0.2554502 0.039238248 -0.1583683 -0.21490456 -0.34352705 0.38495246
0.07600497 0.15470278 -0.01028752 0.52739054 0.30842894 0.5650605 0.40275732 -0.13964543
0.36976463 -0.07959887 0.26923764 -0.018099837 0.16090983 0.1852438 0.40214908 -0.1839057
0.1022385 -0.4242485 -0.17846754 -0.1522823 0.53906214 0.16589296 0.2820062 0.16319866
0.5013747 0.17949842 0.055061135 -0.1775032 0.068160824 -0.53132045 -0.1765476 -0.10712478
-0.10695572 0.13949944 0.053704776 -0.012468932 0.2917956 0.022624854 -0.24401483 0.22867459
-0.104020044 0.04631663 0.11978365 0.078030705 -0.23367804 0.24239723 0.27218467 -0.20918474
0.32970834 -0.06251898 0.002287191 0.056584198 0.1506944 0.32880828 -0.24706584 -0.75218785
0.09705401 0.14157629 0.13252349 0.22630145 0.22433679 0.7603934 0.7534514 -0.28166294
-0.105579324 -0.057935543 0.047152255 -0.051247086 0.24547035 -0.83696926 -0.6888872 -0.36474767
-0.7097809 0.100479856 -0.18792033 -0.14379342 0.3280443 -0.0864987 -0.19671708 -0.41678265
-0.14971842 -0.14139731 -0.13433291 -0.054991502 0.06541852 -0.27625483 -0.08116414 -0.3221874
0.15560906 0.2973077 0.07213165 0.15173794 -0.068350494 -0.06836304 0.06943505 -0.32921296
-0.8812397 0.05952231 0.7752983 0.6145055 0.19394146 -0.07729459 -0.30285335 -0.03314498
-0.12035132 -0.09589221 -0.26796627 0.45293358 0.1393947 -0.19539662 0.0030325921 -0.04979525
0.4872498 0.033622626 0.39866084 -0.13620032 -0.056977965 0.409374 -0.19636136 -0.083155766
0.52091104 0.30151358 -0.18267131 -0.50853926 -0.006744119 -0.21358825 -0.2297522 -0.14871997
-0.40127307 0.35280156 0.31341848 0.5910303 0.02903488 -0.057846833 -0.113484286 -0.14559866
-0.20291899 0.2799845 -0.433145 0.35244855 -0.040524796 -0.13855243 0.11257053 0.030490022
-0.116722666 0.035352994 -0.14393064 -0.19838722 -0.3048029 0.19851264 0.22594912 -0.21113265
0.07186848 0.45008868 -0.045560606 -0.34485534 -0.52219325 0.20904323 -0.024323782 -0.22889788
0.2370304 -0.049661607 0.21379223 0.33931875 -0.10328926 -0.06708985 -0.1525116 -0.3630127
-0.2067629 -0.039187174 -0.33333683 0.5857729 0.12681906 -0.25758797 -0.19642618 -0.38127288
00000000: 5fe9 913d cde9 6bbe 13c4 5abd 209f b6be
00000010: d31a 0a3f cb04 bc3e b092 3dbe 2e91 4e3a
00000020: 5db1 9ebe f478 4ebd 1bc5 0dbf b69f 52bd
00000030: 5838 24be c283 23be ee0d e13d 96c3 28bd
00000040: cc7a 4cbe 0420 5a3e 0aed 93bd 4338 cbbd
00000050: 5828 443e 5aca df3e 49a6 e33d 06e7 023e
00000060: 3fa7 523e 95ba 8d3e bfa3 293c b701 963d
00000070: 4692 21bd e9c8 5b3e 5fca 9bbd 8de6 eabd
00000080: 10ec 73be a0ff 863e 8160 0cbf 5e19 bcbe
00000090: 2e36 c4bd e1f1 eb3d 1cba 0d3e 81d8 e73e
000000a0: 51cc a6bd 61cf 33be e1a8 03be b740 48bc
000000b0: 595b 193e 10c4 cfbd d87e 183f 8988 0f3e
000000c0: 1660 f13d 89bb 7a3e a65a 953d bc91 533e
000000d0: bf17 843d 4322 883e d10c b93e 725d 653e
000000e0: dec6 78be 4647 983d 2128 893e 84db dbbd
000000f0: 649e 133f f12b fd3e 6714 853d 2e8c 81be
00000100: 23f3 a5be 7841 b1bd ab0d 88be 78fe dabe
00000110: 10b2 05bb aa37 d6bd f67c 073e fd5c 0ebd
00000120: 9259 23be fe3b f2be 5eca 82be 49b8 203d
00000130: 4d2b 22be f10f 5cbe c7e2 afbe 7d18 c53e
00000140: 7ea8 9b3d 686a 1e3e fc8c 28bc 1103 073f
00000150: 66ea 9d3e cea7 103f 3536 ce3e 36ff 0ebe
00000160: ca51 bd3e bb04 a3bd 84d9 893e 1c46 94bc
00000170: 8cc5 243e 8db0 3d3e 7ce6 cd3e c751 3cbe
00000180: 6b62 d13d 1937 d9be 32c0 36be e4ef 1bbe
00000190: faff 093f d8df 293e 1e63 903e 8d1d 273e
000001a0: 185a 003f 6fce 373e c987 613d 66c3 35be
000001b0: e797 8b3d 9e04 08bf e5c8 34be 3d64 dbbd
000001c0: 9a0b dbbd f1d8 0e3e 8af9 5b3d 7e4a 4cbc
000001d0: 3c66 953e c257 b93c 06df 79be ac29 6a3e
000001e0: 7608 d5bd 82b6 3d3d 2151 f53d 90ce 9f3d
000001f0: 4c49 6fbe fb36 783e ca5b 8b3e 8634 56be
00000200: 88cf a83e f309 80bd b3e4 153b d5c4 673d
00000210: a24f 1a3e 8f59 a83e d4fe 7cbe 628f 40bf
00000220: 41c4 c63d 60f9 103e 3db4 073e 91bb 673e
00000230: 8bb8 653e 24a9 423f 31e2 403f 2036 90be
00000240: f939 d8bd d24d 6dbd b922 413d 77e8 51bd
00000250: 945c 7b3e 9e43 56bf e95a 30bf 35c0 babe
00000260: 33b4 35bf 62c8 cd3d 306e 40be 953e 13be
00000270: 6cf5 a73e 3b26 b1bd 3470 49be 8964 d5be
00000280: c94f 19be 75ca 10be 918e 09be c53e 61bd
00000290: 25fa 853d 4671 8dbe 6239 a6bd bff5 a4be
000002a0: fb57 1f3e b738 983e c2b9 933d 3161 1b3e
000002b0: 58fb 8bbd ec01 8cbd f733 8e3d 9a8e a8be
000002c0: ed98 61bf aacd 733d f379 463f 3c50 1d3f
000002d0: 9798 463e a04c 9ebd 980f 9bbe 08c3 07bd
000002e0: c17a f6bd 2363 c4bd e032 89be e9e6 e73e
000002f0: 7cbd 0e3e 0d16 48be 74be 463b 1bf6 4bbd
00000300: ce78 f93e e1b7 093d 461d cc3e 1978 0bbe
00000310: ba61 69bd 7899 d13e f412 49be 924d aabd
00000320: 6d5a 053f fd5f 9a3e 300e 3bbe a12f 02bf
00000330: c5fd dcbb e1b6 5abe 2944 6bbe 0c4a 18be
00000340: aa73 cdbe 68a2 b43e 6378 a03e c34d 173f
00000350: 8fda ed3c cdf0 6cbd 736a e8bd d117 15be
00000360: ffc9 4fbe 215a 8f3e 2ec5 ddbe 2374 b43e
00000370: 54fd 25bd b0e0 0dbe 618b e63d 36c6 f93c
00000380: 4b0c efbd 4dce 103d 8e62 13be 0526 4bbe
00000390: 200f 9cbe e646 4b3e 355f 673e 2833 58be
000003a0: c82f 933d 0672 e63e c29d 3abd e190 b0be
000003b0: 75ae 05bf 6e0f 563e ab42 c7bc 3564 6abe
000003c0: 19b8 723e f869 4bbd 5aec 5a3e 30bb ad3e
000003d0: 5289 d3bd 6766 89bd 002c 1cbe cddc b9be
000003e0: a7b9 53be bb82 20bd 20ab aabe 36f5 153f
000003f0: dbdc 013e 92e2 83be f223 49be 3336 c3be

network_body._body_endoder.seq_layers.0.bias f4 [128]
-0.0068146363 0.0015953552 0.011926519 0.00851518 -0.0117441015 0.00026084023 -0.0003560227 0.0029586612
0.0013860684 -0.0051742513 0.0020889495 -0.00081556186 -0.00403191 -0.0083158715 -0.0024487218 -0.0051274975
-0.0072107096 -0.00087705324 -0.0057278867 -0.0016501584 0.0030347668 0.0071096695 -0.0061896825 -0.0011804898
-0.00016905517 -0.0040892963 -0.0060238536 0.00274524 0.0039395434 -0.0036937615 -0.00028745702 0.004466272
0.0012897032 -0.00014184248 -0.0039977217 -0.0023771517 0.0014523293 0.0029884041 -0.003589377 0.0074834623
0.0018127867 0.0015982279 -0.0005898404 -0.009458474 -5.1948336e-05 -0.0052156798 -0.00066264166 0.0024227626
-0.01108228 -0.005334328 0.008674453 0.008672041 -0.0009919134 -0.004478262 0.00060174847 0.0009508983
-0.00457558 -0.0003430217 -0.0009859959 0.008072199 0.003762116 -0.0012880679 0.0020232487 -0.003114712
0.0016235259 -0.0042848727 -0.0022127486 -0.00026602924 -0.0025006107 0.00018946525 -0.0028523088 -0.0045894715
0.009193334 -0.00093533954 0.0015012372 -0.00787768 -0.0020395347 -0.00015463188 -0.0035355687 -0.0024075524
-0.0048354724 -0.0006794241 -0.0041188644 -0.0034664907 0.013368767 -0.0001485596 0.0052088755 0.0027763299
0.005787984 -0.0026210835 0.0026400278 0.00016331978 -0.0012230548 0.002377976 0.0019067989 0.003793834
-0.007439993 -0.0037204637 0.0015605607 0.00034433661 -0.003924293 0.0012802447 -0.004956336 0.0047148317
-0.0009324667 0.00021429028 -0.007552591 0.0019533765 -0.0015862526 -0.0017833967 0.00049172697 -0.004262085
-0.0023116157 -0.0054377057 -0.0007832691 0.0049140193 -0.0021047734 0.0016802736 -0.004882744 0.0034773778
-0.0007984902 -0.0032260926 0.005112891 -0.00057500444 0.0004830289 0.0003814209 0.0012729566 -0.0069826
00000000: 504d dfbb 3d1b d13a 7267 433c 4183 0b3c
00000010: 556a 40bc 62c1 8839 8fa8 bab9 19e6 413b
00000020: bdac b53a c48c a9bb c2e6 083b 6ecb 55ba
00000030: 1d1e 84bb 4b3f 08bc bc7a 20bb 9104 a8bb
00000040: d147 ecbb 0cea 65ba ffb0 bbbb 214a d8ba
00000050: f0e2 463b 3bf8 e83b d2d2 cabb aaba 9aba
00000060: 6744 31b9 81ff 85bb bf63 c5bb 7ce9 333b
00000070: 4917 813b 0913 72bb d4b5 96b9 ce59 923b
00000080: 420b a93a 8dbb 14b9 52ff 82bb fdc9 1bbb
00000090: 165c be3a 1ad9 433b c13b 6bbb d537 f53b
000000a0: 079b ed3a a17b d13a 859f 1aba b7f7 1abc
000000b0: 1ae3 59b8 4be8 aabb 21b5 2dba 36c7 1e3b
000000c0: 7492 35bc 96cb aebb 4b1f 0e3c 2d15 0e3c
000000d0: 1703 82ba 62be 92bb a8be 1d3a b445 793a
000000e0: bfee 95bb 98d7 b3b9 883c 81ba 4241 043c
000000f0: d58d 763b 63d4 a8ba 7b98 043b 3220 4cbb
00000100: 7dcc d43a 1e68 8cbb c303 11bb d779 8bb9
00000110: 49e1 23bb 31ab 4639 cded 3abb 4763 96bb
00000120: a39f 163c 9331 75ba 29c5 c43a 6211 01bc
00000130: b7a9 05bb ae24 22b9 00b5 67bb 07c8 1dbb
00000140: e272 9ebb 611b 32ba 8af7 86bb 102e 63bb
00000150: ac08 5b3c aac6 1bb9 37af aa3b 16f3 353b
00000160: 21a9 bd3b 7cc6 2bbb 5104 2d3b d240 2b39
00000170: e94e a0ba d1d7 1b3b 8eed f93a f9a1 783b
00000180: 2fcb f3bb 06d3 73bb ba8b cc3a 1488 b439
00000190: 5b97 80bb e2cd a73a c368 a2bb e07e 9a3b
000001a0: c870 74ba 1cb3 6039 ba7b f7bb 3804 003b
000001b0: cee9 cfba ddc0 e9ba 3de7 003a f6a8 8bbb
000001c0: 7a7e 17bb c82e b2bb 4d54 4dba c805 a13b
000001d0: 3df0 09bb a03c dc3a 6dff 9fbb b8e4 633b
000001e0: c551 51ba da6c 53bb 0a8a a73b e5bb 16ba
000001f0: 0b3f fd39 72f9 c739 56d9 a63a 4bce e4bb

network_body._body_endoder.seq_layers.2.weight f4 [128, 128]
0.10310034 0.020428028 -0.0032889135 0.1514768 0.12264149 -0.089806914 0.014532665 -0.024273682
0.13497095 0.11043507 -0.14338161 0.0972285 -0.08425796 0.017706737 -0.16599163 -0.20789921
-0.07281018 -0.033748984 0.03421646 0.18606938 0.03769904 -0.056029912 -0.04277802 -0.028867364
0.0435306 -0.051006336 -0.043989908 0.019896645 -0.05812263 0.05203984 -0.14267327 0.051685184
-0.027184425 -0.06467163 0.15923059 -0.04738544 -0.07929975 0.068263896 0.10889716 0.09548042
-0.24809612 -0.06440432 -0.06880934 0.060734924 0.0967703 0.20690426 -0.115800895 0.02372959
-0.11270362 -0.102580674 0.12163062 -0.0314468 0.19799085 0.19061443 0.059841763 0.001086383
-0.04736882 0.05419356 0.11574897 0.008662229 0.032930486 -0.05325427 -0.022111582 -0.0027589854
0.12913652 0.13163556 0.013583232 0.1674491 -0.011381401 -0.11669328 -0.098216355 0.13179037
0.05144204 -0.023687273 -0.18705224 -0.005079576 -0.024087712 -0.024020616 0.013262914 -0.15986088
0.090072796 -0.024717702 -0.04161975 -0.09035776 0.059241205 -0.0346346 0.18740638 -0.083118185
0.02937549 -0.04622616 -0.03987196 0.025365528 -0.061834954 -0.050298747 0.032095928 -0.24503931
0.11610857 -0.07564252 0.0632453 -0.27788725 -0.14207262 0.08659641 -0.027069503 -0.012862553
0.047233198 -0.02590983 -0.053022854 -0.16512115 0.0059664384 -0.044908073 -0.10242905 0.2053095
0.02165081 -0.10713118 -0.028308753 -0.09060221 -0.027269525 -0.045405503 -0.19206397 0.19689812
-0.052080665 0.0055343234 0.14800592 -0.13886723 -0.16056086 -0.11643894 -0.012148168 0.08779049
-0.034784306 -0.105471246 -0.048770268 0.037148822 -0.1437256 0.061222382 -0.18907683 -0.016659439
0.12669882 0.01692611 -0.014097379 -0.09410061 -0.06844244 -0.058001336 -0.06004122 -0.050501898
0.09602216 0.050744947 0.18125191 0.0040583634 0.19108798 -0.00017967905 0.092623726 -0.06593986
0.011728602 -0.04021027 0.024921002 0.031410847 -0.029936569 0.0075333645 0.0065179938 0.0117805675
-0.04088716 0.11095827 0.059363738 0.034128573 -0.10663306 0.010951877 -0.08508788 -0.2033296
-0.010945721 0.08430593 -0.15182543 0.012348112 0.045505587 -0.013729214 0.060749866 -0.116646625
0.002003044 0.00393569 -0.05008396 0.055743348 0.14242595 -0.15998536 0.07512825 0.17496637
-0.10041152 -0.0655987 0.08773821 0.0695692 0.08002312 -0.1195063 -0.12639472 0.0761613
0.109759 0.0535213 -0.08778922 -0.04727111 -0.11851841 -0.02613837 -0.010317768 -0.062244374
-0.10776521 0.12147555 0.14739811 0.115418084 0.088003434 -0.03629239 0.04058428 -0.085026175
0.040095627 -0.016592048 -0.008965916 0.07109989 -0.061839096 0.022134472 0.066318914 -0.03494791
-0.06442435 -0.020355588 0.02319463 0.100436665 0.018866135 0.055560812 -0.08174294 -0.11168877
0.0846446 -0.1402204 0.017799554 -0.027301686 0.05357159 0.092461616 -0.068402514 0.016408624
0.01358943 -0.036946353 -0.18687248 -0.052725706 -0.037425064 0.0042893714 -0.017026449 -0.16566403
-0.058001243 0.21539316 -0.021192232 0.06760255 -0.0394323 0.069754906 0.07289755 0.09014861
0.009858563 0.06383126 -0.058047082 0.055943154 0.19590661 0.025381533 0.020465741 0.118618354
00000000: 4526 d33d ae58 a73c d08a 57bb bc1c 1b3e
00000010: 762b fb3d b0ec b7bd 6a1a 6e3c 9ad9 c6bc
00000020: d335 0a3e c82b e23d a1d2 12be bc1f c73d
00000030: 708f acbd b80d 913c b6f9 29be 88e3 54be
00000040: 811d 95bd 603c 0abd 8f26 0c3d f988 3e3e
00000050: 4f6a 1a3d 9f7f 65bd 0138 2fbd 407b ecbc
00000060: 244d 323d 05ec 50bd c32e 34bd 4afe a23c
00000070: ff11 6ebd ba27 553d f118 12be d8b3 533d
00000080: dfb1 debc 8f72 84bd 580d 233e 3c17 42bd
00000090: e867 a2bd f1cd 8b3d 7905 df3d 3d8b c33d
000000a0: e90c 7ebe 6ae6 83bd e9eb 8cbd 2fc5 783d
000000b0: 822f c63d b6de 533e 0529 edbd 8f64 c23c
000000c0: 28d1 e6bd d115 d2bd 7919 f93d 5cce 00bd
000000d0: 1dbe 4a3e 6e30 433e a31c 753d f764 8e3a
000000e0: cf05 42bd 11fa 5d3d cc0d ed3d 06ec 0d3c
000000f0: 1ee2 063d 2621 5abd 5923 b5bc 18d0 34bb
00000100: 5d3c 043e 79cb 063e 348c 5e3c c777 2b3e
00000110: 0e79 3abc e3fc eebd a825 c9bd 0ef4 063e
00000120: e3b4 523d d00b c2bc 9f8a 3fbe 9272 a6bb
00000130: 9853 c5bc e2c6 c4bc b14c 593c 92b2 23be
00000140: 1678 b83d c77c cabc 7979 2abd 7d0d b9bd
00000150: e8a6 723d 03dd 0dbd 75e7 3f3e de39 aabd
00000160: dea4 f03c a457 3dbd c850 23bd 5ecb cf3c
00000170: a646 7dbd 0f06 4ebd 0577 033d 96eb 7abe
00000180: 54ca ed3d 77ea 9abd c086 813d 3d47 8ebe
00000190: 7c7b 11be 7559 b13d ddc0 ddbc 75bd 52bc
000001a0: 9977 413d da40 d4bc 7e2e 59bd 8515 29be
000001b0: 1d82 c33b 87f1 37bd 52c6 d1bd a73c 523e
000001c0: 0a5d b13c 9867 dbbd c2e7 e7bc a78d b9bd
000001d0: 5764 dfbc 1ffb 39bd 6bac 44be a99f 493e
000001e0: 8952 55bd 4559 b53b dd8e 173e 3633 0ebe
000001f0: 116a 24be 8a77 eebd 1c09 47bc 80cb b33d
00000200: fd79 0ebd 4f01 d8bd 55c3 47bd 5d29 183d
00000210: ce2c 13be 52c4 7a3d 5b9d 41be 6079 88bc
00000220: 56bd 013e a0a8 8a3c b1f8 66bc d2b7 c0bd
00000230: 8d2b 8cbd cf92 6dbd c8ed 75bd 14db 4ebd
00000240: 44a7 c43d efd9 4f3d 1a9a 393e 05fc 843b
00000250: 91ac 433e 3a68 3cb9 82b1 bd3d 7a0b 87bd
00000260: 5329 403c 86b3 24bd 2127 cc3c a9a8 003d
00000270: 893d f5bc 71da f63b e594 d53b 4803 413c
00000280: 4b79 27bd 173e e33d 6427 733d 67ca 0b3d
00000290: 6f62 dabd 806f 333c 8e42 aebd a235 50be
000002a0: ae55 33bc 96a8 ac3d 2078 1bbe bc4f 4a3c
000002b0: 1164 3a3d 7ff0 60bc dad4 783d 6de4 eebd
000002c0: 8045 033b f6f6 803b d724 4dbd 2353 643d
000002d0: 1cd8 113e 34d3 23be d7dc 993d 622a 333e
000002e0: 8ea4 cdbd 9c58 86bd 17b0 b33d 4c7a 8e3d
000002f0: 29e3 a33d b8bf f4bd 9e6d 01be 75fa 9b3d
00000300: 54c9 e03d 2739 5b3d d6ca b3bd 5a9f 41bd
00000310: c8b9 f2bd 2320 d6bc db0b 29bc f5f3 7ebd
00000320: 02b4 dcbd 2cc8 f83d 88ef 163e 5160 ec3d
00000330: 253b b43d 54a7 14bd b43b 263d 3422 aebd
00000340: 503b 243d 0cec 87bc c7e5 12bc d29c 913d
00000350: fe4a 7dbd 5a53 b53c 36d2 873d 8a25 0fbd
00000360: eaf0 83bd c3c0 a6bc aa02 be3c bdb1 cd3d
00000370: 278d 9a3c bc93 633d d868 a7bd 15bd e4bd
00000380: 265a ad3d f095 0fbe 5fd0 913c c9a7 dfbc
00000390: e26d 5b3d 845c bd3d 9e16 8cbd 616b 863c
000003a0: 33a6 5e3c 0f55 17bd 805b 3fbe e9f6 57bd
000003b0: 064b 19bd db8d 8c3b 0d7b 8bbc d5a3 29be
000003c0: b692 6dbd 0690 5c3e 559b adbc 3573 8a3d
000003d0: c383 21bd a9db 8e3d 504b 953d d69f b83d
000003e0: cf85 213c f7b9 823d c7c2 6dbd a624 653d
000003f0: be9b 483e efec cf3c c5a7 a73c 2eee f23d

network_body._body_endoder.seq_layers.2.bias f4 [128]
-0.00047478717 0.0018755599 -0.0021721192 -0.0053159385 -0.0011837624 -0.0046540927 -0.0014615793 -0.0041613844
-0.0042684516 -0.00027621796 0.00023761828 0.0013399523 0.007009767 0.0016668944 7.7454744e-05 -0.002855117
0.0030371016 0.0015040429 0.0014278812 -0.0016609784 -0.00032164872 -0.002801828 -0.0046819663 -0.0006498838
0.0006253597 -0.009844618 -0.003177339 0.0003812523 -0.0015365946 0.0010147206 -0.008341208 0.010159947
-0.0025822634 -0.0008087713 -0.007099904 -0.00092292245 -0.0013860523 0.0009153094 0.001274221 0.0020079007
0.0020484836 0.0009924017 0.0009431753 -0.0033527326 0.0014127354 -0.000667446 0.0031510284 -0.004039165
-0.004094561 -0.0073128897 -0.0041118395 -0.0023373384 -0.002227111 0.002866983 -0.0015794403 0.00230651
-4.2878564e-05 -0.0005190559 -0.00128642 0.0018587853 -0.004118651 -0.0023508898 -0.0003708406 0.003889369
-0.0010000484 -0.00517392 0.004137603 0.00029383675 -0.0049219197 -0.004625017 -0.005531752 0.0027946916
-0.007573315 -0.0022974946 0.008153168 -0.0021967553 -0.0017238725 -8.325616e-05 0.0021450473 -0.007161796
-0.0029336296 0.00611758 -0.0030080362 -0.0067078476 -0.00024088228 0.003215766 0.002569255 -0.00022813417
0.0020568739 -0.003487854 0.0026705272 -0.0045217043 0.0010082874 0.0018342717 -0.0007078038 -0.0021465817
0.00095367985 0.003267035 -0.0018557659 -0.007521247 0.0017191935 0.0028905885 -0.00058260496 -0.0037116709
0.010217756 -0.0058451523 0.00062625733 -0.002949676 -0.0014576297 -0.0007835901 0.0007056573 0.007778197
-0.0014617445 0.0045794244 0.0027204447 0.00027078597 -0.0034785136 -0.0013470832 0.003759237 0.0033837555
-0.0013351826 -0.002558008 0.0023675095 -0.0049669486 0.0014284996 0.00086667034 -0.00133022 -0.003776919
00000000: dbec f8b9 59d5 f53a 1d5a 0ebb 5331 aebb
00000010: 7a28 9bba 5c81 98bb 7792 bfba 395c 88bb
00000020: 5ede 8bbb 59d1 90b9 2c29 7939 57a1 af3a
00000030: 30b2 e53b b27b da3a 336f a238 ea1c 3bbb
00000040: 1c0a 473b 4e23 c53a be27 bb3a 30b5 d9ba
00000050: f6a2 a8b9 e09e 37bb 2e6b 99bb f75c 2aba
00000060: 2eef 233a 524b 21bc e73a 50bb d1e2 c739
00000070: 8f67 c9ba 6000 853a 90a9 08bc e875 263c
00000080: 313b 29bb b903 54ba 50a6 e8bb 47f0 71ba
00000090: 33ac b5ba 60f1 6f3a c303 a73a fc96 033b
000000a0: da3f 063b 7a13 823a 6c3f 773a 85b9 5bbb
000000b0: 892b b93a 8bf7 2eba 7c81 4e3b f95a 84bb
000000c0: ab2b 86bb f7a0 efbb 9cbc 86bb 082e 19bb
000000d0: b9f4 11bb fee3 3b3b 3905 cfba d128 173b
000000e0: 82d8 33b8 4011 08ba 189d a8ba 7ca2 f33a
000000f0: c0f5 86bb 6311 1abb 626d c2b9 c9e4 7e3b
00000100: 0e14 83ba fd89 a9bb bb94 873b 1a0e 9a39
00000110: 0e48 a1bb 748d 97bb b343 b5bb 2527 373b
00000120: 9229 f8bb 9091 16bb dd94 053c 70f7 0fbb
00000130: 90f3 e1ba d099 aeb8 ec93 0c3b 80ad eabb
00000140: 2342 40bb fb75 c83b 7922 45bb 81cd dbbb
00000150: 5895 7cb9 9abf 523b f260 283b 4d37 6fb9
00000160: 9ecc 063b 7b94 64bb 0304 2f3b ce2a 94bb
00000170: 8328 843a f26b f03a e98b 39ba aaad 0cbb
00000180: 5f00 7a3a c01b 563b 2c3d f3ba cb74 f6bb
00000190: 9056 e13a 0770 3d3b f5b9 18ba 813f 73bb
000001a0: 6068 273c b188 bfbb 6b2b 243a 5a4f 41bb
000001b0: f00d bfba d769 4dba dcfb 383a 3fe0 fe3b
000001c0: 0298 bfba ff0e 963b 7d49 323b 47f8 8d39
000001d0: c6f7 63bb 9d90 b0ba 885d 763b ffc1 5d3b
000001e0: 4b01 afba 41a4 27bb 3828 1b3b c9c1 a2bb
000001f0: 7e3c bb3a 4331 633a c75a aeba 3086 77bb

action_model._discrete_distribution.branches.0.weight f4 [2, 128]
-0.0010391886 -0.0037333143 -0.000640655 0.0024592392 0.007004178 0.008881753 -0.008486223 0.0034525443
0.006548498 0.0054817507 -0.0034007619 -0.006069127 0.021731043 -0.0050124703 0.007479963 -0.0025095218
0.0011778241 -0.013126882 -0.004386601 -0.0032059455 0.0075100227 0.007666425 0.0009130565 -0.001560594
-0.004594815 0.0010836391 0.007890999 -0.016244177 0.008728736 0.0012405748 -0.004291445 0.004890005
-0.0024856683 -0.00036536297 -0.014812249 0.0051560057 -0.011864666 -0.0055135493 -0.0008032941 0.010149249
-7.088786e-05 -0.0016848487 0.004600043 0.0029361434 -0.015371675 0.007123727 0.0010919655 -0.0013153299
0.00076222484 0.0060243723 0.010806641 0.007416062 -0.012273156 -0.010352907 0.008679364 0.022865957
-0.0020332034 -0.0075037815 0.007571856 -0.011696248 -0.0041469084 -0.0075548654 0.0045477385 0.018424807
-0.0064242813 -0.0027658935 -0.01696011 0.008847267 -0.0042651426 -0.0060232766 0.011154442 0.009610085
-0.0032071273 0.0047059595 0.0036369022 0.0023673554 0.0043697995 0.0010795578 -0.0063924426 -0.0030861674
-0.0075926017 0.004149259 0.0083400775 -0.0076655447 0.0021235638 -0.008290863 0.007336007 -0.008994997
-0.008896096 -0.005731592 -0.005775305 0.0007489199 0.009269678 -0.010919897 -0.0011544012 0.006233933
-0.0034846046 -0.0041238633 0.020820675 2.6967384e-05 -0.007250075 -0.006575006 -0.0054752757 -0.0029813545
0.00023274518 -0.009488438 -0.0030911993 -0.003303398 0.0016015329 -0.009423334 -0.001034801 0.0004002389
-0.009225827 0.005611999 -0.0061898325 0.0068683005 -0.0002557312 -0.019891044 -0.009593781 0.0037115433
-0.0038129096 0.002032079 0.022378702 -0.00371722 -0.015879974 -0.008006978 -0.0044793305 0.011254148
0.006210569 0.012841566 0.001327524 0.0033990152 0.008081592 0.011310727 -0.00321562 -0.00080878695
0.0032330132 -0.002057922 0.00652716 0.002778236 0.0003198189 0.004935629 0.011457431 -0.0026665118
0.0081783915 -0.00693035 0.0093266405 -0.0037408532 0.006783839 -0.0073595094 -5.5781125e-05 -0.0053767245
0.007983727 -8.6897475e-05 -0.0022958596 -0.012607436 0.00078652456 0.008102266 -0.005546767 -0.005161598
0.0066361306 -0.014851778 0.0020408826 -0.011630005 0.01114472 0.010145186 -0.0053342534 -0.016811896
0.005601282 0.014380267 0.022136655 -0.004772111 -0.0019101325 -0.0035899058 0.015179729 0.0007846913
0.0022894272 0.006069001 -0.0067280047 -0.010466733 -0.0086149145 0.003584085 0.009570354 -0.010024486
0.0066545745 6.28565e-05 0.0029745926 -0.002730984 -0.019353462 0.010370355 -0.0018111966 -0.016316319
-0.005476174 -0.014454744 -0.0002622084 -0.014481838 -0.005133574 0.0085663 0.012455007 -0.010359758
-0.0006003305 0.00858165 -0.010388169 0.0060424786 -0.004928563 0.0042156503 -0.024534523 -0.0033902815
0.002244865 -0.024021816 0.008398449 -0.004732966 0.008357766 0.009854654 0.019329794 0.0028253496
0.0013974634 -0.004108202 0.017629884 0.001971389 -0.0028513982 0.0016487564 -0.00046199592 0.00681529
0.0048859203 0.010403329 0.001254692 0.009512538 0.0040899226 0.0119172 0.0055674096 -0.01713254
-0.016728124 -0.0073706512 0.010594972 0.0015737144 0.004655127 -0.010535767 0.0034891579 -0.014248618
-0.026380384 -0.002694982 0.008318826 0.002037186 -0.003577294 0.0035000655 -0.018470107 -0.0057512447
-0.006839865 -0.014388456 -0.0042245644 0.0028928516 0.0040128226 0.008733734 0.005826892 -0.006644866
00000000: 6235 88ba 9faa 74bb a1f1 27ba 302b 213b
00000010: 4e83 e53b c684 113c cd09 0bbc 1544 623b
00000020: c894 d63b 42a0 b33b 51df 5ebb 87df c6bb
00000030: 4d05 b23c a63f a4bb 7a1a f53b ca76 24bb
00000040: 3861 9a3a 2212 57bc 7abd 8fbb d71a 52bb
00000050: a316 f63b a236 fb3b 2f5a 6f3a d88c ccba
00000060: 1a90 96bb e508 8e3a 4049 013c 8212 85bc
00000070: f902 0f3c c89a a23a 409f 8cbb 563c a03b
00000080: 98e6 22bb 308e bfb9 13af 72bc b6f3 a83b
00000090: 0464 42bc 01ab b4bb 2894 52ba 0949 263c
000000a0: a1a9 94b8 24d6 dcba f5bb 963b 506c 403b
000000b0: 7ad9 7bbc 276e e93b 4820 8f3a 2667 acba
000000c0: 0bd0 473a 1968 c53b 560e 313c 7002 f33b
000000d0: 5915 49bc 3d9f 29bc e433 0e3c 6351 bb3c
000000e0: 7e3f 05bb 48e2 f5bb 551d f83b 9fa1 3fbc
000000f0: cae2 87bb ce8e f7bb 3205 953b 9fef 963c
00000100: c782 d2bb fe43 35bb eeef 8abc 21f4 103c
00000110: 9cc2 8bbb e85e c5bb 1fc1 363c 9e73 1d3c
00000120: ab2e 52bb 7334 9a3b 1859 6e3b a225 1b3b
00000130: 8930 8f3b f37f 8d3a b277 d1bb 4c41 4abb
00000140: 5ccb f8bb 82f6 873b d2a4 083c 402f fbbb
00000150: 7d2b 0b3b 66d6 07bc e362 f03b c05f 13bc
00000160: eec0 11bc 14d0 bbbb c53e bdbb 2a53 443a
00000170: d9df 173c 5ee9 32bc 474f 97ba 0546 cc3b
00000180: f75d 64bb 7921 87bb 1f90 aa3c 0438 e237
00000190: 0a92 edbb 2673 d7bb f169 b3bb d462 43bb
000001a0: 0f0d 7439 6575 1bbc b895 4abb d27d 58bb
000001b0: 87ea d13a 5464 1abc 29a2 87ba 28d7 d139
000001c0: ec27 17bc dce4 b73b 14d4 cabb 7b0f e13b
000001d0: a913 86b9 8bf2 a2bc 3c2f 1dbc 5d3d 733b
000001e0: 02e2 79bb a12c 053b 8a53 b73c 9a9c 73bb
000001f0: b816 82bc b32f 03bc 59c7 92bb 5163 383c
00000200: 0782 cb3b 6e65 523c 5000 ae3a 03c2 5e3b
00000210: a768 043c a150 393c 27bd 52bb c604 54ba
00000220: f6e0 533b 34de 06bb c9e1 d53b 1113 363b
00000230: 5ead a739 0fbb a13b f3b7 3b3c a5c0 2ebb
00000240: a9fe 053c fd17 e3bb c4ce 183c 1a29 75bb
00000250: f74a de3b 0a28 f1bb 87f6 69b8 3c2f b0bb
00000260: 2ece 023c ba3c b6b8 2276 16bb 6b8f 4ebc
00000270: c52e 4e3a 5ebf 043c a7c1 b5bb 9f22 a9bb
00000280: e673 d93b df54 73bc 54c0 053b c78b 3ebc
00000290: 5898 363c ff37 263c f6ca aebb 1ab9 89bc
000002a0: f68a b73b 369b 6b3c ee57 b53c 5e5f 9cbb
000002b0: 695d faba a044 6bbb 66b4 783c beb3 4d3a
000002c0: 370a 163b 78de c63b 9876 dcbb a97c 2bbc
000002d0: 9225 0dbc f8e2 6a3b f9cc 1c3c be3d 24bc
000002e0: 9e0e da3b d4d1 8338 62f1 423b 4ffa 32bb
000002f0: 278b 9ebc 6ce8 293c ac65 edba cda9 85bc
00000300: 7a71 b3bb 97d3 6cbc 0479 89b9 3b45 6dbc
00000310: 8a37 a8bb ab59 0c3c 1610 4c3c f9bb 29bc
00000320: 7f5f 1dba 0d9a 0c3c 2433 2abc fcff c53b
00000330: c87f a1bb 7023 8a3b a0fc c8bc 7c2f 5ebb
00000340: 961e 133b 66c9 c4bc a699 093c ff16 9bbb
00000350: 03ef 083c 6a75 213c 8459 9e3c 8029 393b
00000360: 172b b73a 199e 86bb 8c6c 903c 6b32 013b
00000370: 86de 3abb 161b d83a 0b38 f2b9 cc52 df3b
00000380: 121a a03b b972 2a3c 7a74 a43a 7ada 1b3c
00000390: c204 863b 5c40 433c d16e b63b 8a59 8cbc
000003a0: 6b09 89bc 8185 f1bb 8996 2d3c 1845 ce3a
000003b0: 098a 983b 369e 2cbc 5baa 643b 0973 69bc
000003c0: ad1b d8bc 4c9e 30bb af4b 083c 4f82 053b
000003d0: 0971 6abb 5b61 653b 9f4e 97bc f074 bcbb
000003e0: f220 e0bb 8fbd 6bbc 376e 8abb ff95 3d3b
000003f0: ff7d 833b ef17 0f3c 83ef be3b 2dbd d9bb

action_model._discrete_distribution.branches.0.bias f4 [2]
-0.0027506552 0.0027506542
00000000: 5644 34bb 5244 343b

action_model._discrete_distribution.branches.1.weight f4 [1, 128]
0.005175196 0.016595831 0.0017357547 0.0054753195 0.0058300328 0.0016724806 0.007693493 0.009357302
0.012934572 0.0016887392 0.0032508112 -0.0055515775 0.010341491 -0.009186935 -0.0072547793 -0.009161779
-0.0057654805 0.017907545 -0.0009105216 2.4459383e-05 -0.008807111 0.015418172 0.0037743363 0.0048959386
-0.027821217 -0.010655249 -0.0028112025 0.008849486 -0.0057060192 0.0065981443 -0.008926083 -0.003857253
0.014799661 -0.0071720467 0.008024889 -0.012663597 -0.018791925 0.008478699 0.016352406 -0.0059990366
-0.007962495 0.008017196 0.020176595 -0.0009463259 0.0049157254 0.00039525004 -0.008782729 0.007257598
0.0013702086 -0.0019034416 -0.006563665 0.00653926 0.00786659 -8.0270824e-05 0.0050383992 0.013444853
0.0014679587 0.00048238863 0.01126296 -0.0043566944 0.009895689 -0.015983455 0.016443787 -0.006659942
0.008255945 -0.0005778726 0.016252004 0.0023943672 0.0055096913 0.005252442 0.020473195 0.0062561454
0.00988747 -0.0059347725 -0.015097017 0.012071493 0.0040535317 0.01005068 0.0025379742 0.0006582801
0.0058554746 0.006842097 -0.01810751 -0.0019825601 0.006094962 0.003028024 0.0027348404 -0.0020767392
0.007400673 -0.0062515656 -0.004079239 -0.007956375 -0.008109023 0.009845407 0.0024161292 0.00075055513
-0.007925216 -0.0125273345 0.0005322466 0.0018936404 0.0071797348 -0.011198888 -0.009901105 0.0004113073
0.0073090605 -0.0071263686 0.0014229008 0.004425814 -0.006804126 -0.0066593587 0.0004887331 -0.0051949336
-0.0063807904 0.0007248324 0.014167853 -0.0102853365 -0.004002914 -0.006995454 0.010727773 -0.002920919
0.00046769224 -0.0031079517 0.004726134 0.00058579136 0.0043389867 0.0013114763 -0.016033761 0.0037100017
00000000: b194 a93b fbf3 873c 4382 e33a 4f6a b33b
00000010: dc09 bf3b 2337 db3a b219 fc3b 5f4f 193c
00000020: 87eb 533c af58 dd3a 900b 553b 02ea b5bb
00000030: 5b6f 293c cc84 16bc 80b9 edbb 491b 16bc
00000040: 5bec bcbb d8b2 923c 12b0 6eba 202e cd37
00000050: b34b 10bc 809c 7c3c db5a 773b 1c6e a03b
00000060: 52e9 e3bc 5a93 2ebc 273c 38bb 6ffd 103c
00000070: 8ff9 babb 3f35 d83b b53e 12bc f7c9 7cbb
00000080: 477a 723c 7d03 ebbb d37a 033c fa7a 4fbc
00000090: 86f1 99bc 3eea 0a3c 7bf5 853c 9193 c4bb
000000a0: 2075 02bc 8f5a 033c 6349 a53c db12 78ba
000000b0: 1814 a13b 9039 cf39 6fe5 0fbc 25d1 ed3b
000000c0: 9298 b33a e77c f9ba 0314 d7bb 4a47 d63b
000000d0: dfe2 003c 1257 a8b8 2819 a53b cd47 5c3c
000000e0: 8568 c03a 1be9 fc39 4788 383c 9ac2 8ebb
000000f0: 8721 223c bcef 82bc 1fb5 863c a53b dabb
00000100: f143 073c 607c 17ba ec22 853c d1ea 1c3b
00000110: a48a b43b ad1c ac3b 67b7 a73c 5a00 cd3b
00000120: 0eff 213c 7b78 c2bb 7b59 77bc 83c7 453c
00000130: 7dd3 843b 9bab 243c 2454 263b 6e90 2c3a
00000140: 48df bf3b ab33 e03b 3356 94bc d7ed 01bb
00000150: 3fb8 c73b d071 463b 023b 333b e719 08bb
00000160: 5881 f23b efd9 ccbb 23ab 85bb 755b 02bc
00000170: b5db 04bc a14e 213c ec57 1e3b e7c0 443a
00000180: c4d8 01bc 733f 4dbc 7786 0b3a 0734 f83a
00000190: fb43 eb3b 8a7b 37bc 3f38 22bc bba4 d739
000001a0: d880 ef3b 5084 e9bb a180 ba3a 6b06 913b
000001b0: 25f5 debb c036 dabb 531e 003a 433a aabb
000001c0: f315 d1bb ae02 3e3a 4820 683c d483 28bc
000001d0: e02a 83bb 1f3a e5bb 8bc3 2f3c e46c 3fbb
000001e0: 9734 f539 c7ae 4bbb afdd 9a3b cb8f 193a
000001f0: 0f2e 8e3b d8e5 ab3a 3c59 83bc 8023 733b

exp_avg f4 [128, 13]
-8.314976e-06 -3.7732033e-07 0.0 0.0 4.1251577e-16 0.0 3.7737948e-07 -5.2719915e-06
-8.5790083e-07 0.0 3.7737948e-07 4.068888e-17 3.7964148e-07 -0.00012186518 -5.530048e-06 0.0
0.0 7.3372487e-16 0.0 5.530916e-06 -7.726691e-05 -1.25734905e-05 0.0 5.530916e-06
1.4017846e-16 5.662248e-06 -7.620406e-05 -3.4580187e-06 0.0 0.0 4.2325555e-15 0.0
3.458561e-06 -4.8316102e-05 -7.862383e-06 0.0 3.458561e-06 -1.884448e-16 3.548612e-06 1.5759785e-10
7.151401e-12 0.0 0.0 -7.0885534e-17 0.0 -7.152593e-12 9.992176e-11 1.6260418e-11
0.0 -7.152523e-12 7.3950225e-17 -7.309098e-12 1.1522195e-05 5.228589e-07 0.0 0.0
-4.983288e-15 0.0 -5.229407e-07 7.305481e-06 1.1888069e-06 0.0 -5.229407e-07 -5.038028e-16
-5.1535875e-07 -0.00097280135 -4.414417e-05 0.0 0.0 -4.541854e-14 0.0 4.4151093e-05
-0.0006167908 -0.000100369165 0.0 4.4151093e-05 -2.4194173e-15 4.5327215e-05 -6.5970344e-05 -2.9936289e-06
0.0 0.0 -2.7346165e-16 0.0 2.9940982e-06 -4.182756e-05 -6.806516e-06 0.0
2.9940982e-06 -2.3743427e-16 3.0352387e-06 -0.0006470938 -2.9364093e-05 0.0 0.0 -2.0110595e-14
0.0 2.9368688e-05 -0.00041028066 -6.676414e-05 0.0 2.9368688e-05 -3.7910586e-15 3.0186262e-05
-2.8542104e-07 -1.295195e-08 0.0 0.0 -2.023598e-15 0.0 1.2953976e-08 -1.8096713e-07
-2.9448428e-08 0.0 1.2953979e-08 -8.4592234e-17 1.3240099e-08 0.0007147505 3.2434255e-05 0.0
0.0 6.9039195e-15 0.0 -3.2439333e-05 0.00045317755 7.374467e-05 0.0 -3.2439333e-05
1.1673027e-15 -3.3448036e-05 -1.7933819e-06 -8.138086e-08 0.0 0.0 -1.6355407e-14 0.0
8.1393566e-08 -1.137068e-06 -1.8503283e-07 0.0 8.1393566e-08 2.8434917e-15 1.4508015e-07 -0.00029709563
-1.3481732e-05 0.0 0.0 -1.7751503e-14 0.0 1.3483846e-05 -0.00018836926 -3.065297e-05
0.0 1.3483846e-05 -1.5790179e-16 1.3836029e-05 -2.573851e-06 -1.1679728e-07 0.0 0.0
-5.718396e-15 0.0 1.1681557e-07 -1.6319141e-06 -2.6555816e-07 0.0 1.1681557e-07 -1.2366093e-16
1.1982402e-07 5.466181e-05 2.4804679e-06 0.0 0.0 6.1983665e-15 0.0 -2.4808553e-06
3.465755e-05 5.6397553e-06 0.0 -2.4808553e-06 -1.9106389e-15 -2.636302e-06 0.00059163675 2.6847536e-05
0.0 0.0 1.3489275e-14 0.0 -2.6851727e-05 0.0003751186 6.104233e-05 0.0
-2.6851727e-05 4.27361e-15 -2.7710932e-05 -0.0006170121 -2.799903e-05 0.0 0.0 -2.7329838e-14
0.0 2.8003422e-05 -0.00039120772 -6.3660475e-05 0.0 2.8003422e-05 -2.0548392e-15 2.8621755e-05
-0.00040690028 -1.8464489e-05 0.0 0.0 -4.9369675e-15 0.0 1.846738e-05 -0.0002579893
-4.1982086e-05 0.0 1.846738e-05 1.3762223e-16 1.8895596e-05 -0.00014831644 -6.7303636e-06 0.0
0.0 1.7755135e-14 0.0 6.731417e-06 -9.4037925e-05 -1.5302607e-05 0.0 6.731417e-06
-1.1352959e-15 6.904401e-06 0.00012523768 5.6830863e-06 0.0 0.0 1.872314e-14 0.0
-5.6839763e-06 7.94052e-05 1.2921442e-05 0.0 -5.6839763e-06 1.3010475e-15 -6.013307e-06 -6.491151e-05
-2.9455805e-06 0.0 0.0 2.1130147e-14 0.0 2.946043e-06 -4.1156225e-05 -6.69727e-06
00000000: 8d80 0bb7 8392 cab4 0000 0000 0000 0000
00000010: 95cc ed25 0000 0000 a49a ca34 10e6 b0b6
00000020: 7f4a 66b5 0000 0000 a49a ca34 f3a4 3b24
00000030: 87d1 cb34 df91 ffb8 c08e b9b6 0000 0000
00000040: 0000 0000 577b 5326 0000 0000 3596 b936
00000050: 5b0a a2b8 bbf2 52b7 0000 0000 3596 b936
00000060: 619d 2125 57fe bd36 becf 9fb8 4f10 68b6
00000070: 0000 0000 0000 0000 6f7e 9827 0000 0000
00000080: a019 6836 05a7 4ab8 aee8 03b7 0000 0000
00000090: a019 6836 1743 59a5 b124 6e36 da47 2d2f
000000a0: 189e fb2c 0000 0000 0000 0000 6f73 a3a4
000000b0: 0000 0000 d5a8 fbac f3ba db2e 3507 8f2d
000000c0: 0000 0000 33a8 fbac 8284 aa24 4095 00ad
000000d0: 734f 4137 975a 0c35 0000 0000 0000 0000
000000e0: b88a b3a7 0000 0000 3660 0cb5 9b21 f536
000000f0: 188f 9f35 0000 0000 3660 0cb5 1636 11a6
00000100: 2f57 0ab5 9803 7fba 7127 39b8 0000 0000
00000110: 0000 0000 038c 4ca9 0000 0000 e02e 3938
00000120: 21b0 21ba 497d d2b8 0000 0000 e02e 3938
00000130: 5f56 2ea7 ba1d 3e38 8f59 8ab8 27e6 48b6
00000140: 0000 0000 0000 0000 d1a3 9da5 0000 0000
00000150: 37ee 4836 0070 2fb8 8763 e4b6 0000 0000
00000160: 37ee 4836 1ddf 88a5 01b1 4b36 bba1 29ba
00000170: e952 f6b7 0000 0000 0000 0000 e023 b5a8
00000180: 0000 0000 c75c f637 f01a d7b9 ba03 8cb8
00000190: 0000 0000 c75c f637 5896 88a7 8138 fd37
000001a0: f83b 99b4 4783 5eb2 0000 0000 0000 0000
000001b0: cbd0 11a7 0000 0000 308c 5e32 de4f 42b4
000001c0: c7f5 fcb2 0000 0000 348c 5e32 710e c3a4
000001d0: 9276 6332 185e 3b3a 040a 0838 0000 0000
000001e0: 0000 0000 6bbd f827 0000 0000 780f 08b8
000001f0: 7698 ed39 5ea7 9a38 0000 0000 780f 08b8
00000200: de39 a826 8e4a 0cb8 22b4 f0b5 9ac3 aeb3
00000210: 0000 0000 0000 0000 0051 93a8 0000 0000
00000220: 96ca ae33 5c9d 98b5 70ad 46b4 0000 0000
00000230: 96ca ae33 2ae5 4c27 54c7 1b34 80c3 9bb9
00000240: 992f 62b7 0000 0000 0000 0000 2ee4 9fa8
00000250: 0000 0000 ad38 6237 fd84 45b9 6091 00b8
00000260: 0000 0000 ad38 6237 620c 36a5 4b21 6837
00000270: 6cba 2cb6 fcd1 fab3 0000 0000 0000 0000
00000280: e506 cea7 0000 0000 0adc fa33 2408 dbb5
00000290: 0992 8eb4 0000 0000 0adc fa33 4492 0ea5
000002a0: faa8 0034 ac44 6538 1d76 2636 0000 0000
000002b0: 0000 0000 d751 df27 0000 0000 c57c 26b6
000002c0: 435d 1138 213d bd36 0000 0000 c57c 26b6
000002d0: 11ad 09a7 53eb 30b6 1218 1b3a a536 e137
000002e0: 0000 0000 0000 0000 4d00 7328 0000 0000
000002f0: a53f e1b7 91ab c439 da03 8038 0000 0000
00000300: a53f e1b7 18f9 9927 c674 e8b7 fbbe 21ba
00000310: 76df eab7 0000 0000 0000 0000 512a f6a8
00000320: 0000 0000 e4e8 ea37 031b cdb9 7581 85b8
00000330: 0000 0000 e4e8 ea37 1811 14a7 c018 f037
00000340: 3b55 d5b9 30e4 9ab7 0000 0000 0000 0000
00000350: 7ddf b1a7 0000 0000 66ea 9a37 bd42 87b9
00000360: ec15 30b8 0000 0000 66ea 9a37 eaaa 1e25
00000370: fc81 9e37 6485 1bb9 62d5 e1b6 0000 0000
00000380: 0000 0000 8eec 9f28 0000 0000 6fde e136
00000390: 3a36 c5b8 195e 80b7 0000 0000 6fde e136
000003a0: 079d a3a6 5aac e736 3c52 0339 57b1 be36
000003b0: 0000 0000 0000 0000 9fa4 a828 0000 0000
000003c0: fcb8 beb6 5886 a638 2cc9 5837 0000 0000
000003d0: fcb8 beb6 2e80 bb26 eac5 c9b6 1a21 88b8
000003e0: b0ac 45b6 0000 0000 0000 0000 cd52 be28
000003f0: 0000 0000 a2b4 4536 299f 2cb8 1cb9 e0b6

exp_avg_sq f4 [128, 13]
4.932831e-09 2.4770101e-11 0.0 0.0 4.078054e-12 0.0 1.9323987e-11 5.3158726e-09
1.1951996e-10 0.0 2.4775229e-11 5.178326e-16 1.9239811e-11 4.1785023e-07 8.2572926e-10 0.0
0.0 6.6162904e-12 0.0 8.199004e-10 1.5254518e-07 3.9499564e-09 0.0 8.260595e-10
3.1295628e-14 6.9746214e-10 1.4114782e-07 3.5664444e-10 0.0 0.0 2.6972656e-12 0.0
3.4917258e-10 5.491594e-08 1.8122197e-09 0.0 3.5685987e-10 4.3462748e-14 3.5348738e-10 1.3590021e-11
2.344124e-13 0.0 0.0 7.90829e-16 0.0 2.3319712e-13 5.220569e-12 7.982516e-13
0.0 2.344803e-13 7.642311e-15 2.3664737e-13 2.3014292e-07 3.3639241e-10 0.0 0.0
2.3683075e-10 0.0 7.0830904e-11 3.588852e-07 1.1832153e-09 0.0 3.3649744e-10 3.2395001e-13
1.5569046e-10 2.8923243e-05 5.5095853e-08 0.0 0.0 6.815545e-09 0.0 4.5117503e-08
1.8166826e-05 2.6352626e-07 0.0 5.511505e-08 6.6835595e-12 4.4663462e-08 1.1884742e-06 2.400563e-09
0.0 0.0 4.3901738e-14 0.0 2.4041134e-09 1.5867816e-07 1.0612953e-08 0.0
2.400235e-09 3.4023996e-13 8.5142865e-10 1.8365497e-05 3.5981504e-08 0.0 0.0 5.8214344e-09
0.0 2.79304e-08 1.2511938e-05 1.6796014e-07 0.0 3.599403e-08 1.751725e-11 2.835427e-08
8.9299107e-10 7.448927e-12 0.0 0.0 6.0841913e-12 0.0 9.50285e-13 3.9867434e-09
3.4864202e-11 0.0 7.451149e-12 5.0096853e-15 2.8993826e-12 1.4072992e-05 2.7649424e-08 0.0
0.0 9.415239e-10 0.0 2.6132241e-08 6.682589e-06 1.3852895e-07 0.0 2.7669316e-08
1.8234288e-12 2.635378e-08 5.243776e-08 4.5400272e-10 0.0 0.0 2.1726667e-11 0.0
3.9601017e-10 2.4430761e-08 1.1286815e-09 0.0 4.5408985e-10 9.167988e-12 4.4830467e-10 3.2462876e-06
6.1348486e-09 0.0 0.0 2.4444244e-10 0.0 5.8901577e-09 1.460822e-06 2.9955533e-08
0.0 6.1380634e-09 4.1924415e-13 5.239035e-09 3.1377656e-09 2.1474841e-11 0.0 0.0
9.5842214e-12 0.0 1.1586402e-11 8.615028e-09 1.0051328e-10 0.0 2.1481062e-11 5.7793065e-14
1.289836e-11 4.96267e-07 1.3845175e-09 0.0 0.0 2.3625624e-10 0.0 1.1715163e-09
3.6964775e-07 5.845931e-09 0.0 1.3845531e-09 9.378466e-12 1.256238e-09 2.0812819e-05 4.13419e-08
0.0 0.0 8.3305745e-09 0.0 2.9713087e-08 1.6246135e-05 1.868968e-07 0.0
4.1354895e-08 2.0169746e-11 3.147458e-08 7.5289545e-06 1.3861294e-08 0.0 0.0 2.1266733e-09
0.0 1.14853345e-08 5.0760855e-06 6.677543e-08 0.0 1.38657406e-08 5.501922e-12 1.2173495e-08
2.6608598e-06 5.2129523e-09 0.0 0.0 1.587577e-10 0.0 4.972641e-09 1.1780479e-06
2.5784013e-08 0.0 5.2168825e-09 9.980614e-14 4.780631e-09 1.2581338e-06 2.554812e-09 0.0
0.0 5.3045485e-10 0.0 2.1906634e-09 8.1485905e-07 1.173679e-08 0.0 2.5561053e-09
2.2544401e-12 1.3941427e-09 3.9002125e-06 7.477006e-09 0.0 0.0 3.228653e-09 0.0
3.6538255e-09 4.5280617e-06 3.3564174e-08 0.0 7.478994e-09 1.6995633e-12 4.7221844e-09 7.913702e-07
1.3329541e-09 0.0 0.0 4.301836e-10 0.0 1.0073709e-09 6.360826e-07 5.2077063e-09
00000000: a47d a931 4fe1 d92d 0000 0000 0000 0000
00000010: d87b 8f2c 0000 0000 c0f9 a92d e9a6 b631
00000020: e169 032f 0000 0000 dbec d92d 4d41 1526
00000030: 343c a92d e654 e034 88f9 6230 0000 0000
00000040: 0000 0000 3fca e82c 0000 0000 5d5f 6130
00000050: 4dcb 2334 2fb8 8731 0000 0000 c510 6330
00000060: 67f1 0c29 89b7 3f30 6b8e 1734 3e11 c42f
00000070: 0000 0000 0000 0000 9ecd 3d2c 0000 0000
00000080: acf5 bf2f b7dc 6b33 d011 f930 0000 0000
00000090: 902f c42f 23bd 4329 ed54 c22f 0314 6f2d
000000a0: 63f6 832a 0000 0000 0000 0000 e1f0 6326
000000b0: 0000 0000 3f47 832a b5ae b72c 17b0 602b
000000c0: 0000 0000 2c00 842a f0ab 0928 7b38 852a
000000d0: 341d 7734 06ef b82f 0000 0000 0000 0000
000000e0: f732 822f 0000 0000 41c2 9b2e ceac c034
000000f0: b09e a230 0000 0000 cefd b82f 1e5e b62a
00000100: f82e 2b2f 31a0 f237 88a2 6c33 0000 0000
00000110: 0000 0000 2b2e ea31 0000 0000 38c7 4133
00000120: f664 9837 c67a 8d34 0000 0000 a3b7 6c33
00000130: 2728 eb2c ffd3 3f33 aa83 9f35 27f7 2431
00000140: 0000 0000 0000 0000 42b7 4529 0000 0000
00000150: 9c35 2531 1f61 2a34 4354 3632 0000 0000
00000160: 61f1 2431 bf89 bf2a f709 6a30 9b0f 9a37
00000170: 158a 1a33 0000 0000 0000 0000 e105 c831
00000180: 0000 0000 99eb ef32 5dea 5137 8858 3434
00000190: 0000 0000 db97 1a33 5715 9a2d b38f f332
000001a0: a976 7530 fc0a 032d 0000 0000 0000 0000
000001b0: 8611 d62c 0000 0000 a0bd 852b c4fb 8831
000001c0: 9a55 192e 0000 0000 fe14 032d 317e b427
000001d0: a206 4c2c 0a1b 6c37 ba81 ed32 0000 0000
000001e0: 0000 0000 ed66 8130 0000 0000 6879 e032
000001f0: 013b e036 8cbe 1434 0000 0000 78ad ed32
00000200: f94f 002c 9360 e232 ed37 6133 3497 f92f
00000210: 0000 0000 0000 0000 1b1c bf2d 0000 0000
00000220: 7ab5 d92f d0db d132 f31f 9b30 0000 0000
00000230: 77a3 f92f f348 212d 4675 f62f ccda 5936
00000240: b3ca d231 0000 0000 0000 0000 3762 862f
00000250: 0000 0000 6062 ca31 7611 c435 75a8 0033
00000260: 0000 0000 fae6 d231 7303 ec2a 0a03 b431
00000270: 28a0 5731 0be5 bc2d 0000 0000 0000 0000
00000280: 7f9b 282d 0000 0000 84d4 4b2d 4b01 1432
00000290: f207 dd2e 0000 0000 0df3 bc2d 6f23 8229
000002a0: 0de9 622d 3537 0535 6149 be30 0000 0000
000002b0: 0000 0000 1ce2 812f 0000 0000 1103 a130
000002c0: 0074 c634 5add c831 0000 0000 a24a be30
000002d0: dbfc 242d f2a7 ac30 3097 ae37 e68f 3133
000002e0: 0000 0000 0000 0000 411e 0f32 0000 0000
000002f0: c53b ff32 4f48 8837 cdad 4834 0000 0000
00000300: 309e 3133 3b6a b12d ab2e 0733 3aa1 fc36
00000310: 9e22 6e32 0000 0000 0000 0000 d524 1231
00000320: 0000 0000 0951 4532 3e53 aa36 2e66 8f33
00000330: 0000 0000 2c36 6e32 e894 c12c 9923 5132
00000340: 3991 3236 9d1d b331 0000 0000 0000 0000
00000350: 528e 2e2f 0000 0000 d0db aa31 6b1d 9e35
00000360: a57b dd32 0000 0000 2f40 b331 53be e029
00000370: e042 a431 26dd a835 ba90 2f31 0000 0000
00000380: 0000 0000 71cf 1130 0000 0000 8f8a 1631
00000390: b0bc 5a35 f3a2 4932 0000 0000 7ba7 2f31
000003a0: 62a4 1e2c 099c bf30 92de 8236 3874 0032
000003b0: 0000 0000 0000 0000 10df 5d31 0000 0000
000003c0: c716 7b31 c1ef 9736 3328 1033 0000 0000
000003d0: f77c 0032 3931 ef2b c640 a231 8c6e 5435
000003e0: 2733 b730 0000 0000 0000 0000 f67e ec2f
000003f0: 0000 0000 b673 8a30 43bf 2a35 78ef b231

exp_avg f4 [128]
3.7737948e-07 5.5309147e-06 3.4585612e-06 -7.152522e-12 -5.229408e-07 4.4151097e-05 2.9940986e-06 2.936868e-05
1.2953986e-08 -3.2439337e-05 8.13936e-08 1.3483846e-05 1.16815606e-07 -2.4808558e-06 -2.6851738e-05 2.800342e-05
1.846738e-05 6.731417e-06 -5.683975e-06 2.9460427e-06 4.187519e-05 7.529139e-06 -1.1447015e-06 -3.3789667e-05
1.6933855e-07 -8.594817e-06 -1.4861425e-05 3.389585e-08 3.886154e-05 4.3877183e-08 3.4157423e-05 -1.5444062e-08
-5.176569e-10 -1.7755458e-06 -7.18466e-07 1.3735179e-07 2.417608e-08 8.683299e-06 -1.9841711e-05 -1.6845617e-05
3.2961485e-05 1.5616576e-08 -9.257862e-06 -6.26011e-06 -5.8003047e-06 2.7236554e-05 1.3012132e-06 1.9992951e-06
1.2682868e-09 3.4681586e-13 -2.0688465e-07 -7.48133e-07 1.8007117e-05 -5.8332066e-06 3.3651665e-06 3.726903e-05
-2.0419588e-05 -1.2674011e-05 -5.969567e-09 1.3800232e-10 -2.2968516e-09 6.57958e-08 -9.2615113e-07 9.3626195e-06
-7.294938e-07 -1.29396185e-05 -2.9941064e-06 -1.7807677e-06 -8.71078e-06 -1.2958401e-06 -4.12174e-05 1.271939e-09
-1.5125927e-08 3.6677247e-05 2.6799837e-05 -9.0098257e-07 -2.0687301e-05 1.4615428e-05 -5.60206e-06 -9.55766e-06
-3.5191292e-09 7.6150246e-07 -2.3997167e-05 -2.7109093e-06 8.903567e-07 2.5214893e-11 8.860864e-11 -3.120763e-07
7.6568695e-06 -3.8378666e-06 2.3342722e-05 8.749297e-06 -4.3758678e-07 8.6376673e-07 3.228939e-05 1.6261616e-08
1.2257455e-05 -3.0254973e-06 6.600702e-08 1.4765509e-06 -1.9187733e-05 8.5821675e-06 6.765443e-06 4.011802e-06
1.00263025e-08 1.1571479e-05 4.6137334e-08 1.618051e-05 -1.1154807e-06 2.3045463e-05 1.5737209e-05 -5.204143e-06
5.1674792e-06 3.3528664e-07 6.5875224e-06 8.6145626e-08 -4.223328e-05 -1.1158784e-05 -3.733823e-07 -6.710902e-08
-7.8808125e-06 -2.9636855e-09 4.7744616e-06 1.3657221e-07 3.1215983e-05 1.4720292e-06 7.912039e-06 -1.9320754e-05
00000000: a49a ca34 3296 b936 a119 6836 31a8 fbac
00000010: 3860 0cb5 e12e 3938 39ee 4836 c35c f637
00000020: 3c8c 5e32 790f 08b8 9bca ae33 ad38 6237
00000030: 0fdc fa33 c77c 26b6 ab3f e1b7 e3e8 ea37
00000040: 66ea 9a37 6fde e136 f9b8 beb6 a1b4 4536
00000050: 25a3 2f38 d0a2 fc36 a5a3 99b5 61b9 0db8
00000060: 6dd3 3534 7532 10b7 5655 79b7 e294 1133
00000070: 43ff 2238 7973 3c33 4144 0f38 daa9 84b2
00000080: de4a 0eb0 4a4f eeb5 9cdc 40b5 f97a 1334
00000090: c3ab cf32 7cae 1137 c071 a6b7 b04f 8db7
000000a0: 2040 0a38 3725 8632 3752 1bb7 ef0d d2b6
000000b0: 3da0 c2b6 0e7a e437 58a5 ae35 a12b 0636
000000c0: e04f ae30 6f3d c32a 0524 5eb4 4fd3 48b5
000000d0: fd0d 9737 ddba c3b6 1fd5 6136 5151 1c38
000000e0: bb4a abb7 76a2 54b7 de1c cdb1 33bc 172f
000000f0: a4d6 1db1 a04b 8d33 9f9c 78b5 2514 1d37
00000100: 6fd2 43b5 3d17 59b7 5bee 48b6 b602 efb5
00000110: 8424 12b7 baec adb5 d9e0 2cb8 60d0 ae30
00000120: 44ee 81b2 e5d5 1938 36d0 e037 0ddb 71b5
00000130: a489 adb7 c934 7537 54f9 bbb6 d659 20b7
00000140: 2dd5 71b1 0d6a 4c35 864d c9b7 11ed 35b6
00000150: d900 6f35 e4ca dd2d 3bda c22e 718b a7b4
00000160: 0176 0037 06c7 80b6 1dd0 c337 f2c9 1237
00000170: 78ed eab4 99dd 6735 786e 0738 acaf 8b32
00000180: 5ea5 4d37 a609 4bb6 bebf 8d33 e72d c635
00000190: 58f5 a0b7 21fc 0f37 b602 e336 1e9d 8636
000001a0: 2540 2c32 2023 4237 8928 4633 61bb 8737
000001b0: a0b7 95b5 c151 c137 6603 8437 3f9f aeb6
000001c0: 4f64 ad36 7201 b434 630a dd36 0fff b833
000001d0: a423 31b8 9d36 3bb7 4675 c8b4 931d 90b3
000001e0: d537 04b7 b5a9 4bb1 5034 a036 afa4 1234
000001f0: e8ed 0238 8a92 c535 f3bd 0437 0113 a2b7

exp_avg_sq f4 [128]
2.477756e-11 8.259881e-10 3.5675388e-10 2.3448032e-13 3.365026e-10 5.5113187e-08 2.4013205e-09 3.5992812e-08
7.451138e-12 2.7658011e-08 4.5413592e-10 6.1367684e-09 2.1481247e-11 1.3849453e-09 4.1354905e-08 1.3865664e-08
5.2145754e-09 2.5556104e-09 7.479378e-09 1.3333771e-09 4.4376126e-08 2.2715358e-09 4.27695e-11 5.5175263e-08
1.5743297e-11 4.691064e-09 1.4605121e-08 9.320113e-12 4.7890524e-08 1.695497e-11 3.912095e-08 4.7387833e-11
8.0326604e-13 2.462991e-10 1.1647612e-10 3.570118e-11 1.9957952e-11 2.190793e-09 1.6325892e-08 3.3504e-09
3.2988343e-08 7.118578e-13 1.02353575e-08 2.489493e-09 1.3333503e-09 1.2722214e-08 6.6360792e-09 5.4116867e-10
3.1189577e-13 1.2414891e-14 4.2967217e-11 2.1228164e-10 7.4009145e-09 1.7334781e-09 5.644995e-09 4.9970517e-08
2.8264841e-08 9.513446e-09 2.590527e-12 1.1848977e-13 1.2098815e-12 6.502027e-11 5.21699e-10 2.2876674e-09
2.2886806e-09 8.8228616e-09 3.558443e-10 1.6108644e-09 2.269277e-09 7.7099005e-10 5.4588813e-08 1.676213e-12
3.802845e-12 4.7142755e-08 2.2715483e-08 1.2043518e-09 9.704392e-09 8.022182e-09 3.980478e-09 1.2039913e-08
2.8084937e-12 1.5426588e-09 1.783678e-08 3.8802367e-10 5.4719836e-11 2.693598e-13 1.6520157e-13 6.998427e-10
3.3885394e-09 1.4761254e-09 1.8615994e-08 3.809795e-09 4.3679223e-11 3.6229783e-10 3.100873e-08 5.03691e-11
2.5944953e-09 1.4857032e-09 1.0047312e-11 4.6316995e-09 2.157391e-08 2.5753384e-09 2.6157996e-09 1.4110114e-09
1.4241981e-12 4.1488972e-09 4.9871966e-13 1.8405562e-08 3.2086458e-10 1.2105172e-08 1.1031813e-08 4.7126214e-09
1.3020189e-09 2.5871343e-11 4.0995016e-09 3.1792201e-12 7.307855e-08 7.24671e-09 1.2062328e-11 1.3907461e-11
3.113417e-09 1.6833831e-12 1.4721914e-09 2.405505e-10 2.5861818e-08 2.379398e-10 3.5305368e-09 1.345566e-08
00000000: 1bf2 d92d bf0b 6330 a520 c42f 2d00 842a
00000010: 88fe b82f 97b5 6c33 7a04 2531 8496 1a33
00000020: f114 032d 9c94 ed32 f3a9 f92f 96db d231
00000030: 78f3 bc2d 6e58 be30 339e 3133 d635 6e32
00000040: e42b b331 c69e 2f31 a77e 0032 0942 b730
00000050: 1198 3e33 4819 1c31 2d1a 3c2e d8f9 6c33
00000060: c17a 8a2d 092f a131 00ea 7a32 0ff6 232d
00000070: 30b0 4d33 3323 952d f005 2833 f569 502e
00000080: 6b19 622b 8467 872f 1d11 002f f503 1d2e
00000090: 508d af2d d78c 1631 043d 8c32 dc3c 6631
000000a0: 11af 0d33 c35e 482b 94d7 2f32 a013 2b31
000000b0: 1841 b730 e490 5a32 9203 e431 5cc1 1430
000000c0: eb94 af2a 94a5 5f28 c9f8 3c2e f867 692f
000000d0: 224b fe31 573f ee30 e7f5 c131 2a9f 5633
000000e0: 0bcb f232 9470 2332 c94a 362c 5a68 052a
000000f0: 9346 aa2b 28fb 8e2e 4e67 0f30 1235 1d31
00000100: e546 1d31 5b93 1732 a2a0 c32f 4165 dd30
00000110: 8bf1 1b31 9aed 5330 0975 6a33 f0e7 eb2b
00000120: fccc 852c 027a 4a33 e01f c332 5d86 a530
00000130: 5eb8 2632 eed1 0932 a8c4 8831 19d8 4e32
00000140: 53a1 452c 7b05 d430 7e37 9932 7a51 d52f
00000150: 0fa9 702e d7a2 972a 1c00 3a2a 0d5f 4030
00000160: d1db 6831 8ce0 ca30 01e9 9f32 50e7 8231
00000170: 6f1a 402e e32c c72f 762e 0533 9186 5d2e
00000180: d84a 3231 8931 cc30 12c1 302d dc24 9f31
00000190: 8851 b932 d5f9 3031 a2c1 3331 8ded c130
000001a0: 2570 c82b 168e 8e31 8a60 0c2b 421a 9e32
000001b0: ad65 b02f 1cf7 4f32 6d86 3d32 a8ec a131
000001c0: b8f2 b230 1691 e32d 99db 8c31 bdb7 5f2c
000001d0: 5cef 9c33 bcfe f831 e533 542d a3a9 742d
000001e0: d0f3 5531 45ea ec2b 2156 ca30 793e 842f
000001f0: bd26 de32 0dcf 822f dc9d 7231 9e2a 6732
