src/CyberHero/Assets/_Scripts/Enemies/AI RL/Enemy Agent.onnx (onnx, 81529 bytes, 7 tensors)

discrete_act_size_vector f4 [1, 2]
00000000: 0000 0040 0000 803f
2.0 1.0

network_body._body_endoder.seq_layers.0.weight f4 [128, 13]
00000000: de2d e9bd f3ff da3d be00 fa3d 031e 85be
00000010: 5afa d23d f7ae 00bc 7a70 70be d0ec c43e
00000020: 7324 343f 7d41 58be 4ae1 82be f0f3 2e3d
00000030: 4788 08be 0a00 38bd b5e0 1d3e 4e37 95be
00000040: 1e6a 0e3e 627d e8be 3ccc 543e 72db 063d
00000050: bed6 07bf fe6a aabd b3c5 ef3d 1cc0 583e
00000060: 5758 243e 0333 4f3e fc99 5bbe 5b33 48bf
00000070: 40be cd3e c2fd 84be 28b6 953b 6008 513e
00000080: 57a2 c53c b873 593e 4e82 293e 2316 ec3c
00000090: 579e 5d3d e4a5 77be 321a 893e c1a2 bfbd
000000a0: 69c0 49bf ac22 8f3e bae6 ea3e be2d 0cbf
000000b0: e9f9 14bc c26e 263e f8a9 79bd e555 6b3e
000000c0: 2342 b43e 0f9f 53be f22c 383d 03c2 a33e
000000d0: b271 a53e 15b5 94bd af21 c73e 63a2 8dbe
000000e0: 2ba0 cd3e 24a8 683b 5d8f 3cbe 3250 843d
000000f0: 91c7 0ebd 8a0d a53e 7c46 cabc dffd 6f3e
00000100: 1512 d1be bd01 823e 1129 14be d7bc 773d
00000110: d083 59be 553f 89be 4723 683e 9731 0dbd
00000120: 22c3 b83e dcc2 acbd d794 16be 07a8 623e
00000130: 697a 2e3f 4887 0a3e 1c90 693e 51cc bb3d
00000140: abb0 6b3e b410 30bd 6bb2 f13d a059 a0be
00000150: 2a45 c9bd b87b 253e f6d3 14bf 0f0b 513e
00000160: 63b8 9abe 9954 2f3d ba59 0bbd a520 c43e
00000170: 8d5d 00bf 846d 68be c968 6cbe 00fe acbd
00000180: 0138 f13e f179 44be b75b febd 66a2 5abe
00000190: 6408 873e f42a dc3c c71c e7be 8d09 0c3d
000001a0: 9b81 6fbd 07b2 183e 6871 053f 9812 8fbe
000001b0: 9fb5 803e bc3e acbd 0395 e0be c1f7 3bbc
000001c0: 8113 10bf 4745 26be 4a3e 833e e4e1 79bd
000001d0: 421c 38bd fe5a afbd 66ca afbe 02b3 ad3e
000001e0: 1298 7abd 3459 033c 6551 05be e08b bd3c
000001f0: ec9f 293e 4600 67be 490a 343e fec1 de3d
00000200: 3d12 2fbd 0294 663e 73b7 c4be dd74 383e
00000210: d461 6abb defa fabc d341 07bf f7c3 31be
00000220: 0fae 353e 6a48 e73d 5117 553e 422d 65bd
00000230: 9bc2 293e 8c50 b8bd 7ecc acbd 182b 6cbe
00000240: 5f64 92bc be99 35be 4312 f8bd 9e5d 9a3d
00000250: 4dd4 403e ad1f ee3c a03f 3c3d d37a 10be
00000260: 29eb 8a3e 8589 b0bd ed69 063f 9e9c 173c
00000270: 98e0 c9bd 426a 323e 5c74 aebd a5a6 e3bd
00000280: fad4 993e 7f65 1a3c ad75 c8bd 4052 a83e
00000290: ae0f 57be b537 56bf 2fea 0cbf fc85 303d
000002a0: 8a63 9f3e 08a4 11bf 6737 f2bc ec88 683e
000002b0: f926 91bd 04ec 90be 7dbf 1ebe aeab 993d
000002c0: 6ad0 01bf 9914 b8be f198 c93d 05dd 72be
000002d0: f4f8 583e 8a38 15bf e85b 443e 5b61 16bf
000002e0: c770 113f f806 623d a27d f43d fb43 53be
000002f0: d7b0 8d3d cb13 513e 1d48 fe3e 1aaa 24bf
00000300: 98a4 4bbd e711 07bf 8710 443f 5ccb 42be
00000310: e610 c03d d69f c9bd 760c 403e 52d2 59bc
00000320: 2523 d13e f853 ad3e c295 09be 26bc e53e
00000330: d054 9e3d 5d77 d2be 6713 5cbe 6f88 e5be
00000340: 42a7 64be 784e 963e 5594 853c 27ca b03d
00000350: 83d3 c33d 08c5 b83d bfb2 523e 462c 503e
00000360: 83f7 9fbd a30a 46be 50f0 acbe 55e3 933e
00000370: 8637 793d 17bc c23e c10b 43be c81c 29be
00000380: b129 a23e 5491 b0be 9c26 c3be 280f 403e
00000390: 18e4 ac3d 7c56 f33e b804 0ebe e756 dfbd
000003a0: a317 813e 86df 0bbe 6909 f0bd fc59 ce3e
000003b0: b86e bf3d 949f 45bf 8030 1ebd 6d16 833e
000003c0: 4afa 02be aabd 8dbe 9f5b eebd d039 58be
000003d0: 4187 163f 7cd7 b5be 898e c5be cbdf 0b3c
000003e0: 46ed bc3d 9555 cd3e 9073 ae3d 89d7 c43e
000003f0: a87d d0be 90bd 28be 577d 97be 246e 31bd
-0.113857016 0.1069335 0.12207173 -0.2599946 0.10301657 -0.007854215 -0.23480406 0.38461924
0.7036812 -0.21118732 -0.25562507 0.042713106 -0.13333236 -0.044921912 0.1541775 -0.29143757
0.13907668 -0.4540816 0.20781034 0.032924123 -0.53062046 -0.083211884 0.1170763 0.21167034
0.16049324 0.20234303 -0.21445459 -0.7820336 0.40184212 -0.25974852 0.004568834 0.20413351
0.024125261 0.2123555 0.16553614 0.02881915 0.054106083 -0.24184376 0.26777798 -0.09357215
-0.7880922 0.2795614 0.45879155 -0.547573 -0.009092786 0.16253188 -0.06095311 0.22981985
0.35206708 -0.20666145 0.04496474 0.31983957 0.32313305 -0.07261101 0.38892886 -0.27662954
0.4016126 0.003550061 -0.18414064 0.064606085 -0.03485829 0.32236892 -0.024691813 0.23436688
-0.40834108 0.2539195 -0.1446879 0.060482826 -0.21241689 -0.2680613 0.22669707 -0.03447112
0.36086375 -0.08435604 -0.14705215 0.2213441 0.68155533 0.13528168 0.2280888 0.0916983
0.23016612 -0.04298468 0.11801609 -0.31318378 -0.09827645 0.16160476 -0.58135927 0.20414375
-0.302188 0.042805288 -0.034021117 0.38306156 -0.5014275 -0.22698027 -0.23086847 -0.08446884
0.4711304 -0.19187142 -0.12419837 -0.21351013 0.2637359 0.02687595 -0.45139143 0.034188796
-0.05847321 0.14911662 0.5212617 -0.27943873 0.25138566 -0.08410403 -0.43863687 -0.011472643
-0.5627976 -0.16237365 0.2563346 -0.06100644 -0.044948824 -0.08562277 -0.34334105 0.33925635
-0.06118018 0.008016873 -0.13019331 0.023137987 0.16564912 -0.22558698 0.17582048 0.10876845
-0.042742003 0.22517398 -0.3842121 0.1801333 -0.0035763877 -0.0306372 -0.52834815 -0.17359911
0.1774218 0.11293109 0.20809676 -0.055951364 0.16578142 -0.08999738 -0.08437441 -0.23063314
-0.017870126 -0.17734429 -0.12112858 0.07537387 0.18830986 0.029067839 0.045959115 -0.14109354
0.27132538 -0.0861998 0.5250538 0.009253649 -0.09857291 0.17423347 -0.085182875 -0.11115769
0.300453 0.009423613 -0.0978807 0.32875252 -0.21002075 -0.8367875 -0.55044836 0.043096527
0.3113063 -0.56890917 -0.029567434 0.22708482 -0.070875116 -0.28305066 -0.15502734 0.075034484
-0.5070864 -0.35953215 0.098436244 -0.23717125 0.21188718 -0.58289397 0.19175684 -0.587423
0.5681271 0.055182427 0.11938025 -0.20631401 0.06918495 0.20417707 0.49664393 -0.64322054
-0.049717516 -0.5276169 0.7658772 -0.19022888 0.09378223 -0.098449394 0.18754753 -0.013294773
0.40847126 0.33853126 -0.13436034 0.44870108 0.077310205 -0.41106692 -0.21491776 -0.44830653
-0.22329429 0.29356742 0.016306082 0.086323075 0.09561827 0.09021956 0.20575999 0.20329389
-0.07810881 -0.19339995 -0.33777094 0.28884378 0.060843967 0.38034126 -0.19047453 -0.16514885
0.31672433 -0.34485877 -0.38115394 0.18755782 0.08441943 0.4752692 -0.13868988 -0.10905247
0.25213346 -0.13659486 -0.11720545 0.40303028 0.0934729 -0.7719662 -0.038620472 0.25603047
-0.1279079 -0.27683765 -0.11638569 -0.21115804 0.5880013 -0.35515964 -0.38585308 0.008537243
0.09224944 0.40104356 0.085181355 0.3844569 -0.40720868 -0.16478562 -0.29587814 -0.04331793

network_body._body_endoder.seq_layers.0.bias f4 [128]
00000000: 0000 0000 0000 0000 0000 0000 0000 0000
00000010: 0000 0000 0000 0000 0000 0000 0000 0000
00000020: 0000 0000 0000 0000 0000 0000 0000 0000
00000030: 0000 0000 0000 0000 0000 0000 0000 0000
00000040: 0000 0000 0000 0000 0000 0000 0000 0000
00000050: 0000 0000 0000 0000 0000 0000 0000 0000
00000060: 0000 0000 0000 0000 0000 0000 0000 0000
00000070: 0000 0000 0000 0000 0000 0000 0000 0000
00000080: 0000 0000 0000 0000 0000 0000 0000 0000
00000090: 0000 0000 0000 0000 0000 0000 0000 0000
000000a0: 0000 0000 0000 0000 0000 0000 0000 0000
000000b0: 0000 0000 0000 0000 0000 0000 0000 0000
000000c0: 0000 0000 0000 0000 0000 0000 0000 0000
000000d0: 0000 0000 0000 0000 0000 0000 0000 0000
000000e0: 0000 0000 0000 0000 0000 0000 0000 0000
000000f0: 0000 0000 0000 0000 0000 0000 0000 0000
00000100: 0000 0000 0000 0000 0000 0000 0000 0000
00000110: 0000 0000 0000 0000 0000 0000 0000 0000
00000120: 0000 0000 0000 0000 0000 0000 0000 0000
00000130: 0000 0000 0000 0000 0000 0000 0000 0000
00000140: 0000 0000 0000 0000 0000 0000 0000 0000
00000150: 0000 0000 0000 0000 0000 0000 0000 0000
00000160: 0000 0000 0000 0000 0000 0000 0000 0000
00000170: 0000 0000 0000 0000 0000 0000 0000 0000
00000180: 0000 0000 0000 0000 0000 0000 0000 0000
00000190: 0000 0000 0000 0000 0000 0000 0000 0000
000001a0: 0000 0000 0000 0000 0000 0000 0000 0000
000001b0: 0000 0000 0000 0000 0000 0000 0000 0000
000001c0: 0000 0000 0000 0000 0000 0000 0000 0000
000001d0: 0000 0000 0000 0000 0000 0000 0000 0000
000001e0: 0000 0000 0000 0000 0000 0000 0000 0000
000001f0: 0000 0000 0000 0000 0000 0000 0000 0000
0.0 0.0 0.0 0.0 0.0 0.0 0.0 0.0
0.0 0.0 0.0 0.0 0.0 0.0 0.0 0.0
0.0 0.0 0.0 0.0 0.0 0.0 0.0 0.0
0.0 0.0 0.0 0.0 0.0 0.0 0.0 0.0
0.0 0.0 0.0 0.0 0.0 0.0 0.0 0.0
0.0 0.0 0.0 0.0 0.0 0.0 0.0 0.0
0.0 0.0 0.0 0.0 0.0 0.0 0.0 0.0
0.0 0.0 0.0 0.0 0.0 0.0 0.0 0.0
0.0 0.0 0.0 0.0 0.0 0.0 0.0 0.0
0.0 0.0 0.0 0.0 0.0 0.0 0.0 0.0
0.0 0.0 0.0 0.0 0.0 0.0 0.0 0.0
0.0 0.0 0.0 0.0 0.0 0.0 0.0 0.0
0.0 0.0 0.0 0.0 0.0 0.0 0.0 0.0
0.0 0.0 0.0 0.0 0.0 0.0 0.0 0.0
0.0 0.0 0.0 0.0 0.0 0.0 0.0 0.0
0.0 0.0 0.0 0.0 0.0 0.0 0.0 0.0

network_body._body_endoder.seq_layers.2.weight f4 [128, 128]
00000000: e8a6 c03d 745e b63d 01d4 2d3d e31d f73d
00000010: ef7c 57bb 54b5 a83d ee7d ffbd 367c 6abd
00000020: 1986 4a3e 79cd c7bc 9bfe 45bd 0286 a7bd
00000030: 7023 ecbd 24a5 1d3e 3215 4d3d 8574 acb9
00000040: fe5b 3e3d 365c 0a3e 9442 b63d 6669 223e
00000050: fc96 1fbe 6324 03be c732 de3d 7537 173e
00000060: cc85 0b3e 5f4e 7d3d cd84 883d 1c90 13be
00000070: e331 59be 2806 84bd 0617 c23c cec7 293e
00000080: cadf fcbc 5518 f03d 026a eabd 2d06 873d
00000090: 8f4c da3d d343 423d 5134 8ebc 2714 313c
000000a0: cbee a9bd 854d 533d 9497 19be 6fcf 283e
000000b0: 0c1a 10be 40c3 77bd 0d14 7c3b 757c 71bd
000000c0: b318 023d ebf7 0a3d 0318 1fbd ef26 61bd
000000d0: 1ac0 9fbc 1cf3 99bc afbc 1c3d 8dc2 d33c
000000e0: 48bd 673d c6e1 6cbd 3c61 e83d a3d6 7dbd
000000f0: cd6c 823d 1d6c 023e 6aa0 523d 3d37 ac3d
00000100: 6233 18be 7d50 3bbe 434e 2f3d 1f7b 143e
00000110: 2059 f73d e5ab 3e3d 7632 31be a429 40be
00000120: fce5 a23d 75b8 a53d dde4 143c b5be 473c
00000130: e5a1 243c 35d6 81bd 10ac 12bc 79f8 7e3d
00000140: 4756 4fbd 312a 233d 149f 62bd 9010 0dbc
00000150: 2779 f43c 373b 8abd 987d 1c3d 95f9 99bc
00000160: 157f 233e c78f d93d 6143 083d 6a9e 4bbc
00000170: 1319 e33d 5972 973a f732 01bd 2e47 853d
00000180: f063 80bd fc25 d8bd f595 83bd e4a0 ccbd
00000190: ce6b 8bbd c164 7fbd ffc2 a73c 80ff dabd
000001a0: 90d0 91bc 72c4 c5bd 2c65 9dbd 381c 36bd
000001b0: c2d5 fbbd 2bd5 e4ba c143 eebd 0dea 5c3c
000001c0: a268 a13d 7c78 a13c 624d 09be c241 133e
000001d0: 2fec 0abe 968f 9f3d eb58 b73c 521c 13bd
000001e0: 28d9 fc3d 3c12 023e 16a8 a33d be48 3fbd
000001f0: 7ee4 6f3c e75c 94bc 724d a4bc a2f0 3fbe
00000200: 52d6 bb3d d9eb 23bd 0d45 15bc 4601 7abd
00000210: 38f5 34bd f93d 943d 8db2 793c 6649 9cbd
00000220: 37c8 37bd cbcb 5abd 0a72 193e c20e babc
00000230: 1a7c 40bd 7b4a 093e 529d 0a3e 8246 103e
00000240: c707 e13b c80f cb3b c4ea 2ebd 4f17 0e3e
00000250: e693 293e 10e5 5abc 887b 8a3c 76e5 b63d
00000260: c645 403c 635d e9bc 56f6 fdbc 3ccd afbc
00000270: dbd2 59be 8ff5 313d 1e49 eb3d b39c 1fbe
00000280: a17c 963d e00f d53d 788b 58bc 4ba5 203d
00000290: ef94 953d d44b 383e 36a9 1d3d 796f 853b
000002a0: cd89 a7bd 4755 b83d b377 463d c3e6 f43d
000002b0: f1ff 11be fe1d b53c 1154 8e3d a979 f13d
000002c0: 6f33 7e3d cacd b2bd 9d4f 89bd 22ed 18bd
000002d0: 2f34 7abe 65f9 813c e048 84bc 3001 3d3d
000002e0: bf5f e03d ebe4 27bd d406 123e cfc3 8e3c
000002f0: cf95 e33d 1f12 24bd 233a b8bc 493f d8bc
00000300: 5a17 773e 984a 873d 0f09 37be c596 2abc
00000310: a508 da3d 0bac 353d 6071 9db9 56ab 1b3c
00000320: e5ca 63bd ff0d f23d a885 26be 8eeb 013d
00000330: 0bba 3e3d f3d7 0d3e fa7d b83d d38b 91bc
00000340: 8320 f23c 14a4 a2bc a7ff 2e3d f3a0 18be
00000350: efd7 993d 3759 d2bd 0aa7 253e 824e 933d
00000360: e0cc e5bc e694 07bd 5ed5 b43c 32f9 9bbd
00000370: cfae c13d 4c0b af3d cd39 ca3d c883 f2bc
00000380: 5bfc 2e3d 90c8 a3bd 1701 69bd 6e4f 253d
00000390: 078c 5ebd 211b 3abd cedd 13be 50b7 0ebd
000003a0: 0abf abbd f2df 543d 22e1 413d 89e8 1bbe
000003b0: 0b4c 75bc 5a42 f4bd 405e 0abe 61db 2b3d
000003c0: af33 24bd 510e db3d e8b6 543d 3d64 b5bd
000003d0: 76ce 773c 1892 a43d da3a 1b3e ef88 7cbd
000003e0: 4f5b 8bb9 aa24 31be cfcc 323d 308a 65bd
000003f0: 6bf6 113d 65df 0ebe 670e 9fbd 58f0 e03d
0.09406835 0.08904734 0.04243851 0.12066247 -0.0032880863 0.082377106 -0.12475191 -0.057247363
0.19777717 -0.02438997 -0.048338514 -0.08179857 -0.11530197 0.15395027 0.05006904 -0.0003289321
0.04647445 0.13511738 0.088994175 0.15860519 -0.1558494 -0.12806849 0.10849529 0.14767249
0.13625258 0.06184232 0.06665955 -0.14410442 -0.21210437 -0.06446487 0.023692619 0.16580126
-0.03086843 0.11723391 -0.11446001 0.06592975 0.10659134 0.047427963 -0.01735893 0.010808027
-0.08297499 0.0515876 -0.14999229 0.1648538 -0.14072436 -0.06048894 0.00384641 -0.058956582
0.031761836 0.03392784 -0.03884126 -0.05496877 -0.01950078 -0.018792681 0.03826588 0.025849605
0.056576997 -0.0578325 0.11346671 -0.06197227 0.06368408 0.12736554 0.051422514 0.08408973
-0.14863351 -0.18292423 0.042799246 0.14500092 0.12077546 0.04655065 -0.17304406 -0.18765885
0.07954022 0.08091823 0.009087768 0.012191464 0.010048364 -0.06339685 -0.008952156 0.06224868
-0.05061939 0.03983516 -0.05532749 -0.008609906 0.029842926 -0.067495756 0.038205713 -0.018795768
0.15966447 0.106231265 0.033267383 -0.012427906 0.11088767 0.0011554464 -0.031542744 0.06507717
-0.062690616 -0.1055412 -0.064250864 -0.09991625 -0.068076715 -0.062351946 0.020478724 -0.10693264
-0.017799646 -0.096566096 -0.07685313 -0.044460505 -0.122966304 -0.0017458549 -0.11634017 0.013483536
0.07881285 0.019710772 -0.13408425 0.14380553 -0.1356666 0.07791059 0.022381267 -0.03591568
0.12346107 0.12702268 0.07991044 -0.04670023 0.014641879 -0.018110706 -0.02005646 -0.18744138
0.09171738 -0.040019844 -0.009110701 -0.06103637 -0.04417917 0.07238383 0.015240324 -0.07631187
-0.044868674 -0.05341701 0.14984909 -0.022712115 -0.046993352 0.13407318 0.13536575 0.14089397
0.006867382 0.0061969496 -0.04270436 0.13876079 0.16560325 -0.013360277 0.016904607 0.08930485
0.011735385 -0.028486913 -0.031001251 -0.021460168 -0.21271841 0.043447074 0.11488555 -0.1558712
0.0734799 0.104034185 -0.013216846 0.039220136 0.073037975 0.17997676 0.03849145 0.0040721265
-0.0818058 0.0900064 0.048453998 0.11958077 -0.1425779 0.022109028 0.06949628 0.11790783
0.06206077 -0.087306574 -0.06704638 -0.037335522 -0.24433969 0.01586599 -0.01614803 0.04614371
0.10955762 -0.040989798 0.14260417 0.017427353 0.11112558 -0.040056344 -0.02248866 -0.026397364
0.24130002 0.066060245 -0.1787455 -0.010411923 0.1064618 0.044353526 -0.00030029844 0.009501299
-0.055613417 0.11819076 -0.16261923 0.031718783 0.046564143 0.1385191 0.09008403 -0.017766869
0.029556518 -0.01985363 0.042724278 -0.14905147 0.07511889 -0.10270923 0.16177002 0.071927086
-0.028051794 -0.033100985 0.022074398 -0.076158896 0.0945717 0.085470766 0.09874306 -0.029603854
0.042721134 -0.07997239 -0.056885805 0.040358953 -0.05433276 -0.04543603 -0.1444008 -0.03484279
-0.08386047 0.051971383 0.047333844 -0.15225424 -0.014971743 -0.11926718 -0.13512516 0.041957263
-0.04008835 0.1069609 0.051932245 -0.088570096 0.015124908 0.08035678 0.15159169 -0.061654028
-0.00026580176 -0.17299142 0.043652352 -0.05603999 0.035635393 -0.13952406 -0.07766419 0.10983342

action_model._discrete_distribution.branches.0.weight f4 [2, 128]
00000000: fd46 003b 0ff0 2bbc 0390 133b abf5 5a3c
00000010: 8a13 73bc 1b77 91bc b880 7c3c 1e37 8a38
00000020: 6478 39bc db86 793b 5bbc b93c 60b1 ddbb
00000030: 48ef c53b dd1b 7abb 2d34 cb3b a74c 86bb
00000040: 1d42 6abb 4b46 0c3a fb97 933a 35c1 fe3b
00000050: 84e6 373c 7bdc 3abc 39a2 97bc efae f438
00000060: 0f04 383b cb1c f83b 8596 763b 95ab 693c
00000070: 8741 82bc b7f6 963b 8dd3 7d3b f3e4 15bb
00000080: dee7 843a aadf 54bb 6f65 233c 8ca6 19bc
00000090: 62fe 8c3c 3868 dabb 3621 3b3c 7853 4e3c
000000a0: 0b52 933b 8f1a b7bc c133 3ebc ca57 dbb9
000000b0: 2fc8 68bc fd1f 33bc f55d 9ebc a97b 253b
000000c0: 7b64 883b df75 923b fda7 973c 1dfb fe3b
000000d0: b215 f0bb 245e 4b3b ba88 8cbb 7153 ccbc
000000e0: 3be3 923b 9f2e 133b 9b91 1e3b fae5 52bb
000000f0: 983a 533c cf60 f7b9 623a 5a3c 8ff9 40bc
00000100: b7f7 b23b ff0e 3e3b 7ba8 c23b 93a1 e03a
00000110: 326a 3e3b 33b0 27bc 1b01 f0bb 7465 283c
00000120: 5f9a c0bb 928d da3b 107a 2dbb 23f1 d2b9
00000130: 2fbe f6bb 3bb3 a23b 0554 983c b68d 2fbc
00000140: aa4d 5cbb 772f 74bc 4356 81bb 44a0 4b3b
00000150: 8fd1 a3bc 8ac2 203c 5d3a 363c aa84 5e39
00000160: 3769 c1bb e720 c3bc bd61 e6bb 1e30 423b
00000170: b21a 05bc df24 5e3c 5de3 13bc 604d eebb
00000180: 3f9c e23b 5b50 3b3a 5df0 ff3b b3cd 1c3b
00000190: 11d3 8dbb efa1 ab3b 61e8 0cbc 6176 36bb
000001a0: 7764 233b 54a2 adbb 3424 30b7 c8cd 2b3c
000001b0: 9d0a 873c 520e 39bc 8bd1 48bc 8b66 e13b
000001c0: 4f81 abbb f3ee d6b9 da2b 583c f35d 91bc
000001d0: 3765 5ebb 92d9 8bbb 0517 64bb 37de 7abc
000001e0: 07e4 eebb d8e0 5fbb f683 21bc 3251 dbbb
000001f0: dab2 2e3c 55a8 10bc 4ad0 7d3b d3e4 76bc
00000200: 62ed baba b795 843c d5d4 adbc fc62 883b
00000210: 589a 0dbc f39d 6bbc a230 c43b 03fa 163c
00000220: 8526 62bb fd56 553b 3285 2a3c 3464 053b
00000230: ffe8 aebb 40cd 70ba 3b6b c13b e329 1c39
00000240: f56a 333c 83cb 5c3c fc1f 023c a8a6 62bb
00000250: 9bfb 293c d593 7cbb 3ae0 fc3b b7ba af3b
00000260: e953 103b 25e7 5fbc 9ffd c93b c78a 1bbc
00000270: a778 bfbb 445d ba3b ca55 a73b e5d4 ebb9
00000280: 3349 2dbc 2b03 3d3a 2bf9 393b 277d 34bb
00000290: 6ec1 9fbb 0b3d 9a3b a49f 2c3b 2b87 ca3b
000002a0: a505 c33b 414e b5bb 7847 743c d189 07bc
000002b0: 677e 1fbc f215 8fbb a60a 0c3c 10fd 323a
000002c0: 89b1 28bc 9724 1cbc 1ecd 37bc 6386 323b
000002d0: c76a b23b fc79 b5ba 350f d9bb 3249 203b
000002e0: 0d6c 403a a579 c63a a018 df3b ff1b a4bc
000002f0: 0ddc 313b 5441 8bbb 28c5 04bc 0bfe 833b
00000300: d3f7 7e3c 5291 fe3b cf64 06bb f00a 2ebc
00000310: 7317 55bc 984c 49bc af8c 1cbc c771 213c
00000320: 51ef c5bb 8538 ccbb 6720 cf3b 53ce 0abc
00000330: 580d 483b 3760 113c 7722 593c 0dec 103c
00000340: b0ee 6d3c 6bb7 4a3b 0aa2 623b 7be7 dcbb
00000350: 413a 953b 3a98 1cbb baa3 f73b 782f 23bb
00000360: f635 8b3c 2355 163c 7302 5b3b ef2d 50bb
00000370: c5f2 5a3b e6f8 1ebc 03a9 2abc e251 f03b
00000380: dbf2 8cbb b390 62bc 6273 01bc 131c 533c
00000390: 70d6 c13c 0fba 49ba 45aa 4dbb 54a1 103c
000003a0: 6649 bfbb 3f74 f2bb 5f01 c93b 53e3 563c
000003b0: 23f1 a6bb 126f babc 1fa7 3d3c 0fee c839
000003c0: 17c5 01bc f8dd eeb8 292e 423c 27fa 8eba
000003d0: 1627 41bc 9aa7 03bc 9598 59bc dbf1 a03b
000003e0: 00d6 4d3b 979b 9abc e306 bcbb 46c3 26bc
000003f0: b338 15bc 3f82 8fba 9dc5 f23a 9128 913b
0.0019573562 -0.010494246 0.0022516258 0.013364236 -0.014836201 -0.01775699 0.015411548 6.590619e-05
-0.011320207 0.0038074765 0.022672823 -0.0067655295 0.0060404874 -0.003816358 0.006201288 -0.004098493
-0.0035744973 0.00053510506 0.0011260504 0.007774497 0.011224393 -0.011405106 -0.018509971 0.000116674106
0.002807859 0.0075717918 0.0037626338 0.0142621 -0.015900386 0.0046070474 0.003873083 -0.002287206
0.0010139903 -0.0032481947 0.009972914 -0.009378087 0.017211143 -0.006665256 0.011421492 0.012593143
0.0044958643 -0.022351531 -0.011609019 -0.00041836343 -0.014207884 -0.01093292 -0.019331912 0.002525071
0.004162369 0.0044696177 0.01851272 0.0077814 -0.007326805 0.0031031454 -0.00428876 -0.024942132
0.0044826544 0.0022458208 0.0024195674 -0.0032180534 0.012892388 -0.0004718364 0.013319584 -0.011778249
0.005461659 0.0029000638 0.0059404946 0.0017137997 0.0029054997 -0.01023488 -0.0073243505 0.010278095
-0.0058777775 0.0066697085 -0.002647046 -0.00040233982 -0.007529996 0.0049652136 0.018594751 -0.010714939
-0.0033615627 -0.014903895 -0.003947051 0.0031070868 -0.019997386 0.009812007 0.011122313 0.00021220991
-0.005902435 -0.0238194 -0.0070306943 0.002963073 -0.00812404 0.013558595 -0.009026376 -0.0072724074
0.0069155986 0.0007145458 0.007810636 0.0023926317 -0.0043281396 0.00523781 -0.008600325 -0.0027841555
0.0024931708 -0.005298892 -1.0498847e-05 0.010486074 0.016484553 -0.011294918 -0.01225699 0.006878679
-0.0052339206 -0.00040995292 0.013194049 -0.017744994 -0.003393484 -0.0042678798 -0.003480376 -0.015311769
-0.0072903666 -0.0034161117 -0.009858122 -0.006693029 0.010662759 -0.008829196 0.0038728886 -0.015069204
-0.001426142 0.01618467 -0.02121965 0.0041621905 -0.008642755 -0.01438092 0.005987243 0.009214881
-0.0034507823 0.003255307 0.010407733 0.0020353915 -0.005337834 -0.0009185858 0.0059026754 0.00014892923
0.0109507935 0.013476255 0.007942196 -0.0034584198 0.010374929 -0.0038540263 0.0077171596 0.0053628343
0.002202267 -0.013665949 0.006164267 -0.009493536 -0.0058432403 0.0056873877 0.0051066624 -0.00044981312
-0.010576534 0.000721025 0.0028377275 -0.0027540417 -0.0048753535 0.004706984 0.002634027 0.006180664
0.0059516006 -0.0055330102 0.014909618 -0.008272604 -0.0097347265 -0.0043666298 0.008547461 0.00068278704
-0.010296234 -0.009530208 -0.011218337 0.0027240745 0.0054448578 -0.0013845558 -0.0066241273 0.002445769
0.00073403196 0.0015142454 0.0068083555 -0.02003288 0.0027139217 -0.004249731 -0.008103646 0.004028087
0.015562016 0.0077687884 -0.0020506864 -0.010622725 -0.013006079 -0.012286328 -0.009555026 0.009853787
-0.0060404916 -0.0062323236 0.0063210013 -0.008472043 0.0030525532 0.008873037 0.013252846 0.008845341
0.01452224 0.003093208 0.0034581446 -0.006741462 0.0045540635 -0.0023894445 0.0075573595 -0.002490012
0.016993504 0.009175572 0.0033418208 -0.003176566 0.0033408862 -0.009702897 -0.010416272 0.00733398
-0.0043014116 -0.013828444 -0.007901045 0.012885111 0.023661822 -0.00076952664 -0.0031382006 0.008827526
-0.005837607 -0.0073991115 0.0061341967 0.013115722 -0.0050946637 -0.02275804 0.011575489 0.0003832434
-0.007920525 -0.00011390069 0.011851826 -0.0010908291 -0.011789104 -0.008035565 -0.013281007 0.004911644
0.0031408072 -0.01887302 -0.0057381256 -0.010178393 -0.009107756 -0.001094885 0.0018522028 0.0044298847

action_model._discrete_distribution.branches.0.bias f4 [2]
00000000: 0000 0000 0000 0000
0.0 0.0

action_model._discrete_distribution.branches.1.weight f4 [1, 128]
00000000: 7e9a 02bc 677f 35bb 023b ddb9 7ddc d4bb
00000010: 3825 bf3b 7f09 d33b f220 1e3c 5b44 243c
00000020: a0ed 923b 982b f8bb bd07 4ebc c684 82bc
00000030: 67c5 673c 1b85 1cbb f87e 323b 5371 313c
00000040: 798a 9d3b c709 6bbb 9f7d dfba fdc5 bc3a
00000050: fd05 293c 5daf 81ba 97e2 673b c635 97b7
00000060: 7ee4 aebc 4260 8abb 6fa9 0abc 4803 cb3b
00000070: 0541 23bc 37ae 30bb a9e6 9f3b 345d ac3b
00000080: e34b b03b 0295 643b d1d8 a5bb ce8c 2e3b
00000090: 4b31 99ba 32e9 e33b af92 24bc daff 733c
000000a0: 82ce 523c 60b7 55bc 6fce b03b bb56 e83b
000000b0: afe1 aa3b 1852 513c 1fdf 463c 2fbb 7639
000000c0: 6520 6bbc 9bd9 5abb a7bc d9bb 7922 45bc
000000d0: 4b3f 1abc 337a 0ebb 49ee 3b3b 4f59 87bb
000000e0: 452b 323b aaf6 ec3b fa61 1abc d742 d4bb
000000f0: c856 673c 2dc7 2fbc 6abb c53b fb0c bebc
00000100: b615 2d3a c3c4 37bc 3274 683b 9fd4 41bc
00000110: e72b e5ba ad1a c1bc 388a ad3b e70c 40bc
00000120: cdef 42ba 19a7 8b3c 1685 80bb dd2d f13b
00000130: fd81 79bc 825e 233c 600a df3b 0dea 0c3b
00000140: abb1 86bb b759 b3bb efde fcbb ecdd 4a3a
00000150: 5fd5 c7bc 9b8e e2bb b499 8e3a b3a6 113b
00000160: 7f83 a33b 8265 5d3c 3a96 7a3c 286a 92bb
00000170: fba7 133c 5915 343b 6779 63bb c11e 9dbb
00000180: a25c 50bc 8641 20ba df98 2ebc bd98 30bc
00000190: 8be6 663c 09f4 023c 7023 5cbc dab7 6ebc
000001a0: bd9a 593c a267 033c 0496 1d3b 7004 f63a
000001b0: b73b cf3b 1fdd 24bb 8d5f d53b 0348 413c
000001c0: 3cfb 453b ffa3 fa3b 356f 69bc b3e8 cabb
000001d0: 9ff9 7e3b 516b 123a bdac 6dbc ed21 f3bb
000001e0: c678 a0bb 9827 ef3b 55a0 623b 3a40 46bb
000001f0: d244 40bc a298 d9ba c758 073c b56c e63a
-0.007971404 -0.0027694346 -0.0004219637 -0.006496011 0.0058332942 0.006440341 0.009651409 0.010026063
0.0044838935 -0.007573556 -0.012575087 -0.015932452 0.0141461855 -0.0023883048 0.0027236324 0.010830241
0.004807767 -0.0035863982 -0.0017050988 0.0014402267 0.010316369 -0.0009894181 0.003538286 -1.8025643e-05
-0.021349188 -0.0042229006 -0.008463248 0.0061954595 -0.009964232 -0.002695931 0.0048797918 0.005260134
0.00538014 0.0034878855 -0.005061247 0.002663422 -0.0011687664 0.0069552893 -0.010044738 0.014892543
0.012866618 -0.013044208 0.0053957026 0.007090417 0.005214892 0.01277592 0.012138157 0.0002353012
-0.014350985 -0.0033393863 -0.0066448036 -0.012032145 -0.009414504 -0.0021740317 0.0028675965 -0.0041305195
0.0027186435 0.007231553 -0.0094227735 -0.0064776945 0.014119811 -0.01072864 0.0060343044 -0.023199549
0.00066026615 -0.011216345 0.0035469648 -0.011830478 -0.0017484397 -0.02357229 0.005296018 -0.011721826
-0.0007436246 0.017047452 -0.003922115 0.0073602037 -0.0152287455 0.009971263 0.0068066567 0.002150181
-0.004110535 -0.0054733413 -0.0077170054 0.00077387574 -0.024393735 -0.0069139726 0.0010879547 0.0022224605
0.004990041 0.013512971 0.015294606 -0.004468221 0.009012218 0.0027478545 -0.0034709813 -0.004794926
-0.012717398 -0.00061132794 -0.0106565645 -0.010778603 0.014093052 0.007992753 -0.013436183 -0.014570201
0.013281521 0.008020313 0.0024045715 0.0018769633 0.0063242572 -0.0025156213 0.0065116347 0.011796954
0.0030209562 0.0076489444 -0.014247705 -0.0061922907 0.003890611 0.00055854494 -0.014506516 -0.0074198158
-0.00489721 0.007298421 0.0034580429 -0.0030250684 -0.011735158 -0.0016601274 0.008260912 0.0017580005
